actor_model.pth (torch, 75504 bytes, 6 tensors)

network.0.weight f4 [128, 8]
000000 f8 f6 93 be c1 d9 88 be c2 df d7 bd c9 7a 99 bd
       -0.2889936 -0.26728633 -0.10540725 -0.074941225
000010 bb d9 9b bd c7 88 47 3d ba dc 2b be 87 a4 30 3e
       -0.07609888 0.048714425 -0.16783419 0.17250262
000020 ef d9 9d bd 62 d2 01 3f 69 b1 fe be cc c8 c5 be
       -0.07707583 0.50711644 -0.49744728 -0.38629758
000030 d8 9c 67 3d 13 9f ab be 5f cc e7 bd de f7 d4 3d
       0.056546062 -0.33519801 -0.113182776 0.103988394
000040 a9 25 6e be 0b e4 e8 3e 11 b2 2a 3e ff f8 99 be
       -0.23256554 0.45486483 0.1666949 -0.3007278
000050 f3 42 8d 3e b8 0a 0e 3e d8 69 73 be 41 c8 55 be
       0.2759014 0.13871276 -0.23770845 -0.20877172
000060 50 2d a0 bd 01 97 d0 3e 04 02 12 be 5a 5e 9d bd
       -0.07821143 0.40740207 -0.14258581 -0.07684012
000070 65 b6 8f 3e 79 69 28 3e 5f c9 ee be 6d 51 5c 3e
       0.28068843 0.16446485 -0.4663801 0.21515436
000080 74 69 0d bf 77 61 e5 3e fa df 77 be c4 15 ab bd
       -0.55239034 0.44800922 -0.24206534 -0.08353761
000090 75 d1 b8 3d 19 fa e0 be 2e e1 77 be 82 ab a1 3d
       0.09024326 -0.4394081 -0.24206993 0.07894041
0000a0 6b 53 d7 bd fe 6b fd 3e 32 84 bf 3c 26 db 56 be
       -0.105139576 0.49496454 0.023378465 -0.20982036
0000b0 f8 ed 56 3e 02 48 0a bf 99 53 d9 be 2e 98 2c be
       0.20989215 -0.54016125 -0.42446592 -0.16854927
0000c0 96 71 2c bc 7f 8c 83 be 44 33 d3 bd b1 16 be bd
       -0.010525128 -0.25693128 -0.103125125 -0.09281672
0000d0 73 7c 94 3d 07 9b c9 bd 3a 6b 9a be 46 9c a3 be
       0.07250299 -0.09844022 -0.30159932 -0.31955165
0000e0 de 5f b1 be 15 f3 13 3f aa 59 9d 3e e4 f1 81 bd
       -0.34643453 0.5779279 0.3073247 -0.06344965
0000f0 80 30 a2 3d 48 f9 e8 be 57 24 01 be b1 50 98 bd
       0.07919407 -0.45502687 -0.12611519 -0.07437266
000100 56 01 69 be 30 49 84 3e b9 5e 03 be e6 79 bd bc
       -0.22754416 0.25837088 -0.12829103 -0.023129415
000110 95 c6 33 3e 03 40 f9 3d b6 01 00 3e 80 e5 03 3e
       0.17556222 0.121704124 0.12500653 0.12880516
000120 3b a9 44 be 2d b4 b9 be 51 9e c4 3e bf d4 69 be
       -0.19205181 -0.36270276 0.38402036 -0.22835062
000130 52 4e f0 3d 4d ab 00 be c0 6a 4b be 74 f9 cd bd
       0.117336884 -0.12565346 -0.1986494 -0.10057345
000140 0c 62 e6 be 8c 33 db 3d a0 ec f7 bd b4 42 81 3d
       -0.4499668 0.10703191 -0.121056795 0.06311551
000150 0c 77 91 3d 05 d0 46 3e 25 54 93 be 01 e8 05 bc
       0.071027845 0.1941529 -0.28775135 -0.00817299
000160 9e 21 33 3e 14 f6 7b 3e f8 84 cf bd 25 24 01 3f
       0.17493293 0.2460559 -0.10132784 0.5044578
000170 db e5 95 3e 93 60 cf 3d 49 5b 49 be 95 7a 04 3e
       0.29276928 0.10125842 -0.19663729 0.12937386
000180 0d c0 a5 be 57 2e ec 3d 7e 98 d9 be 61 09 d2 3e
       -0.32373086 0.11532276 -0.42499155 0.4102278
000190 68 88 61 be 5f ca da bd 84 71 f1 be 29 12 33 3f
       -0.22024691 -0.106831305 -0.47156918 0.69949585
0001a0 d8 20 c0 bd c7 65 6e be 82 99 7c 3e 14 eb 80 3e
       -0.093812644 -0.23281012 0.24667934 0.2517935
0001b0 d4 25 5e be dd fc 39 3e 11 2e d8 bd 4e f5 33 bf
       -0.21694118 0.18162866 -0.105556615 -0.7029618
0001c0 df 73 bd 3d 9c 2b 90 3e 14 30 8d 3d ab 42 61 be
       0.09250616 0.2815827 0.06893936 -0.21998088
0001d0 a1 14 a8 bd 5a 17 d9 be f4 e1 05 bf 48 bf 0b bf
       -0.0820706 -0.42400628 -0.522979 -0.5458875
0001e0 f8 81 34 be 59 82 80 3e c1 32 3b be ec e6 86 3e
       -0.17627704 0.25099447 -0.1828108 0.26348054
0001f0 ae 61 89 3e 06 99 84 be 5e af ba be 3c 94 9f be
       0.26832336 -0.25897998 -0.3646192 -0.3116778
000200 77 f6 bf 3e db 42 c1 be e5 6e 07 bf 86 b6 1b 3e
       0.37492725 -0.3774632 -0.52903587 0.15206346
000210 7a bd 66 bd ae f4 da be f4 e9 0b be 24 b8 7c bc
       -0.056333043 -0.427648 -0.13663465 -0.015424762
000220 0f 47 51 3e 72 00 0d be 6f 6c a8 3e 60 17 15 3d
       0.20437263 -0.13769701 0.32895228 0.036399245
000230 32 6d 83 3e 37 81 7b 3d d4 0c b4 3d 93 f6 b4 3d
       0.25669247 0.061402526 0.08791509 0.08836093
000240 a1 da 3d 3e c1 eb fd be 65 5d 23 3e db 09 a9 3d
       0.18540432 -0.49593928 0.15953596 0.08253833
000250 17 8a 5c 3e 1c e6 d2 bd f3 fe a4 bd 16 d0 8f bc
       0.21537052 -0.10297796 -0.0805644 -0.017555278
000260 64 ef c7 3d 1b 12 02 ba 96 63 d7 be c9 78 54 3e
       0.09762457 -0.00049618044 -0.42068166 0.20749201
000270 54 d3 f9 3e 3e 64 0f 3e be f7 00 3d 07 f0 49 bd
       0.48794043 0.14003083 0.031486265 -0.049301174
000280 a2 2c ab be 45 f7 e8 3d 90 b5 ef bd 2b 34 f9 3e
       -0.3343249 0.11375288 -0.11704552 0.48672614
000290 62 a8 73 be 40 3c 7d 3e 9c c9 5d bf 71 a5 73 3f
       -0.23794702 0.24730015 -0.86635756 0.9517432
0002a0 e7 a1 62 be 35 d0 02 3d 55 59 fe 3d d7 ab 96 3d
       -0.22132073 0.031936843 0.124193825 0.073569946
0002b0 93 76 30 3e 4f 84 02 3e a7 37 bc bc fa 71 d0 be
       0.17232732 0.12745784 -0.022975756 -0.40711957
0002c0 a6 00 77 be 6b 7e 84 3e da b7 60 3e 28 d2 2d bd
       -0.24121341 0.258777 0.21945134 -0.04243675
0002d0 34 a3 e9 be f7 c6 82 3b 76 3f bd bd a2 a3 6b bf
       -0.45632327 0.0039910036 -0.0924062 -0.9204656
0002e0 3a b1 80 be c9 f9 a9 3c a3 f2 fe bb 2f 79 bf be
       -0.25135213 0.02074899 -0.0077803894 -0.37397143
0002f0 66 b7 c6 bd 29 af a5 bd 87 16 5b be b6 ed 3d bf
       -0.09702949 -0.0809005 -0.21395312 -0.74190843
000300 d2 ec 93 3e 1c d7 c2 3e 67 d2 d9 3d 68 e0 89 be
       0.28891617 0.3805474 0.10635834 -0.2692902
000310 6d 4c 34 3b 8a 4c d5 bd 53 1a bf be ae e6 f9 be
       0.0027511374 -0.10414989 -0.3732477 -0.48808807
000320 95 4d bf 3d 3e 3b f5 bd 6a d6 c2 3e 2c 17 75 bd
       0.093409695 -0.1197419 0.3805421 -0.05983655
000330 be 8e 4e 3e 8c 0a 61 3c ad fc a7 be f0 22 2d 3e
       0.2017164 0.013735425 -0.32809964 0.16907859
000340 ce 34 f8 3a 4f 67 7b 3e d7 c7 c3 bd 75 7b ed 3e
       0.0018936635 0.24551128 -0.09559601 0.46383253
000350 35 4f ae bd 97 f7 65 3e 59 78 81 bc 7c 3c 5c bf
       -0.08511201 0.2245773 -0.015804457 -0.8602979
000360 cf c8 f9 3e 2e 37 b3 be 4f d9 3e 3e cf 89 5b bc
       0.48786017 -0.35003036 0.18637584 -0.013399555
000370 38 9d bc be c8 ff 6e 3e cc d7 a1 be af fc df be
       -0.36838698 0.2333976 -0.31609952 -0.4374747
000380 7d ec d9 be 29 fb 69 3d 4d 21 ca 3d 46 cc 03 be
       -0.4256324 0.05712429 0.09869633 -0.12870893
000390 16 cf c6 bd 89 7c 59 bc b3 9d 97 bd 09 a9 a9 bf
       -0.09707467 -0.01327432 -0.074031256 -1.325471
0003a0 5a 45 10 be 76 2e 98 bd c3 74 00 3d f4 97 5a 3e
       -0.14088956 -0.07430737 0.031361353 0.21347028
0003b0 77 06 a6 be 22 5b 75 3d 5d 5f 86 bd 5c 82 d7 be
       -0.32426807 0.059901364 -0.06561158 -0.42091644
0003c0 c6 43 89 be 93 b5 3d 3e e0 b4 be 3e 2f 90 43 be
       -0.2680952 0.18526296 0.37247372 -0.1909797
0003d0 42 b9 c3 be a9 e6 f8 3d 6f 0c d5 be 54 fa a8 bf
       -0.38227278 0.1215337 -0.4161105 -1.3201394
0003e0 f5 5b 1c 3e b4 1d 15 be d7 a8 2d 3d d8 85 71 bd
       0.15269454 -0.14562112 0.042397346 -0.058965534
0003f0 c4 25 86 be 57 09 12 3e 09 b3 f0 be bb 64 f2 bd
       -0.26200688 0.14261375 -0.47011593 -0.11835619

network.0.bias f4 [128]
000000 e1 b9 49 bd 6a 52 6a 3e 6f e1 5c 3e 58 84 c2 3e
       -0.049249534 0.22883001 0.21570371 0.37991595
000010 fb d7 96 3e 57 01 1a 3f 41 3b fb be b1 82 81 3e
       0.29461655 0.60158294 -0.49068645 0.25295022
000020 af 07 8e be e4 78 a8 be e5 a5 88 3e f4 22 56 3d
       -0.27740237 -0.32904732 0.26689067 0.052279428
000030 8e 0b 18 3d 78 13 2b bc 24 d3 cf bd de e8 79 be
       0.037120394 -0.010441653 -0.10147694 -0.24405238
000040 fd 01 28 be b1 49 39 bd a9 18 05 be de 4c 37 be
       -0.16407008 -0.045236293 -0.12997688 -0.17900416
000050 49 21 14 3d 93 39 d3 be 30 db 5f bd 36 c5 64 bd
       0.036164556 -0.41254863 -0.054652393 -0.055852138
000060 27 e0 92 3e 31 95 0f be 65 ce e1 3c 12 24 3e 3e
       0.2868664 -0.14021756 0.027564237 0.18568447
000070 e3 b3 c1 bd 2a b8 dc be 5a 79 94 bd 23 bd 47 3e
       -0.09458139 -0.43109256 -0.072497085 0.19505744
000080 e3 8d 01 be 4e aa eb 3d f2 d0 e5 3d 6b 19 dd be
       -0.12651782 0.115070924 0.11221494 -0.43183455
000090 57 ed 3c be ea 41 90 3c 5d fc 11 3e 29 92 00 be
       -0.18449913 0.017609555 0.14256425 -0.12555756
0000a0 56 bb 29 be 3f 7c 52 be 4b 32 c3 3e fe 16 4c 3e
       -0.16575369 -0.20555209 0.38124308 0.19930646
0000b0 67 c5 1e be fe 6e cd be 1d 3c 46 be 24 8c 9e 3d
       -0.1550499 -0.40123743 -0.19358869 0.077415735
0000c0 aa 84 0b be 68 cf 55 be 18 56 c4 be bc e4 27 bf
       -0.13624826 -0.208799 -0.38346934 -0.65583396
0000d0 60 a3 57 3e 08 e3 97 3d 96 4d 88 be e3 8c 4b 3e
       0.21058416 0.0741635 -0.26621693 0.19877963
0000e0 bf 0d d8 bd 09 23 44 bd 9d 92 fc bd 32 2d ba 3e
       -0.10549497 -0.047884975 -0.12332652 0.36362606
0000f0 39 3e de 3b 97 78 d6 bc 96 20 0f be 34 43 d2 3d
       0.00678232 -0.026180549 -0.13977274 0.10266724
000100 67 fb 89 be ad e6 dc bd 87 97 c5 3e 89 52 e7 be
       -0.26949617 -0.107861854 0.3859217 -0.45180157
000110 4f d2 16 be 1f 2c 92 bd b0 0d 37 3e b8 39 01 bf
       -0.14728664 -0.07137322 0.17876315 -0.50478697
000120 b1 39 67 3c 73 1a 6b bd c7 1f 80 be d7 4f 77 3c
       0.014112876 -0.05739827 -0.25024244 0.015094719
000130 72 04 ae 3e 49 b7 b1 be 5f 90 a6 3d a1 dc bb be
       0.33987767 -0.34710148 0.08133005 -0.36691764
000140 3b 30 05 bf 0b 07 1e be 90 11 74 be 4b 55 b4 be
       -0.5202672 -0.15432374 -0.23834825 -0.35221323
000150 1a b6 87 bd 14 42 86 3d 7e ee df be 55 13 f4 bd
       -0.0662653 0.06555572 -0.43736643 -0.1191775
000160 e4 06 af 3e 9b ea b2 bd 9c 96 cd bd 64 bf 18 3e
       0.34184945 -0.08736154 -0.10038492 0.1491676
000170 14 b2 30 3e e2 8a 3a be 91 eb d3 be 5e 11 a9 3c
       0.17255431 -0.18217042 -0.4139066 0.020638164
000180 19 41 31 be 50 71 e5 3e 67 27 68 be ea 5c e4 bd
       -0.17309989 0.44813013 -0.22671281 -0.111505345
000190 45 9e 29 be 63 2a a6 3e 9e 77 80 be fd 64 80 3e
       -0.16564281 0.32454214 -0.2509126 0.25077048
0001a0 e7 06 97 3e f3 ad e3 be 36 ab d8 be b6 be d3 be
       0.29497454 -0.4446865 -0.42318124 -0.41356438
0001b0 72 5f bd be 12 80 38 3d 5f 0a 98 be bc 01 62 be
       -0.36986881 0.045044012 -0.29695413 -0.22070974
0001c0 b4 1b 88 be a7 73 d4 3d 68 c3 f5 be ea ee 0c be
       -0.26583636 0.103736214 -0.48000646 -0.13763013
0001d0 d0 7e d4 3d 44 c0 ed bc 33 f4 f7 bd 76 39 3b 3e
       0.1037575 -0.029022343 -0.12107124 0.18283638
0001e0 0c 4e f1 3d 19 96 88 be 6d 6b 0a bc 42 81 9c bd
       0.117824644 -0.26677015 -0.008448464 -0.076418415
0001f0 04 59 4c 3e b0 5c 0e be 54 5a 00 3d f0 e7 d8 3c
       0.19955832 -0.13902545 0.031336144 0.026477784

network.2.weight f4 [128, 128]
000000 c2 1b 21 bd 97 0e a8 3a 59 1c 42 3b c2 4d ab bd
       -0.039333113 0.0012821731 0.0029618947 -0.083644405
000010 6d ae b2 bd 66 c2 22 bd 4f a7 b1 3c b5 d7 f8 3b
       -0.08724675 -0.039736174 0.021686224 0.0075940737
000020 56 70 36 3d 6a 24 a6 bc 98 44 4f bd f3 0e 57 bd
       0.044540726 -0.020281035 -0.050602525 -0.05250449
000030 dc 56 b0 bd 95 40 99 bd 1a f2 b7 bd 31 90 bb bd
       -0.08610317 -0.07483021 -0.08981724 -0.09158362
000040 24 ee 8b bd f9 65 fa bc 1a 4d 6a bb 1a cc 7b 3d
       -0.06832531 -0.030566202 -0.0035751523 0.061473943
000050 71 8c 5e bd 7a c7 25 3c 3e af cb 3c 4d fe 2d 3d
       -0.054333154 0.01011836 0.024863835 0.04247885
000060 6d 01 18 bd 69 56 da bd ef af 67 bd 47 27 e1 bc
       -0.037110735 -0.10661013 -0.056564268 -0.02748455
000070 b0 60 fd 3c cf 02 ac 3b 63 43 2a 3d 9d c3 e5 bd
       0.030929893 0.0052493582 0.04156817 -0.11218951
000080 a4 83 7e 3d 36 65 7a bd 50 65 a3 bd a4 ad 98 bd
       0.06213726 -0.06113168 -0.07978308 -0.07454994
000090 8d 82 15 3d dd 81 23 bd 23 da 6f 3c d2 2c e0 bd
       0.036501456 -0.03991877 0.01463941 -0.10946049
0000a0 dc 0f d8 bb aa 78 9f bc 0c 5e b6 bc 2d bb f1 bc
       -0.0065936875 -0.019466717 -0.022261642 -0.029508198
0000b0 f9 f8 56 bd 5c f6 1e bc 17 1f 15 bd fa 15 93 bc
       -0.052483533 -0.009702291 -0.036406603 -0.017954815
0000c0 01 eb 14 bd db 34 9c bd 7f 3f fe 3c fa 36 45 3d
       -0.03635693 -0.07627269 0.031036137 0.048148133
0000d0 9c 7b f1 bd 74 af 5a 3d b8 54 aa 3c 48 df c7 bd
       -0.11791155 0.05338998 0.02079235 -0.097593844
0000e0 4a d1 1f bd 38 46 bf bd 84 e0 56 3d 4b 60 b2 bc
       -0.039017953 -0.09339565 0.05246021 -0.021774432
0000f0 20 ec 2d 3c e5 d2 17 bc b8 09 8e 3d b1 d7 3f 3d
       0.010615379 -0.00926659 0.069354475 0.04683656
000100 3e bd af bd fc eb 9f bd b2 39 76 3d f8 1f 4e 3d
       -0.08581017 -0.07808682 0.060113616 0.050323457
000110 27 0d bc bc a9 17 42 bd 6e 61 fc 3c 84 5a b7 bd
       -0.02295549 -0.047385845 0.030808177 -0.08952811
000120 b1 62 8d 3c 77 65 68 bc 74 9e 49 bc 75 0c 8b bd
       0.017258974 -0.014184347 -0.012305845 -0.06789485
000130 2f 62 1e 3c 65 cd 63 3d 6f c6 1f 3c be 0b 96 3d
       0.0096669635 0.0556158 0.0097519 0.073264584
000140 64 f2 81 bd 2b 19 69 bd e0 31 65 3d 73 5d 8e 3d
       -0.063450605 -0.056908768 0.055955768 0.06951418
000150 c7 fa 2c bd 09 de 7d 3c 41 57 b1 bc c9 70 3a 3c
       -0.042231347 0.015494832 -0.021648051 0.011379429
000160 17 17 53 3d 7c 89 46 bd 17 10 76 bd 33 9a 1b 3d
       0.051535692 -0.04847096 -0.06007394 0.037988853
000170 2c 1a 1e bb a7 4c 91 bd b8 14 ed bc 2a 19 f8 3c
       -0.0024124486 -0.070946984 -0.028940544 0.030285437
000180 19 a8 ce bd 79 ee 78 3d b7 b2 bd bd 13 9a 82 bc
       -0.10090656 0.0607743 -0.09262603 -0.015942609
000190 51 a5 ba 39 06 0e 57 3c d0 c1 6d 3c 03 fa b6 3b
       0.00035599855 0.013125902 0.0145115405 0.005584003
0001a0 8d a6 83 3d 2c c6 83 bd 1f 1e ca bd ac b7 13 3d
       0.064282514 -0.06434283 -0.098690264 0.036063835
0001b0 fd 35 9f 3c 15 c7 3e 3c b0 25 39 bd ff f4 af bd
       0.019434923 0.011644145 -0.045201957 -0.08591651
0001c0 f0 b7 56 bd 58 18 3e bd 59 22 7b bd 7f d9 40 3d
       -0.05242151 -0.046409935 -0.061312053 0.04708242
0001d0 3d 46 64 3d 73 cd 5e 3d 8b ae 15 3c 87 e3 9c 3c
       0.055731047 0.05439515 0.009135853 0.019151462
0001e0 8f 60 2c 3d fc 62 08 bd 23 0f 07 bd 7e f6 43 bd
       0.042084273 -0.033297524 -0.03297342 -0.047842495
0001f0 39 f9 d3 3c 80 d7 e9 bc 09 94 48 3c f2 66 98 bd
       0.025875675 -0.028545141 0.012242326 -0.0744151
000200 2e 05 83 bd 7e 70 8d 3d 80 96 2f 3e 43 eb 5e 3e
       -0.06397472 0.06906222 0.17147255 0.21769433
000210 42 41 03 3e 79 40 56 3e 99 65 11 be c2 93 20 3e
       0.12817863 0.20923032 -0.14198913 0.15681365
000220 ef 13 0c 3e a3 1e a3 bc 9f 0c e0 3d e6 fd 48 bd
       0.13679479 -0.01991207 0.10939907 -0.04907026
000230 ac ad 35 be 2a c8 36 be 3a e8 5b 3d f9 14 79 3e
       -0.17742032 -0.17849794 0.053688265 0.24324407
000240 3e 48 40 3e 7e be 60 be 9d a6 02 be bd bc 5e 3d
       0.18777558 -0.21947667 -0.1275887 0.054379214
000250 98 67 bc 3d 6e da 8e 3d 17 cb e4 3d 55 f0 7d 3d
       0.091994464 0.06975256 0.11171549 0.061996777
000260 c9 54 60 bd df 5f 8e bc f6 d6 d0 bc 38 37 d9 bd
       -0.054768357 -0.0173797 -0.025493126 -0.10606235
000270 58 dc b1 3d f1 21 ff bd b9 f5 30 3e c7 de ba bd
       0.08684605 -0.12457646 0.17281236 -0.09124523
000280 9f 15 5f 3e 81 20 24 be 9b f4 a0 3d ca 9d c3 bd
       0.21785592 -0.16028024 0.07859155 -0.0955158
000290 1a 29 62 bd 49 f5 12 3d 07 ac 22 3c 74 fc e4 3c
       -0.05521498 0.035878453 0.00992871 0.02795241
0002a0 2f 70 37 3d 67 05 38 3e 94 97 90 3e cb 72 7b 3d
       0.04478472 0.17970811 0.28240645 0.061388772
0002b0 d7 4e 78 bb 70 b0 75 bd ea 7c 8e 3e 2e de 6f 3d
       -0.003788879 -0.059982717 0.27829677 0.058561496
0002c0 5d b7 8f bd 8d 17 10 3e e6 a1 52 bd 2c 42 23 be
       -0.07017396 0.14071484 -0.05142393 -0.15943211
0002d0 87 21 ba bd 46 fa 03 be 99 c0 7f be 21 af dc bc
       -0.09088426 -0.1288844 -0.24975814 -0.026938977
0002e0 ff 51 e7 bc 09 5a 28 3c e3 44 90 3d 7c e8 47 bd
       -0.028237341 0.010275372 0.07044389 -0.0488057
0002f0 51 95 9e 3e f5 db 83 be e1 c7 80 3c 73 f7 b0 bd
       0.30973294 -0.2575375 0.01572031 -0.08640947
000300 71 5c b6 3d 64 bb af bd e1 fd df 3d 4a 8c 36 3e
       0.089043505 -0.08580664 0.109370954 0.17826954
000310 d1 44 27 bc 60 81 b7 3d 8a 96 86 be 74 5f 3a be
       -0.010209278 0.08960223 -0.26286727 -0.18200475
000320 8a 3c 2a 3e de bb 05 3e 14 a7 9c 3d e2 15 51 3e
       0.16624656 0.13059947 0.07649055 0.20418504
000330 01 a9 37 3e 3e 68 22 bd ba 5e e6 bd 41 d9 32 3e
       0.17935564 -0.039650194 -0.112485364 0.17465688
000340 d8 1c fb bc f9 c4 c9 3d a8 92 b0 be bc 32 c8 bd
       -0.030653402 0.09852023 -0.3448689 -0.09775302
000350 04 bb 4b be be 21 c5 bd 8a e7 86 3d 20 24 9d bd
       -0.1989556 -0.096255764 0.06587131 -0.07672906
000360 0f 43 20 3e ab ea 28 3e de f0 74 3d 4e 2b 26 3e
       0.15650581 0.16495769 0.05980002 0.16227457
000370 2c 42 d1 bd b6 3e 3b be 64 8a cd bd 55 d0 0c 3e
       -0.102176994 -0.18285641 -0.100361615 0.13751347
000380 af 3a af bd 97 78 86 3e b6 b8 e4 3d 61 67 6c 3e
       -0.08556115 0.26263878 0.11168043 0.23086311
000390 8b eb 3a 3e 12 3e 60 3e 0c 54 9f be 45 f8 90 3e
       0.18253915 0.21898678 -0.3111881 0.28314415
0003a0 29 05 55 3e 33 4b cf bd 47 72 fb bd cf 4e 0f bd
       0.2080275 -0.10121765 -0.12277656 -0.034987267
0003b0 47 50 de be c0 f9 5a 3d 74 65 de 3c fd 76 cf bc
       -0.43420622 0.053460836 0.027147986 -0.025325293
0003c0 82 10 08 3c 73 7d 26 be 58 45 ac be 7d 3e a1 3e
       0.008304717 -0.16258793 -0.33646655 0.31492987
0003d0 12 ff 00 bd c5 ba 2b 3e 1d 89 46 3e 64 d8 11 be
       -0.031493254 0.16770466 0.19388242 -0.14242703
0003e0 34 f9 05 3e 9a 5a 03 3e 53 0f ef bd e5 44 58 3c
       0.13083345 0.1282753 -0.11672845 0.0132000195
0003f0 20 20 39 bc 71 00 61 3e 4e 72 61 3d 3b 22 8a 3e
       -0.011299163 0.21972825 0.05504065 0.2697924

network.2.bias f4 [128]
000000 4f eb 78 bd 45 dd 8a 3d c2 67 ae 3d dd c2 cb bd
       -0.060771283 0.06780485 0.08515884 -0.099492766
000010 63 99 b3 bb ba 28 36 3e 03 a0 91 bd 43 28 44 bd
       -0.0054809316 0.17788973 -0.07110598 -0.04788996
000020 61 83 e8 bd cd a8 b5 bd 72 ee 89 bd 02 74 01 bd
       -0.113531835 -0.08870087 -0.06734933 -0.031604774
000030 37 4a 07 bd a6 ec 88 ba 43 61 05 bc 0b 65 00 3b
       -0.03302976 -0.0010446503 -0.008140865 0.0019591476
000040 cc 1b 49 bc 2b c9 07 be c0 ab 04 bd 33 b0 f5 bc
       -0.012274694 -0.13260333 -0.032390356 -0.029991245
000050 6f 05 a9 bd 98 9e f4 bb f6 66 4e 3e 0b 08 d4 bd
       -0.082529895 -0.007465195 0.20156464 -0.103530966
000060 86 bb 1a 3e c9 07 2f be e2 8c 88 3d 56 2d 9c bd
       0.15110597 -0.17092814 0.06667496 -0.07625835
000070 57 b5 83 3c 3b e9 25 bd 46 d3 37 bd bc 03 91 3c
       0.01607768 -0.04050563 -0.04487922 0.017701976
000080 3c 12 b9 bc 3e 5e 1a 3e fb ff e7 bd 12 08 8f bd
       -0.022591703 0.15075013 -0.11328121 -0.06983961
000090 8e a8 8f 3e b4 a7 e5 bc ab 1e 09 bd 13 56 d1 bd
       0.28058285 -0.028034069 -0.033476513 -0.102214955
0000a0 e2 7e 17 be 95 6b c6 bc 01 ea 04 3e 71 60 95 bd
       -0.14794496 -0.024221221 0.1297989 -0.07293785
0000b0 04 b0 7d bd 9d b1 8f bd d7 95 93 3d 23 af 5b bd
       -0.06193544 -0.07016299 0.07206314 -0.05363382
0000c0 7e c3 a7 bd bf 5c 57 bd 1a a5 2b 3e 37 57 ad bd
       -0.08191584 -0.052578684 0.167622 -0.084639005
0000d0 34 03 99 3d ca 11 00 be 13 f3 ca bc 86 35 dd bd
       0.07471314 -0.12506786 -0.02477411 -0.108012244
0000e0 53 49 c1 bd b3 c1 63 bd ae 38 0a be 4c 61 02 bd
       -0.094378136 -0.055604648 -0.13498184 -0.03183107
0000f0 b2 16 6e 3d 04 6e f7 bd d1 f3 1c 3e f8 6a b7 bc
       0.058127113 -0.12081531 0.15327384 -0.022389874
000100 56 1d 94 bd c9 42 9f bc 5c 38 e4 bd 55 9b 05 bd
       -0.07232158 -0.019441025 -0.11143562 -0.03261884
000110 69 d9 99 bd 87 f9 e2 3c 33 e5 9e bd 09 71 47 bb
       -0.07512171 0.027706875 -0.0775856 -0.0030432364
000120 23 87 8d bd 37 cb aa bd 5b 6d ef bb bc 6a 45 bd
       -0.06910541 -0.083395414 -0.0073067374 -0.048197493
000130 67 47 6c bd 02 35 b1 bd 81 91 e2 3c 9e 70 d9 bc
       -0.057685282 -0.086526886 0.027657272 -0.026542958
000140 00 02 96 bd a7 7a bf bd 13 38 22 3e 51 a4 18 3e
       -0.073246 -0.09349566 0.15841703 0.14906432
000150 be 30 d2 bd d0 dc 1b 3e 7c 05 06 bc de 61 9a 3c
       -0.10263203 0.15220952 -0.0081800185 0.018845495
000160 48 7d 59 bd f2 56 1a bd 51 a1 c4 bd bd a8 41 3c
       -0.053097993 -0.037680574 -0.09601081 0.0118200155
000170 e7 34 6a 3d 12 66 e7 3c 5a 9e 9d 3c 5b 36 17 bd
       0.057179358 0.028246913 0.019240547 -0.03691707
000180 e7 0f 01 be 77 d2 f8 bd b3 c5 4d 3d 28 3e b8 bb
       -0.12603723 -0.12149518 0.05023737 -0.005622644
000190 72 ca bb 3c 0d 7c 45 bd 5f 08 90 bd 11 19 95 bd
       0.022923682 -0.048214007 -0.07032847 -0.07280172
0001a0 dc e0 e2 bc b3 9c 8c bd 7e e0 c1 bd 39 68 8d bc
       -0.027695112 -0.068658255 -0.094666466 -0.017261611
0001b0 da d9 63 bc 21 b7 80 3e 84 56 28 be 85 06 c4 bc
       -0.01390692 0.25139716 -0.16439253 -0.02392889
0001c0 34 1e b5 3b a9 51 b5 bd 8a 41 98 bb df 40 bb 3d
       0.005527282 -0.08853466 -0.0046464847 0.091432326
0001d0 de ce 72 bd b4 ba 6b bb d4 4c 1a bd 2d fa cd 3d
       -0.059279315 -0.0035969438 -0.037670925 0.10057483
0001e0 14 af e8 bc 95 32 51 bd f5 14 8f bb 9f 12 a3 bd
       -0.028403796 -0.05107363 -0.004366512 -0.07962536
0001f0 fa 4c 0a bd 1c a6 bd 3d be c4 1a bd ae 2f 8f bd
       -0.033764817 0.092601985 -0.037785284 -0.06991516

network.4.weight f4 [4, 128]
000000 f8 ef d4 bc 66 eb 58 3e ef 45 19 3f 99 3b 89 3d
       -0.025993332 0.21183547 0.59872335 0.067008205
000010 d4 98 ed 3d f3 6c d6 bb 6b f9 79 3e a7 5f cf bc
       0.11601415 -0.0065437495 0.24411552 -0.025314165
000020 80 6d 40 bc 4b 35 29 3d 97 04 19 3d ec 0c 2c 3d
       -0.011744857 0.04131059 0.037357893 0.04200451
000030 66 c8 c2 bb 73 aa 18 bd e4 01 63 3e 60 6b fe 3d
       -0.0059442995 -0.037271928 0.2216869 0.12422824
000040 08 5b 04 bd 3d 86 96 3d c2 52 40 3d a7 1b ae bc
       -0.032313377 0.07349823 0.046953924 -0.02125342
000050 0a f3 ad 3d 16 18 f0 3b 32 45 6b be d2 c7 b8 3c
       0.08493622 0.00732709 -0.22975615 0.02255622
000060 30 d3 b6 3f 7b 05 87 3d c0 99 86 3e 88 13 11 3e
       1.4283199 0.06592842 0.26289177 0.14167607
000070 0f e9 8b 3d ae 62 8d 3d 11 a0 64 3d 2a c1 1e 3c
       0.06831562 0.06903587 0.055816714 0.009689609
000080 e0 57 3e 3e 50 5e 28 3f cd ab 36 bd c9 cd ad 3b
       0.18588209 0.6576891 -0.044597436 0.0053040725
000090 a6 33 e8 be c1 51 15 3d ef 9a 7e 3d 92 33 a7 bc
       -0.45351905 0.03645492 0.062159475 -0.020410333
0000a0 57 7b 8c 3d 66 e8 33 3d 7b 06 05 3c 75 c7 02 bd
       0.06859463 0.043922804 0.008119221 -0.0319285
0000b0 5e e4 8d 3d ed 09 70 3d fd 2a 7b 3e f7 ff ec bc
       0.06928323 0.058603216 0.24528117 -0.028930647
0000c0 ed 3a a8 3c 71 f0 dd 3d b6 dd 89 bb fd b8 60 3d
       0.02053591 0.10836876 -0.004207338 0.05486392
0000d0 57 ff 8e 3f 60 e8 f9 bd a3 2e 59 3c 8e 7a 39 3d
       1.1171674 -0.12202525 0.013255748 0.045282893
0000e0 0c c5 3a 3d 04 0c cd 3e a4 09 e9 3d 49 5a e4 bc
       0.045598075 0.4004823 0.11378792 -0.027875083
0000f0 c4 84 d9 3b 00 a7 67 bd 91 43 a4 3e 19 40 04 3d
       0.0066381413 -0.056555748 0.320828 0.03228769
000100 af 7d a0 3d e1 8f 84 bc 44 be ea 3d f3 4d 05 3c
       0.07836472 -0.016181888 0.114620715 0.00813626
000110 af df 60 3c a2 ea 1e bd 06 e4 73 3e ad 2a 89 bd
       0.013725205 -0.038797982 0.23817453 -0.06697593
000120 de d4 ea 3d 66 5a 22 3b da 5c aa 3d 20 51 79 3d
       0.114663824 0.002477312 0.08318491 0.060868382
000130 8c ad b2 3c ca a5 b2 3d b3 f0 db 3c d2 85 3d bd
       0.02181127 0.08723028 0.026848173 -0.0462702
000140 a9 ac d2 3c e5 0a 99 bd b0 74 c7 3e 02 91 90 3e
       0.025717096 -0.07472781 0.38956213 0.28235632
000150 50 11 b3 bb 9a 58 c3 bc 92 8c 6f 3e a4 16 18 3e
       -0.0054647103 -0.02384596 0.23393467 0.14852387
000160 85 ac 3b bc f2 2f 87 3d e4 6c bf 3e 0a 93 02 3d
       -0.011454706 0.06600942 0.37387764 0.03187851
000170 56 95 79 3e e9 46 34 3d b2 5e 3b 3c c0 e5 5e 3d
       0.24373373 0.044012938 0.011436151 0.054418325
000180 7a 9f f3 3d 3c c8 13 3e d6 e9 79 3d ba 73 3e 3d
       0.11895652 0.14431852 0.06101402 0.046497084
000190 1d 8d b8 bc 72 c9 c8 3c 4a 0c 24 ba bf 86 a0 3d
       -0.022528226 0.02451012 -0.0006257935 0.07838201
0001a0 61 10 01 3d e8 2f 61 3d 56 02 aa 3d 9b ca cd 3c
       0.03150976 0.054977328 0.08301227 0.025121024
0001b0 9f 1a 23 3c 8e 0a a0 be 0e af 93 3c c9 4a cf bb
       0.009955077 -0.31258053 0.018027809 -0.0063260538
0001c0 e5 0b 99 3c 9b 15 b9 3d 71 c6 13 3e a5 1c de bd
       0.01868243 0.09037324 0.14431168 -0.10845307
0001d0 5b ba 49 3c 91 bc 1c bd d8 4a da b9 32 f6 33 bd
       0.012312497 -0.03826577 -0.00041635963 -0.043935962
0001e0 5b 47 ac 3c 5f 8a 0f 3d 46 3a 77 3d e7 ba e4 3d
       0.021030119 0.03504407 0.06035831 0.11168461
0001f0 0e a7 1d bc b5 a7 35 3d 7b da 93 bb 59 32 f5 bb
       -0.0096223485 0.04434939 -0.004512129 -0.0074828085
000200 54 fb 28 bd d0 aa a2 3d 92 3f b4 3d 2e 08 8d bd
       -0.04125531 0.07942736 0.088011876 -0.06886326
000210 70 a9 d5 bc dc 43 2d 3e 05 4c 27 3e c3 ce 76 bc
       -0.02608177 0.16920418 0.16337593 -0.015063944
000220 e9 2e be bc b6 a7 6c 3d 61 59 cb 3c 88 37 b8 3d
       -0.023215728 0.05777713 0.024822893 0.08994967
000230 4d 75 47 3d da 9f 4f 3d 24 3b 9c 3d 5f 97 a9 3d
       0.04869585 0.050689556 0.07628468 0.08280825
000240 86 09 35 3d 2a 26 ac 3d 5f be 72 3e 3e 2d 96 bc
       0.044198535 0.08405717 0.23705433 -0.01833212
000250 0d 94 c2 3c e7 0a b4 3d 39 37 23 3e 56 74 3f 3d
       0.023752237 0.08791142 0.15939035 0.046741806
000260 49 ad f6 3f 6e 73 94 3d 6a a5 ef bd b6 9d 18 3d
       1.9271632 0.07248579 -0.11701472 0.03725978
000270 b9 73 8e bd 86 10 39 3d 79 b0 10 bd b9 c6 6c 3d
       -0.06955666 0.045181774 -0.035324547 0.057806704
000280 09 46 2a 3e 80 09 41 3e 05 e1 30 bd 62 16 a2 bd
       0.16628279 0.1885128 -0.043183345 -0.079144254
000290 8f 8d 95 3e a7 f3 a3 3d 35 6f 68 3d d9 fa a9 3d
       0.29209563 0.08005457 0.05674668 0.082997985
0002a0 05 5e bb bb 0f e0 2b 3d 00 b9 6a 3b 38 09 78 3d
       -0.005717995 0.041961726 0.0035815835 0.060555667
0002b0 b0 f9 87 bd 39 17 c2 3d c5 f7 74 bd 09 3a 64 bd
       -0.06639421 0.094770856 -0.059806604 -0.05571941
0002c0 da 5d c6 3d bf 86 e6 3c ca b2 17 3e 4b 61 63 3d
       0.096858695 0.028140424 0.14814296 0.055512708
0002d0 f0 d2 0d 3e 8c be 50 3d bb dc 0f 3d d2 8d 58 3d
       0.13849998 0.05096297 0.035122614 0.052869625
0002e0 2d 21 b1 3c 96 04 8f 3e c6 35 e0 3d a9 1d 31 bd
       0.021622265 0.27933186 0.109477565 -0.043241177
0002f0 77 4b 26 3e ca 53 9e 3d 6b b4 26 3e f6 2e 7c bd
       0.16239725 0.07730825 0.16279761 -0.061568223
000300 ca b4 8c bd 12 3c 5d 3d 20 9a a9 3e e1 64 69 3c
       -0.0687042 0.054012366 0.331254 0.014245243
000310 ea 8e 99 3c b2 01 66 bd 3f 7f de 3d 60 0e 68 bd
       0.018744905 -0.05615396 0.10864114 -0.056654334
000320 19 ae 8a 3d fe 56 81 3d 30 42 11 3d ba c6 c7 3c
       0.06771488 0.063154206 0.035463512 0.024386752
000330 eb 87 34 3d 0b 04 f5 3d 29 b6 8b 3c 67 40 1b 3d
       0.044074934 0.11963662 0.017054634 0.037903216
000340 eb 3f 77 3d ab b4 9f ba af 96 81 3c b0 07 0a 3e
       0.06036369 -0.001218458 0.015818922 0.13479495
000350 24 82 38 3d ca 8c 82 3d 44 18 a5 3e 52 4f 6a 3e
       0.045045987 0.0637451 0.32245076 0.22881821
000360 1b ff 9e bc 37 6f 06 3d b9 d2 89 3c ea 0d 8a bc
       -0.019408753 0.032820906 0.016824113 -0.016852338
000370 0b 62 5e bc f2 1b 7f 3d 10 e2 6c 3d ed 08 bb 3d
       -0.01357318 0.06228251 0.057832778 0.09132562
000380 06 22 0c 3e 57 4d 84 3c 2e dd c5 3c 10 8b 11 bb
       0.13684854 0.01615016 0.024153318 -0.0022208132
000390 e5 50 92 bc 9d c5 a5 3d 93 b4 22 3d 00 fd 99 3d
       -0.01786084 0.08094332 0.03972299 0.07518959
0003a0 4d 1b a0 3c e6 c5 d8 3d a1 52 53 3d 62 dc 9f 3d
       0.019544268 0.10584621 0.051592473 0.078057066
0003b0 b6 14 16 bc ed 50 87 3e c9 75 30 3e 93 28 2a bd
       -0.009160211 0.2642893 0.17232431 -0.0415426
0003c0 61 cc 60 bc 5d e2 71 bc 5f b1 4f 3e bb 9b 24 3e
       -0.013720603 -0.014763442 0.20282505 0.16075031
0003d0 95 e9 f0 bb f2 7b 80 3c 8b 51 a0 bc 38 ed 3f bc
       -0.007352064 0.015684102 -0.019570133 -0.011714272
0003e0 0b e4 c2 3d 1b bb 83 3c 32 5f 6c 3d d6 27 40 3d
       0.09516152 0.01608043 0.057707973 0.04691299
0003f0 c0 38 c5 bc 5f 72 0d 3e 64 34 4e 3d db 75 2b bd
       -0.024074912 0.1381316 0.050342932 -0.041860443

network.4.bias f4 [4]
000000 6f c6 b7 bd da 6f aa 3d 8d c1 c7 3e 32 25 9d 3e
       -0.08973395 0.08322115 0.39014855 0.3069244
