critic_model.pth (torch, 73914 bytes, 5 tensors)

network.0.weight f4 [128, 8]
0	0xbe1c2a41	-0.15250494
1	0x3ea57a3b	0.32319817
2	0x3d78d6f1	0.06075186
3	0x3dc4445a	0.095833495
4	0xbe973dfc	-0.29539478
5	0xbe1395df	-0.1441264
6	0x3c930218	0.017945334
7	0x3ea14f15	0.31505647
8	0x3e401651	0.18758513
9	0xbbbdaa8f	-0.0057881544
10	0x3e92676f	0.2859454
11	0xbd0da5c5	-0.03458192
12	0x3ea39e79	0.31956843
13	0xbe9c27af	-0.30499026
14	0x3e734df0	0.237602
15	0xbeb1db31	-0.34737542
16	0xbe7b7233	-0.24555282
17	0xbebbe9d4	-0.36701834
18	0xbe633183	-0.22186856
19	0xbe8bf580	-0.2733574
20	0xbd63aab6	-0.055582725
21	0x3ddc34e8	0.107522786
22	0x3db136dd	0.086530425
23	0xbe20eff0	-0.15716529
24	0xbe5cb3f0	-0.21553016
25	0xbe26fc24	-0.16307122
26	0xbea5fe05	-0.32420364
27	0xbe683c0d	-0.22679158
28	0x3cafe5d4	0.021471895
29	0x3caaa82b	0.020832142
30	0xbe37e0ce	-0.1795685
31	0xbe05bb31	-0.13059689
32	0xbe762f8a	-0.24041572
33	0xbe9291e4	-0.2862693
34	0xbe44fedc	-0.19237846
35	0xbe09ec4f	-0.13469051
36	0x3e970924	0.2949916
37	0xbe3d7d56	-0.18504843
38	0x3e02c43c	0.1277017
39	0x3e82683a	0.25470144
40	0x3e838fb1	0.25695565
41	0x3c38aa27	0.011271036
42	0xbe7ae5d7	-0.2450174
43	0x3e9f966f	0.3116946
44	0xbe8fbd40	-0.28074074
45	0xbead80e2	-0.33887392
46	0x3e8f1944	0.27948964
47	0x3eb4a581	0.3528252
48	0x3e5705a6	0.20998248
49	0xbb18dfb3	-0.0023326694
50	0xbda92528	-0.0825904
51	0x3e6e0e96	0.23247752
52	0xbe72ad03	-0.23698811
53	0xbea7c63d	-0.3276843
54	0x3ddd8055	0.10815493
55	0x3e55f8af	0.20895647
56	0x3db4c628	0.08826858
57	0xbdbeb4ae	-0.09311806
58	0x3d57bdfb	0.052671414
59	0xbdfa84bf	-0.122323506
60	0x3e01c16a	0.12671438
61	0x3ef5672b	0.47930273
62	0x3d35e4a0	0.044407487
63	0x3dc74e11	0.09731687
64	0x3e13c1d6	0.14429411
65	0x3e20a047	0.15686141
66	0x3dbcc64e	0.09217511
67	0x3dbe28dd	0.09285138
68	0xbd75f54c	-0.060048386
69	0xbe9e34cb	-0.30899653
70	0x3e7ce068	0.24694979
71	0xbe0552d4	-0.13019878
72	0x3e78875b	0.24270384
73	0x3ded5446	0.115883395
74	0x3da2cfeb	0.079498135
75	0x3daff2ba	0.08591218
76	0xbead1f55	-0.33812967
77	0x3df1374a	0.11778124
78	0x3eb7463a	0.35795766
79	0xbe89a9a0	-0.26887226
80	0x3e00e914	0.12588912
81	0x3da0c0a2	0.07849242
82	0x3c765b0e	0.015036358
83	0x3efef0cb	0.49793085
84	0xbdc18509	-0.094492026
85	0xbbc926f4	-0.006138677
86	0xbd61e940	-0.055154085
87	0x3e22808f	0.15869354
88	0x3e428287	0.18995105
89	0x3ec25240	0.37953377
90	0xbe370ac9	-0.17875208
91	0xbe94adf7	-0.29038975
92	0x3ec9af6e	0.39391655
93	0xbe1538b7	-0.14572416
94	0xbe23caa9	-0.15995277
95	0x3e6c73b6	0.23091015
96	0x3da9abf6	0.08284752
97	0xbe97d79d	-0.29656687
98	0x3e80fef3	0.2519451
99	0xbd876efc	-0.066129655
100	0x3de342d3	0.1109673
101	0x3e3aa79c	0.18228
102	0x3b2bf6ac	0.0026239557
103	0xbdba4088	-0.090943396
104	0x3d53e62b	0.051733177
105	0xbe9ca740	-0.30596352
106	0xbc2a5201	-0.010395528
107	0xbe50d116	-0.2039226
108	0xbe3f5db9	-0.18688096
109	0xbe8366ad	-0.25664273
110	0x3d210e3d	0.03932022
111	0xbe93991d	-0.28827754
112	0xbdf8dc32	-0.12151374
113	0xbdc6d5c4	-0.09708741
114	0x3e7b444e	0.24537775
115	0xbe86f116	-0.2635581
116	0x3e2b2d65	0.16716535
117	0x3e9ab445	0.3021566
118	0xbe69150c	-0.22761935
119	0x3d5fa33b	0.054599028
120	0xbd98843b	-0.07447096
121	0x3e764db6	0.24053082
122	0x3e56a066	0.20959625
123	0x3eff2702	0.49834448
124	0x3ca6cd5b	0.020361593
125	0xbd99819d	-0.07495425
126	0x3d07d8c2	0.0331657
127	0xbd8c460a	-0.068492964
128	0x3eaa766c	0.33293474
129	0xbe2acc51	-0.16679503
130	0xbe27a6b3	-0.16372184
131	0x3e4a4784	0.19753844
132	0x3e4763e2	0.19471696
133	0x3eabaa6f	0.33528468
134	0xbd94b3c3	-0.07260849
135	0xbd96a12c	-0.0735496
136	0xbe9f03f7	-0.31057712
137	0xbe031485	-0.12800796
138	0xbd81443c	-0.06311843
139	0x3d84f172	0.064913645
140	0x3e0de206	0.13855752
141	0x3e8bfd20	0.27341557
142	0x3d4b1de5	0.049589057
143	0xbeaa13dd	-0.3321828
144	0xbe7af6ac	-0.2450816
145	0xbe85f816	-0.26165837
146	0x3d797bbc	0.060909018
147	0x3f04dce4	0.5189955
148	0xbed21474	-0.4103123
149	0x3e17dd17	0.14830433
150	0xbdff3936	-0.12462084
151	0x3ec91ce0	0.39279842
152	0xbd461325	-0.0483581
153	0x3e6c48ca	0.23074642
154	0x3d9959e3	0.07487848
155	0xbe6a37c5	-0.22872837
156	0xbf0b3922	-0.5438405
157	0xbd5a3681	-0.053274635
158	0x3c7c5679	0.015401476
159	0xbe23e1a5	-0.16004045
160	0xbea19172	-0.31556278
161	0xbe1d139e	-0.15339515
162	0xbe6c9322	-0.23103002
163	0x3e23c099	0.15991439
164	0xbe839397	-0.2569854
165	0xbe96418b	-0.2934688
166	0xbd9a1992	-0.075244084
167	0x3ea088a2	0.31354243
168	0xbe1f4667	-0.155542
169	0x3ea85b1b	0.32882008
170	0xbe4255ea	-0.18978086
171	0x3cb0b8b0	0.02157244
172	0x3dc16f2a	0.09445031
173	0xbebe17ad	-0.37127438
174	0xbd17d082	-0.037064083
175	0x3e487d39	0.19579019
176	0x3dcaabba	0.098960355
177	0xbd564d37	-0.05231973
178	0x3ea42880	0.3206215
179	0xbeca27ff	-0.3948364
180	0x3e75ed2a	0.24016252
181	0xbeaa7667	-0.3329346
182	0xbe82a003	-0.25512704
183	0x3e1f66f3	0.15566616
184	0xbe059c93	-0.1304801
185	0x3d2efc3b	0.042721014
186	0xbef77f69	-0.48339394
187	0xbe91c9c7	-0.28474256
188	0xbd87de12	-0.066341534
189	0xbdae35bf	-0.08506345
190	0x3e00a039	0.1256112
191	0xbeb3a143	-0.3508397
192	0x3e31e903	0.17374043
193	0xbe1aa59e	-0.1510224
194	0x3d22c83d	0.039741743
195	0xbed14b36	-0.40877694
196	0xbe154e69	-0.14580692
197	0xbf3e8658	-0.7442374
198	0x3d48426a	0.048891462
199	0x3dce4940	0.10072565
200	0x3e394216	0.18091616
201	0x3e749f39	0.23888864
202	0x3ec62796	0.38702077
203	0xbdf383eb	-0.11890396
204	0x3ed0762d	0.4071516
205	0x3eb4dd55	0.35325113
206	0x3e89ab7e	0.2688865
207	0x3ea9f911	0.33197835
208	0x3e4c4d0e	0.19951269
209	0x3c19244a	0.009347031
210	0x3e33ffaf	0.17578004
211	0xbd84401e	-0.06457542
212	0x3e0852ce	0.13312837
213	0x3ebe2172	0.37134892
214	0xbdc9a643	-0.09846165
215	0x3e3270f6	0.17425904
216	0xbebcea13	-0.36897334
217	0x3e2aa816	0.16665682
218	0xbd38a2d6	-0.045077167
219	0x3e1c870f	0.15285896
220	0x3e6a66fe	0.22890851
221	0x3f09298f	0.5357904
222	0x3d41bfa8	0.04730192
223	0xbd58ac5e	-0.052898757
224	0xbdc4099d	-0.09572146
225	0x3c154cc0	0.009112537
226	0x3e1821dc	0.14856666
227	0xbf0085f0	-0.5020437
228	0x3ea2de4d	0.31810227
229	0x3ed0e0c3	0.4079648
230	0x3de25386	0.11051087
231	0xbe09ee34	-0.13469774
232	0xbe88abdd	-0.2669362
233	0x3e1d43b6	0.15357861
234	0x3d4b26ea	0.04959766
235	0x3df2c2f0	0.118535876
236	0x3e21e18d	0.15808697
237	0xbe8ef4bc	-0.27921093
238	0x3eb165ca	0.3464797
239	0xbe548d14	-0.20756942
240	0xbe8d7d34	-0.27634585
241	0x3e28c21b	0.16480295
242	0xbc7a447c	-0.015275117
243	0xbefcb57a	-0.49357206
244	0x3edfdf0c	0.4372486
245	0x3e8a71aa	0.27039844
246	0xbd94b13b	-0.072603665
247	0x3cc880f7	0.024475558
248	0xbeb19c25	-0.3468944
249	0xbe6550af	-0.2239406
250	0xbc0e8d29	-0.008700647
251	0xbf04ae9b	-0.51828927
252	0xbe65b693	-0.22432928
253	0x3dce8a3f	0.10084962
254	0x3e927305	0.28603378
255	0x3e368e14	0.17827636

network.0.bias f4 [128]
0	0xbde16197	-0.11004942
1	0xbbf49c67	-0.0074649337
2	0x3e20c410	0.15699792
3	0xbeae0574	-0.33988535
4	0x3e5aada8	0.21355307
5	0x3e4b1ecc	0.19835967
6	0x3e98fa55	0.29878488
7	0xbd9c53e1	-0.07633186
8	0x3ea59a68	0.32344365
9	0x3e2318e0	0.15927458
10	0x3e4e5f81	0.2015362
11	0xbe9055cf	-0.28190467
12	0x3e24a5c4	0.1607886
13	0xbe9a60c7	-0.3015196
14	0x3d4203c2	0.047366865
15	0x3e802f80	0.2503624
16	0x3e0ea002	0.13928226
17	0x3dcbb4fb	0.09946629
18	0xbe5eb48f	-0.21748565
19	0xbe520567	-0.20509873
20	0x3e9d2fba	0.30700475
21	0x3ca59622	0.02021319
22	0x3e7c0d5a	0.24614468
23	0xbdaa23dc	-0.08307621
24	0xbe500e99	-0.20318069
25	0xbe9f9b36	-0.31173104
26	0xbe64142c	-0.2227332
27	0xbce75e05	-0.028243074
28	0xbce26dc5	-0.027640233
29	0xbd893152	-0.0669886
30	0x3c81670e	0.01579621
31	0x3e110de4	0.14165455
32	0xbea78109	-0.32715634
33	0x3ea3977f	0.3195152
34	0xbe282077	-0.16418634
35	0x3dea1ef1	0.11431683
36	0xbd96877b	-0.073500596
37	0x3e1a0b86	0.15043458
38	0xbdcc9e28	-0.099911034
39	0x3d42670c	0.047461554
40	0x3eae49ea	0.34040767
41	0xbda6b2f6	-0.08139603
42	0x3e793489	0.24336447
43	0xbdd186b9	-0.102307744
44	0xbea92b4f	-0.33040854
45	0x3e76d2da	0.24103871
46	0xbe6a4614	-0.22878295
47	0x3e8a976d	0.27068654
48	0xbe86d88a	-0.2633708
49	0x3e0e208b	0.13879602
50	0xbdd1566d	-0.102215625
51	0xbe1add2a	-0.1512343
52	0x3e7785c8	0.24172127
53	0x3e5ca82d	0.21548529
54	0x3eb88bce	0.36044163
55	0x3e1a8a5f	0.15091847
56	0x3e95dd77	0.29270527
57	0xbe7614f8	-0.24031436
58	0x3e906f9e	0.28210157
59	0xbe1986b5	-0.14992793
60	0x3dba3477	0.09092038
61	0xbc1c6d65	-0.009547566
62	0x3a8e6e1b	0.0010866554
63	0x3cc5409f	0.024078665
64	0x3dd09e89	0.10186488
65	0x3ea10bb7	0.3145425
66	0xbe963a9c	-0.2934159
67	0xbd8ffafc	-0.07030293
68	0xbe9ab4f6	-0.30216187
69	0x3e2d1784	0.16903502
70	0xbe400480	-0.18751717
71	0x3ead1357	0.33803818
72	0x3e981a36	0.29707497
73	0xbe86cb69	-0.26327065
74	0x3ce1ef65	0.027579973
75	0xbec98bed	-0.39364567
76	0xbe9de6df	-0.30840203
77	0x3d8bf526	0.06833868
78	0x3e4ce6f5	0.20009978
79	0xbc1f9436	-0.009739926
80	0xbe8507fb	-0.2598265
81	0x3e817b45	0.2528936
82	0xbe787c48	-0.2426616
83	0x3d89cc73	0.06728449
84	0x3d4d2ee5	0.05009355
85	0xbe7ec848	-0.24881089
86	0x3e2e5604	0.17025
87	0xbd7cfeb7	-0.061766353
88	0x3d15883d	0.03650688
89	0x3e1be0e4	0.15222508
90	0x3ec4f330	0.38466787
91	0x3e57d59c	0.2107758
92	0xbd8c1c28	-0.06841308
93	0xbea23936	-0.31684273
94	0x3e4539ec	0.19260377
95	0xbe2da896	-0.16958842
96	0x3e8817b8	0.26580596
97	0x3e1bb44b	0.15205495
98	0xbe878049	-0.2646506
99	0x3e7486af	0.23879503
100	0x3dcd7ac2	0.1003318
101	0x3e217613	0.15767698
102	0x3e228d13	0.15874128
103	0x3e336cf4	0.17522031
104	0xbdb67493	-0.089089535
105	0xbe9133a1	-0.28359702
106	0x3e8b0f84	0.27160275
107	0x3e06a67c	0.13149446
108	0x3e8b5c51	0.2721887
109	0x3df04d56	0.11733501
110	0x3e436746	0.19082364
111	0xbdd85018	-0.10562152
112	0xbe9d444d	-0.30716172
113	0x3e909094	0.28235304
114	0x3d343db4	0.044004157
115	0x3e8905e7	0.26762316
116	0xbd973409	-0.07382972
117	0xbd409133	-0.047013473
118	0x3e846c06	0.25863665
119	0xbd2cba91	-0.04217011
120	0x3e65b68f	0.22432922
121	0xbd36eba9	-0.044658337
122	0x3e1f25b6	0.1554173
123	0xbe34581e	-0.17611739
124	0x3db92ef1	0.090421565
125	0xbe9c2285	-0.30495086
126	0xbe90c9e4	-0.2827903
127	0xbdece5b7	-0.11567252

network.2.weight f4 [128, 128]
0	0x3bb65cda	0.005565268
1	0x3e1f3ccb	0.15550534
2	0x3aa471e9	0.0012546155
3	0x3d56bffc	0.052429184
4	0x3cb03a3b	0.021512141
5	0xbb6bcb78	-0.003597943
6	0xbd9152ad	-0.07095847
7	0xbdb16eea	-0.08663733
8	0x3c6b1e5e	0.014350502
9	0x3d71fd0f	0.059079226
10	0xbe0b3407	-0.13594066
11	0x3d8fb8ce	0.070176706
12	0xbd918c64	-0.071068555
13	0xbc0437f7	-0.008069984
14	0x3dd668fa	0.104692414
15	0x3c8700f8	0.016479954
16	0x3bec724d	0.007215774
17	0xbe35c9c4	-0.17752749
18	0xbd78c9b1	-0.060739223
19	0x3e9628db	0.29328045
20	0xbd7e8529	-0.06213871
21	0x3dd1dabf	0.10246801
22	0x3d624324	0.05523981
23	0x3e1eefdd	0.15521188
24	0xbd95b558	-0.07309979
25	0x3e301ced	0.17198534
26	0xbd8f9609	-0.07011039
27	0xbe0c065e	-0.13674304
28	0x3e531b56	0.20615897
29	0xbcf07ff2	-0.029357884
30	0x3e14a589	0.14516272
31	0x3db5d629	0.088787384
32	0xbe0caf72	-0.13738802
33	0xbddafbdf	-0.10692572
34	0xbdaae9d9	-0.08345384
35	0x3dfdf03d	0.123993374
36	0x3d9c270a	0.076246336
37	0x3d67e538	0.056615084
38	0x3d203d93	0.03912122
39	0x3dd79c73	0.10527887
40	0xbd537e73	-0.051634263
41	0x3d788cc1	0.06068111
42	0xbd8e976b	-0.069624744
43	0x3d08c128	0.033387333
44	0xbcba583a	-0.022747148
45	0x3de561b4	0.11200276
46	0xbc26031e	-0.010132579
47	0xbd7bf427	-0.06151214
48	0x3dae99a2	0.08525397
49	0x3d22f9d0	0.03978902
50	0x3e1612fa	0.14655676
51	0x3cee5e9a	0.029097844
52	0xbe3edb9e	-0.18638465
53	0x3c920caf	0.017828314
54	0x3b7332b6	0.0037109083
55	0xbda5aee7	-0.080900006
56	0xbd464339	-0.048403952
57	0x3dde0e7f	0.10842609
58	0x3c490d37	0.012271217
59	0xbd5602ce	-0.05224877
60	0xbd7670ec	-0.060166284
61	0x3ded1646	0.11576514
62	0x3d5392b8	0.051653594
63	0xbd0e9da2	-0.0348183
64	0xbde3583b	-0.11100813
65	0xbe564fb7	-0.20928846
66	0x3e643e23	0.22289328
67	0xbe227161	-0.15863563
68	0x3e29a8c4	0.16568285
69	0xbd24ae13	-0.040205073
70	0xbd3f965a	-0.046774246
71	0x3dc4e25f	0.09613489
72	0xbe575f85	-0.21032532
73	0xbd274a5c	-0.0408424
74	0x3ce41bda	0.027845312
75	0xbde27e92	-0.110592976
76	0xbc95bc19	-0.018278169
77	0x3d3da759	0.046302173
78	0xbcb6c567	-0.022310926
79	0x3af094c1	0.0018354879
80	0x3cf83571	0.03029892
81	0xbd5f11c4	-0.054460302
82	0x3c146403	0.009057048
83	0x3d5e2998	0.054238886
84	0xbdb23dfc	-0.08703229
85	0x3e4640e9	0.19360699
86	0xbe21ca83	-0.15799908
87	0xbd5c605c	-0.053802833
88	0xbccd734f	-0.025079397
89	0x3d3ba9de	0.045816295
90	0xbe49efd8	-0.197204
91	0xbd481520	-0.04884827
92	0x3e1fd982	0.15610316
93	0xbdb74967	-0.08949547
94	0xbdb79e5f	-0.08965754
95	0x3e80efba	0.25182897
96	0x3c6f5ba2	0.014609249
97	0xbd67b3c4	-0.056567922
98	0xbd511464	-0.051044837
99	0xbe80662c	-0.2507795
100	0x3e01fbb3	0.12693672
101	0xbbe4aa32	-0.0069782967
102	0x3ced94da	0.029001642
103	0xbd89ae5b	-0.06722709
104	0xbe0abfa3	-0.13549666
105	0xbd96bbf9	-0.07360072
106	0x3d784c3e	0.060619585
107	0xbc984ee7	-0.018592311
108	0x3c2ee8ce	0.010675622
109	0xbdbc7d02	-0.09203531
110	0xbe019bf6	-0.1265715
111	0xbd82228e	-0.06354247
112	0xbcaa3af0	-0.020780057
113	0x3dbd5ef5	0.09246627
114	0xb98f2115	-0.00027299733
115	0x3db63ab2	0.08897914
116	0xbc24edf1	-0.010066495
117	0x3e6951a6	0.22785053
118	0x3d3d31aa	0.04618994
119	0xbd2d69c7	-0.042337205
120	0xbd919492	-0.07108416
121	0x3d422f82	0.04740859
122	0xbde55a16	-0.11198823
123	0x3d883e35	0.0665249
124	0x3d9b42f5	0.075811304
125	0xbda4990f	-0.08037006
126	0xbdd796a9	-0.10526783
127	0xbd79caa6	-0.060984276
128	0x3d92f861	0.07176281
129	0xbc299347	-0.010350055
130	0x3dc64543	0.096811794
131	0x3d9ba1c0	0.07599211
132	0x3e1de50b	0.15419404
133	0x3cf65336	0.030068975
134	0x3d60b3b8	0.054858893
135	0x3c7d5d8c	0.015464198
136	0x3dba3e30	0.090938926
137	0x3e27dd79	0.16393079
138	0x3d5f747d	0.05455445
139	0xbe2a88c9	-0.16653742
140	0x3e300d9d	0.17192693
141	0x3e4cf31a	0.20014611
142	0x3e5ebaa6	0.21750888
143	0x3e2993c3	0.16560273
144	0x3e187eed	0.14892168
145	0x3d532fd4	0.051559284
146	0xbdb9782c	-0.09056124
147	0xbe0d0e0f	-0.13774894
148	0xbbfa402a	-0.0076370435
149	0x3e1b35ea	0.15157285
150	0x3e55e4d1	0.20888068
151	0x3ddb19e8	0.106983006
152	0x3f07b469	0.5300966
153	0xbd4eddf3	-0.050504636
154	0x3d683461	0.056690577
155	0x3e171e0a	0.14757553
156	0x3e936806	0.287903
157	0xbc075c30	-0.008261725
158	0x3e4b7bde	0.1987147
159	0xbba3d79d	-0.0050000683
160	0x3edcbea4	0.43114197
161	0x3dd1770e	0.10227786
162	0xbc5cc197	-0.01347389
163	0x3e66e5cd	0.225486
164	0x3e1c65e4	0.15273243
165	0xbc7f9201	-0.015598775
166	0x3de6920a	0.112583235
167	0x3ddf56ea	0.109052494
168	0x3e0d3450	0.13789487
169	0x3b433b03	0.0029789812
170	0x3e03b5e5	0.12862356
171	0x3d53ba27	0.0516912
172	0xbe108af0	-0.141155
173	0x3e963fe9	0.29345635
174	0x3d248c8d	0.040173102
175	0x3d7ab725	0.061209816
176	0x3db40ec4	0.08791879
177	0x3ebbee6e	0.36705345
178	0x3a811f07	0.0009851166
179	0xbdfa7f73	-0.1223134
180	0x3e723341	0.23652364
181	0x3e7dfe12	0.24803951
182	0x3eb0b321	0.34511665
183	0x3e13cc22	0.14433339
184	0x3c012b9c	0.007883932
185	0x3d78a8dd	0.060707916
186	0x3db7330e	0.08945285
187	0x3d834437	0.06409495
188	0x3ce2b41e	0.027673777
189	0x3db793c8	0.08963734
190	0x3cc423ff	0.023942946
191	0x3e02de85	0.12780197
192	0x3dd4a7ad	0.10383544
193	0x3c42b51d	0.011884001
194	0xbe8c20e1	-0.27368835
195	0x3d9c2639	0.07624478
196	0xbe986093	-0.2976118
197	0xbd84306d	-0.06454549
198	0xbd846d04	-0.064661056
199	0x3eb22476	0.34793442
200	0x3dff4ca3	0.12465789
201	0xbd40ee72	-0.0471024
202	0x3e09a031	0.13440014
203	0x3e5dfb20	0.21677828
204	0x3e1c308c	0.15252894
205	0xbc421a4e	-0.011847092
206	0x3e923070	0.2855258
207	0x3c4d3350	0.012524441
208	0x3ef32353	0.47487888
209	0x3cede087	0.029037727
210	0x3d08a68b	0.033361953
211	0x3e11a1d0	0.14221883
212	0xbd49ea39	-0.049295638
213	0xbe242cc8	-0.16032708
214	0x3ba843f1	0.0051350524
215	0x3d5ee713	0.05441959
216	0x3e3e141c	0.18562359
217	0x3d83ad12	0.06429495
218	0x3eae325b	0.34022793
219	0xbcad97ce	-0.02119055
220	0x3e0b3bb5	0.13596995
221	0xbdab5953	-0.083666466
222	0x3d81cd53	0.063379906
223	0xbe1adfb7	-0.15124403
224	0x3e64df04	0.22350699
225	0xbe870cc9	-0.26376942
226	0x3e0653a7	0.13117848
227	0x3d95d976	0.07316868
228	0x3dd291c2	0.10281707
229	0x3c487140	0.012234032
230	0x3ecb00d2	0.39649063
231	0x3e0c45a3	0.1369844
232	0x3d5a21dc	0.053254947
233	0x3ec8c8fb	0.39215836
234	0x3e136e64	0.1439758
235	0x3e01cbcc	0.12675399
236	0x3e909e18	0.28245616
237	0xbdfac8b3	-0.122453116
238	0x3ea1838b	0.31545672
239	0x3d8b1417	0.06790941
240	0x3e55dd74	0.20885259
241	0x3e4117cc	0.18856734
242	0x3e79a70f	0.24380134
243	0x3eb1a548	0.34696412
244	0x3d704229	0.058656845
245	0x3da6c1f7	0.081424646
246	0x3e50f027	0.20404111
247	0x3db53a7b	0.08849045
248	0x3d6def34	0.05808945
249	0x3e5c3b73	0.21507053
250	0x3e82bcc0	0.2553463
251	0xbe3afb75	-0.18259986
252	0x3d7849c4	0.060617223
253	0x3e4469c1	0.19180967
254	0xbc9e93a6	-0.019357514
255	0xbccba8ec	-0.024860822

network.2.bias f4 [128]
0	0xbd8c07dc	-0.068374366
1	0x3db5305f	0.08847117
2	0x3d5530f9	0.052048657
3	0x3cdc1bf0	0.02686879
4	0x3cdf5ddb	0.027266433
5	0x3cd64221	0.02615458
6	0xbbbe6e05	-0.005811455
7	0xbcbd3b87	-0.023099674
8	0xbd9f8244	-0.07788518
9	0x3d45ac54	0.048260048
10	0xbd7160ba	-0.058930136
11	0x3cc04d67	0.023474408
12	0x3d7d5603	0.061849605
13	0xbdc67890	-0.09690964
14	0xbc6d9e81	-0.014503122
15	0xbccdf3fc	-0.025140755
16	0x3d493b67	0.049128916
17	0x3d84eb85	0.06490234
18	0xbb490854	-0.003067513
19	0x3d932b67	0.07186013
20	0xbd20f489	-0.039295707
21	0xbd4ef52a	-0.050526775
22	0xbbe04568	-0.0068442114
23	0xbaba0a0c	-0.0014193668
24	0x3d88b0d0	0.06674349
25	0xbcedef23	-0.029044693
26	0x3dbc3505	0.091898
27	0xbbd5e49a	-0.0065274956
28	0xbce3b86d	-0.027797902
29	0x3d2e463c	0.04254745
30	0x3c9c8a16	0.019108813
31	0x3ce52abe	0.027974483
32	0x3c9f5a7e	0.01945233
33	0x3c441093	0.011966842
34	0xbb8435a9	-0.004034717
35	0x3d227a37	0.039667334
36	0x3cdbe0ec	0.02684065
37	0x3d52900c	0.051406905
38	0xbce1fbb1	-0.027585836
39	0xbc17aa91	-0.009256975
40	0xbd15c872	-0.036568113
41	0x3cfadc6a	0.03062268
42	0x3d872e9f	0.06600689
43	0xbc25c10d	-0.010116828
44	0x3a0f0659	0.0005455963
45	0x3a9b3965	0.0011842666
46	0x3c99e037	0.018783672
47	0xbbe37914	-0.006941924
48	0x3cc1f40c	0.02367594
49	0x3cc8de62	0.024520103
50	0x3b9d29ff	0.004796266
51	0xbcc479f1	-0.023983927
52	0xbad18312	-0.0015984497
53	0xbc93d094	-0.018043794
54	0x3c0ea421	0.008706124
55	0xbd8dd971	-0.06926239
56	0x3bc11222	0.005892054
57	0x3d83ca39	0.06435055
58	0xbc2208c6	-0.009889787
59	0x3d9b9935	0.07597581
60	0xbcd72cc1	-0.026266458
61	0x3ce87fd5	0.028381268
62	0x3b79cf28	0.003811786
63	0x3bb62cf6	0.005559559
64	0x3d1f9938	0.03896448
65	0xbdc9e8ea	-0.09858878
66	0x3c2a0d23	0.010379109
67	0x3c63480d	0.013872159
68	0x3d1f8f93	0.038955282
69	0xbd7e90de	-0.062149875
70	0x3d8585c2	0.06519653
71	0x3d464aae	0.048411064
72	0xba55409a	-0.00081349316
73	0xbd003b90	-0.031306803
74	0xbbbabedd	-0.005699022
75	0x3d9a0b92	0.07521738
76	0x3c94aa81	0.018147709
77	0x3d9082be	0.07056187
78	0xbcd8727b	-0.026421776
79	0x3d134b78	0.035960644
80	0xbcb4ce40	-0.022071004
81	0xbc261263	-0.01013622
82	0xbda10b6f	-0.07863509
83	0x3d924abb	0.0714316
84	0x3d3d7557	0.046254482
85	0xbd817223	-0.06320598
86	0xbd13b6e8	-0.036063105
87	0xbd09d12c	-0.033646747
88	0x3d673d5d	0.056455005
89	0x3cd8c25b	0.026459863
90	0x3e031028	0.12799132
91	0xbd2d4a38	-0.04230711
92	0x3d6d1223	0.057878625
93	0xbd84d8fb	-0.06486698
94	0x3cf3ce15	0.029761354
95	0x3c9db521	0.019251408
96	0xbb9c6239	-0.0047724512
97	0x3d0dd7d1	0.034629647
98	0xba7a8a5e	-0.00095573615
99	0xbc229ecf	-0.009925558
100	0x3d8e71c8	0.06955296
101	0xbc5b0746	-0.013368433
102	0xbbc18149	-0.0059053046
103	0x3d065cb9	0.03280327
104	0xbd4c269b	-0.049841505
105	0x3da65343	0.0812135
106	0xbdaf6ebd	-0.085660435
107	0x3c8719e2	0.016491834
108	0xbc7b5353	-0.01533969
109	0x3b8379a3	0.004012303
110	0xbd3268f3	-0.04355712
111	0x3d7d3ec6	0.061827444
112	0x3d10d732	0.035361476
113	0x3d7a3324	0.061083928
114	0x3c5bf53a	0.013425166
115	0xbdc85eab	-0.097836815
116	0x3c793d7c	0.015212413
117	0x3d4a041b	0.04932032
118	0xbd8dbee6	-0.069211766
119	0x3dadd606	0.08488087
120	0xbdc71f31	-0.09722746
121	0xbd316ef9	-0.043318722
122	0x3c65487c	0.013994332
123	0x3d252f13	0.040328097
124	0x3c4c4725	0.012468134
125	0xbcb4d913	-0.022076165
126	0x3e08be21	0.13353778
127	0xbddd06c6	-0.107923076

network.4.weight f4 [1, 128]
0	0x3e13dc50	0.14439511
1	0xbe1639a4	-0.14670426
2	0xbd84f6e3	-0.064924024
3	0xbc375293	-0.011189121
4	0xbc67890a	-0.014131794
5	0xbd2ad523	-0.04170717
6	0xbd7ce73c	-0.06174396
7	0xbd7736ee	-0.06035512
8	0xbdc8fac2	-0.09813453
9	0xbda731c9	-0.08163793
10	0x3c7edbcf	0.015555336
11	0x3e17d925	0.14828928
12	0x3d1feccd	0.03904419
13	0xbcb69d17	-0.022291703
14	0xbdb23421	-0.08701349
15	0x3dccd476	0.10001461
16	0x3db95e86	0.09051232
17	0x3cbf8ecd	0.023383522
18	0x3e23d3a2	0.159987
19	0x3e142f03	0.14471059
20	0x3d04a702	0.032385834
21	0x3b990f49	0.0046710116
22	0x3e2a764e	0.16646692
23	0xbc5e4a9c	-0.013567593
24	0xbd1384d3	-0.036015343
25	0x3ca0dc6f	0.01963636
26	0x3dd290e6	0.102815434
27	0x3e197001	0.14984132
28	0x3e09eebd	0.13469978
29	0xbb22be9a	-0.0024832846
30	0xbd8ff010	-0.0702821
31	0x3e5622c4	0.209117
32	0x3bc00cd6	0.005860905
33	0xbd9512bb	-0.07278963
34	0x3d3c30c3	0.04594494
35	0xbb99f863	-0.0046987995
36	0x3d8b65ad	0.068065025
37	0x3d55deea	0.05221454
38	0xbcf20876	-0.02954505
39	0xbd20475c	-0.039130554
40	0x3bb59d5f	0.0055424417
41	0xbd0b13dd	-0.03395449
42	0x3e2f787d	0.17135806
43	0x3e613b2e	0.21995232
44	0x3c2fe1af	0.0107349595
45	0xbce54cda	-0.027990747
46	0xbd998532	-0.07496108
47	0x3d6f0b76	0.05836054
48	0xbde3522a	-0.11099656
49	0xbd6953a0	-0.056964517
50	0xbd399273	-0.04530568
51	0x3bd6ee15	0.0065591433
52	0x3b14d543	0.0022710122
53	0xbd5e0d85	-0.054212112
54	0x3d312d5c	0.04325615
55	0xbd85d90c	-0.06535539
56	0xbcd2ae97	-0.025718017
57	0xbda31542	-0.07963039
58	0xbc812908	-0.015766636
59	0xbdfb6bf7	-0.12276452
60	0x3c101136	0.008793166
61	0x3dcb92fc	0.099401444
62	0xbdfb3864	-0.12266615
63	0xbc99ff68	-0.018798545
64	0xbd8337d8	-0.06407136
65	0xbcdd146a	-0.026987273
66	0xbd81c648	-0.06336647
67	0xbcb5b6cc	-0.02218189
68	0xbd1eb78a	-0.038749255
69	0x3df43a9b	0.119252406
70	0xbced2107	-0.028946413
71	0x3dc4b1ed	0.09604249
72	0xbcea487b	-0.028599015
73	0x3d14cdb3	0.036328983
74	0xbd11be29	-0.03558174
75	0x3e0828e7	0.13296853
76	0x3dbd5033	0.092438124
77	0x3d641c97	0.055691328
78	0x3da23aae	0.079213485
79	0xbd4a6171	-0.049409334
80	0x3b2cab54	0.0026347237
81	0xbdb34a14	-0.08754364
82	0x3d29cd2e	0.04145544
83	0x3e046a90	0.12931275
84	0x3ddc1acb	0.10747298
85	0xbc633bb5	-0.013869216
86	0xbbd09678	-0.0063655935
87	0x3e53878b	0.20657174
88	0x3af2284a	0.0018475142
89	0xbd1a7cfa	-0.037716843
90	0xbe894081	-0.26807025
91	0x3beb0a98	0.0071728937
92	0xbd7010fd	-0.05860995
93	0xbd12bb26	-0.03582301
94	0xbc85b6d8	-0.016322538
95	0xb9b84953	-0.00035149846
96	0xbd299e4c	-0.04141073
97	0xbe526bc2	-0.20548919
98	0xbd7062af	-0.058687862
99	0x3d941ded	0.072322704
100	0x3e0342ad	0.12818404
101	0xbb408cf9	-0.0029380901
102	0x3e6007de	0.21878001
103	0x3dfe0fe9	0.12405378
104	0x3bad4fea	0.0052890675
105	0x3cdb7498	0.026788995
106	0x3bf5b3a1	0.00749822
107	0x3e1e5fef	0.15466283
108	0xbd694aea	-0.05695621
109	0x3e1b96c4	0.15194231
110	0x3dfc2410	0.12311566
111	0xbc57e3e0	-0.013176888
112	0x3b8eb589	0.004355137
113	0x3b9dfb2e	0.0048212027
114	0xbe15d7a0	-0.14633036
115	0xbc1fe9f1	-0.009760366
116	0x3c6f47ef	0.014604553
117	0xbc376b20	-0.011194974
118	0xbd4a21ab	-0.049348515
119	0x3db10faf	0.086455695
120	0xbcfbee7a	-0.030753363
121	0x3ddcf76a	0.10789378
122	0xbda10e77	-0.07864087
123	0x3e168365	0.1469856
124	0x3de3ed9c	0.11129305
125	0x3db96e42	0.09054233
126	0x3dc105cf	0.09424936
127	0xbdec775c	-0.115462035
