critic_model.pth (torch, 73914 bytes, 5 tensors)

network.0.weight f4 [128, 8]
00000000: 98d3 4d3e 7499 09bf 67da 013e cc0e 023e
00000010: df5b 95bf 0efc a13d fcc6 173f 6050 763e
00000020: a82a 073e 1254 50be b266 5a3d 5a62 cc3e
00000030: 0f17 5b3e f85d e1be 5159 a63e ebff a23e
00000040: ff4c 43bc c6e0 89bd b99c 47be ac40 46bf
00000050: 5f19 34be 7e41 babe d72e b93d e62a 94bd
00000060: 3602 163f e940 903f c52e 66be ac71 b2bf
00000070: 827c cabd 695c 0fbf ff94 433e f294 043f
00000080: 0ea4 583f 9060 ce3e 8816 c03e 3e53 98bf
00000090: 97dd 49be cbfd 16bf 8b02 21be ded8 c13e
000000a0: 880b 49be 84c4 66bd 1a6b 60be 4fd8 e4be
000000b0: 42d4 f73d 188f 05bf 2cbf 743c d955 553d
000000c0: eae7 923e 76d2 e53e bb70 45bd 0280 953f
000000d0: 6192 0dbd a10f 753f 5645 213d d10f 31be
000000e0: 2b1b b8be 6911 93be 3e8d 063f de9c 6b3b
000000f0: 9c37 adbe 4a9a d4be 7ada 6cbd eb73 723e
00000100: 71dc a23e ff83 b03e 9d75 d0bd 584e 2dbf
00000110: c8ee 533e bfa5 213e f336 dd3d 7fba 033c
00000120: 4f1a 193e 1f2a e73d 3a8a 15bf 8f43 983e
00000130: 6671 a73e c5f2 9b3f 3498 6abe 2f92 a23e
00000140: c45e 25be c5ed 9f3e 2c2b 403e b270 dfbc
00000150: 54e9 fabc 5fb8 493f b144 5e3e a828 c0bc
00000160: a8a1 4d3e cad8 6fbe 548a e13d c9a7 0bbf
00000170: fc50 b8bd 8f46 3ebf 0eec 2abf e51a 0e3f
00000180: be3d 693d a1ee ad3c b15b 40be b661 603e
00000190: dd6d 9fbd 74ea 16bf 6f12 a0be 000b 843e
000001a0: 1141 863e 6d44 ba3f ba3b 293f 4e27 8fbf
000001b0: cc03 293d 0b91 3abf 612c 283d 870b 293d
000001c0: 9659 edbc 61cf a53f 94b2 6b3e 195a c6bf
000001d0: 1230 a03d 3692 83be 658c 50be 2e05 ee3c
000001e0: 1f60 9b3b 9271 533f f9ee 493d 04e3 5bbf
000001f0: 63cc 8ebe f805 07bf 2f11 dcbd 0015 433e
00000200: d65f 723d 8eef 003e a0f0 a3be 2c52 a5bf
00000210: f1d4 313e 62cb f0be 7a01 03bf b8d7 ee3e
00000220: c4cc 113f 9104 933f f7e1 833e 016b 9abf
00000230: de46 06bf 563a 11bf b9ee 5dbe fdae bf3e
00000240: 5e8d 333d b544 b5bd 69df 7a3e bd7a 2cbf
00000250: ec66 16bd 85eb 26bf 213d 0ebf e54f 063f
00000260: e7f7 b1be 1c1a c83f e091 84bd 69e6 6ebf
00000270: fa41 383d b6b4 75bf 9c0b dfbe 48ac b63e
00000280: 7147 d23e e1d4 893f 532e a83d 53b7 b7bf
00000290: efa9 23be c9e9 dbbe 87d8 93be 4253 5c3e
000002a0: 8d43 5c3e 9797 c43e 7f66 c73e ae97 20bf
000002b0: 59f6 833e 0104 98bf fe21 ccbe cf42 013f
000002c0: 80c1 6b3d 724a 333c 10b7 f8be 13a9 03bf
000002d0: 0180 d23d 50df 8bbd 8e69 c7bd 7f96 5e3d
000002e0: ecc6 16bf b5c0 30bf 3f34 31be 8f42 fabe
000002f0: 7b8a c93d 316f e33e b1bb 0bbe 6aa2 5d3e
00000300: a4d3 b5bd 5203 97bd 702e d73d 94dc 09bf
00000310: 2eba 963e 3c54 37bf 3320 d03d 4a17 433e
00000320: 0f77 2abd 61be 8c3f 2cc2 8b3e a4c4 d0bf
00000330: 5286 9cbe 3f88 d9be 50c1 efbc b7e9 8cb9
00000340: 2f7a ed3d 5e5d 733e 8501 663f 605e e1bc
00000350: 10df 993c 4628 14bf d2ed 53be 00bf 0f3f
00000360: 60f1 0dbe 9acb 46ba 2a7d f6bd 5a94 f0be
00000370: 864e 23bd 9d2e b93c 79b1 2abe 1f80 b6bc
00000380: 8cd2 3fbe e319 3e3f 4332 d0be 5b4b 93be
00000390: 49ad 723e c277 f9be abf2 853e 7a1f 27be
000003a0: e6f9 353f e7e4 803e 34f1 953e d705 aabf
000003b0: 965e 1bbe 4a8f 56bf 6fbc 61be 8cc8 aa3e
000003c0: 2e86 41bd a02b b43c 34ae fdbc 3ea2 543f
000003d0: 4b97 a43e f564 d33d 095c 7c3e 9854 cb3e
000003e0: 47db a73e 8298 a63f 82da 1d3e 7822 c5bf
000003f0: b70c afbd 6ccd 68be 7897 85be 8b2d a93d
0.20100248 -0.53749776 0.1268097 0.12700957 -1.1668662 0.07909404 0.59288 0.24054098
0.13199866 -0.2034457 0.053320594 0.39918786 0.21395515 -0.44017005 0.32490018 0.31835875
-0.011920213 -0.06732325 -0.19493379 -0.7744243 -0.17587803 -0.36378092 0.09042137 -0.07234745
0.58597124 1.1269809 -0.22478779 -1.394094 -0.09887029 -0.5600038 0.19099806 0.5178977
0.8462533 0.40308046 0.3751719 -1.1900403 -0.19713436 -0.5898101 -0.15723626 0.3786077
-0.19633305 -0.056339756 -0.21915856 -0.4469628 0.12101032 -0.5217147 0.014938157 0.052083824
0.2869256 0.4488713 -0.04820321 1.167969 -0.034563426 0.9572697 0.039372765 -0.1729119
-0.35958228 -0.2872422 0.5255927 0.0035951654 -0.3383149 -0.41523963 -0.057825543 0.23677032
0.31808808 0.34475705 -0.10178683 -0.6769767 0.20696557 0.15785883 0.10801496 0.00804007
0.14951442 0.11287331 -0.5841404 0.29739043 0.32703704 1.2183462 -0.22909623 0.31752154
-0.16149431 0.3123609 0.18766469 -0.027275417 -0.030628838 0.7879695 0.21705891 -0.023456886
0.20081198 -0.23422542 0.11012712 -0.54552895 -0.089998215 -0.74326414 -0.6676644 0.5550979
0.056943648 0.021231951 -0.18784977 0.21912274 -0.07784627 -0.589515 -0.31264064 0.25789642
0.26221517 1.4552132 0.6610676 -1.118387 0.041263387 -0.7287757 0.041057948 0.04127076
-0.028973382 1.2953912 0.23017341 -1.5496246 0.07821669 -0.25697488 -0.20366056 0.029055204
0.004741683 0.8259517 0.049300168 -0.85893273 -0.2789031 -0.5274348 -0.10745465 0.1905098
0.059173428 0.12591383 -0.3201952 -1.2915702 0.17366387 -0.4703017 -0.5117413 0.46648955
0.5695307 1.1485769 0.25758335 -1.2063905 -0.52451885 -0.5672964 -0.21673097 0.37438193
0.04383599 -0.088509955 0.24499287 -0.67374784 -0.036719248 -0.65203124 -0.55562025 0.5246566
-0.34759447 1.5632968 -0.06473136 -0.9332033 0.044984795 -0.9597887 -0.43563545 0.35678315
0.4107013 1.076809 0.08211961 -1.4352821 -0.15982793 -0.429518 -0.28876135 0.21516135
0.21510144 0.38396904 0.38945386 -0.62731445 0.25773886 -1.1876222 -0.39869684 0.50492567
0.057557583 0.010943042 -0.48577166 -0.5142986 0.10278321 -0.06829703 -0.0973693 0.054342743
-0.5889728 -0.6904405 -0.17305087 -0.48878905 0.09840866 0.4442077 -0.13645817 0.21643987
-0.08878258 -0.0737368 0.10506904 -0.538522 0.2943892 -0.71612906 0.101623915 0.19051853
-0.04161745 1.0995599 0.2729658 -1.631001 -0.30571228 -0.4248676 -0.029266983 -0.00026877012
0.1159557 0.23766086 0.8984607 -0.027510822 0.018783122 -0.5787395 -0.2069619 0.5615082
-0.13861609 -0.00075834396 -0.12035592 -0.46988183 -0.039869808 0.022605235 -0.16669263 -0.02227789
-0.18732661 0.7425825 -0.40663347 -0.2876843 0.23698916 -0.4872418 0.26161703 -0.16320601
0.7108444 0.2517464 0.29285586 -1.3283032 -0.151728 -0.8381239 -0.22044538 0.3335613
-0.047247104 0.021993458 -0.030966856 0.8306006 0.32146677 0.103219904 0.24644484 0.39712977
0.32784483 1.3015292 0.15415385 -1.5401144 -0.08547347 -0.22734612 -0.26092124 0.0826064

network.0.bias f4 [128]
00000000: 3e43 ee3c d954 73be 3ce5 523f a94c 333f
00000010: d6a2 2a3f 2b2e 333d bce7 633f 7d66 83bf
00000020: 4097 9a3f 67d9 bbbe 0e16 4e3f 5452 13bf
00000030: 1bd3 20bf 7dd2 e53e bbe8 323f 289f af3f
00000040: 2f65 173f 7d61 1c3f 0d76 813e f5fd a43f
00000050: 3fcc 353f 4cfc c4be c4ec 853f b26a d43e
00000060: f7ee 1b3f 91c8 4a3f 982f 82be 107c 953f
00000070: b82d ac3f 9b64 083f 0ca4 5f3f fb39 7e3f
00000080: 446e 873e acc0 1c3f fc8b a63f e0f2 463e
00000090: 5e26 f13f 0aed bdbb 5c8e 053f 4738 983f
000000a0: 2f56 083f 6e96 113f 4f50 033f b8d7 303f
000000b0: da42 0dbf 8877 663f dcc3 2a3f d417 a63f
000000c0: f8d3 3c3f 8753 ac3f 5b6f 0e3f a554 433f
000000d0: d700 423f 4a30 8e3f 43d8 843f e0ec 5d3f
000000e0: 0ab3 bb3a aacb c13e 4f7f 0f3f 1706 c23e
000000f0: 5ded 813f a7a8 533e 996b 8a3f f58e 00bf
00000100: a969 dc3e 7188 3d3f d42f 6b3f 29ea 483f
00000110: 769f 84bd 646e 9b3d dcc9 b2be 07df 623f
00000120: 8676 b53e 5e48 533e d611 b63c 4138 05bf
00000130: c575 9d3e a331 e83d 8a7e c73f 5523 e03e
00000140: e456 0540 844a 9e3f 36b5 283f 0e5d 903f
00000150: 305b a93e 2470 c13d 9b21 3e3f 0c61 da3d
00000160: 76cc edbd 5290 7c3f 0a75 9b3e 7812 103f
00000170: 1032 733f c861 3d3f f789 1e3f 10d3 0dbf
00000180: 96f1 963f a036 323f 0b88 a13f 7fbb 263f
00000190: c005 233f dbad 773f d884 f23e a9e9 1d3f
000001a0: 5532 a43f 7e0f 943f 9f11 583f e112 bd3f
000001b0: 1162 2c3e 6b3f 7b3d 8133 fe3e fbda 2e3e
000001c0: 2048 4c3f b97e 54bf e15c 503f 1423 323f
000001d0: aaec d73f f3f3 e0bc 8ff6 d2be 2ab3 fc3e
000001e0: f89b b43f d352 9b3f 7e83 553f b513 053f
000001f0: bfb6 313f 37e3 813f 19e8 833f 798a 06be
0.029084798 -0.23762836 0.82381034 0.7003885 0.6665472 0.0437452 0.89025474 -1.0265652
1.2077408 -0.36689302 0.805024 -0.575475 -0.6282212 0.44887152 0.6988637 1.3720446
0.5913877 0.61086255 0.25285378 1.2890002 0.7101478 -0.38473737 1.046288 0.41487652
0.60911506 0.7921229 -0.25426936 1.1678486 1.3451452 0.5327851 0.8735969 0.9930722
0.26451313 0.61231494 1.301147 0.19428587 1.8839834 -0.0057960795 0.5217035 1.1892174
0.53256506 0.5687016 0.51294416 0.6907916 -0.5518013 0.9002614 0.6670511 1.2976022
0.7376094 1.346299 0.55638665 0.7630103 0.7578253 1.1108487 1.0378498 0.8668957
0.0014320326 0.37850696 0.5605363 0.3789527 1.0150563 0.20669805 1.0814086 -0.50218135
0.43049362 0.7403632 0.91869855 0.784823 -0.06475727 0.07589415 -0.3491963 0.8862156
0.3544199 0.20633075 0.022225302 -0.5203896 0.30753914 0.113375925 1.5585492 0.43776956
2.0834284 1.236649 0.65901506 1.1278398 0.33077383 0.09445217 0.7427003 0.106630415
-0.116112635 0.98657715 0.3036273 0.5627818 0.94998264 0.7397733 0.6192927 -0.5540018
1.1792476 0.696146 1.2619642 0.65129846 0.6368065 0.9674966 0.47366977 0.6168466
1.282786 1.1567228 0.8440189 1.4771386 0.16834284 0.061339777 0.4964867 0.17075722
0.79797554 -0.83005863 0.8139172 0.69584775 1.6869099 -0.027460074 -0.41203734 0.4935544
1.4110098 1.2134651 0.83403766 0.51983196 0.69419473 1.0147465 1.0305206 -0.1313876

network.2.weight f4 [128, 128]
00000000: f2ec 36be 7392 0f3f 80ac c53d b0b5 973e
00000010: 16ef ee3e 6a4b 2f3e 9543 6dbd 3715 4cbe
00000020: 9a85 bb3d 6d99 d7be f808 053e db9a 553e
00000030: 311f 1f3d ff0e ba3e e539 f33e 3fa9 153f
00000040: f991 f33e 26f2 8d3e 1938 813e 7b4e 253f
00000050: a498 b33e 9a5e c23e 0c10 413e cf90 b6be
00000060: a73d 133f 6c78 dd3e ddd6 953e 2da7 eebd
00000070: 17e5 423f a110 0f3f 7d21 78bd fde3 023f
00000080: 1e14 2bbe 84f3 e83e 1cae f8bd 6e6a 843e
00000090: a949 7d3f 6c6a d03e 7119 9d3e 8513 f83e
000000a0: 57bd fe3d 9b86 c73e e353 093f e7cd 063f
000000b0: e7a2 edba 7c9a fa3e c836 fc3e 0e27 1c3f
000000c0: e18b 6e3e feb9 eb3e 5388 af3e 8eae ec3d
000000d0: de7d 153f e910 073f 246b 9a3e c24e e83e
000000e0: d3ac e03d 8c22 993e 760a 163d 937f 9cbb
000000f0: a48c 6a3f 57c4 f83e 148c a33e c157 0fbe
00000100: 30b9 ecba 2333 d93e 3d83 083e b8f4 223f
00000110: 167c af3d 6eb4 aa3e 8204 35be 9a91 4d3e
00000120: 7469 d93e 8c94 753e 995a f6be cde6 d7be
00000130: 0618 033f 29ca 37bd b75f 803e 8d56 3fbe
00000140: 44cf 633f 20fa 0f3f 32a2 9b3e cfef 183f
00000150: 8992 133f ef73 cb3d 71df 9c3e f6e0 fb3d
00000160: ad15 b0be c7ce 263f a94c a33c 9cef f33d
00000170: 626b 623d 464a 203f e135 81be c937 fd3c
00000180: 6d97 143f 5292 df3e 5aa4 d93e 7160 41be
00000190: c687 833e 7899 2b3f 5983 303e 57ce b53e
000001a0: 12be e43e de85 153f 25ec c7be 5860 143f
000001b0: 6559 533e 9876 b43e a7d4 2f3e cd69 813e
000001c0: c8cc c43e 27e8 a6bf 8825 ff3d 2b27 3abe
000001d0: e366 7a3f f46e 34bc 9059 153f ebb7 243e
000001e0: 8ae0 333f 8c0c 373f 5952 f43e a434 ef3e
000001f0: 717e b33e 2568 983e 1c60 6c3f 6320 493e
00000200: 5ef3 333d b685 923b a0f9 54bd 5af4 193a
00000210: ac1b debd 0fc5 1d3d 7a74 cdbd d7e2 a5bd
00000220: 0515 0ebd 9de4 a23d 442a e6bd 6337 1cbd
00000230: bfa3 92bd ef1f 59bd 8d86 99bd ae69 933b
00000240: 2b63 623d 3cd7 813c fb9e d53c aa28 183d
00000250: e5e3 89bd 6292 03bc 11f2 d4bc dba7 e0bd
00000260: 17cd dabc 8319 afbd e5e6 86bd 8070 d8bc
00000270: 9b9a 873d b398 26bc f5bd a9bd c767 a4bd
00000280: 315c dcbc 307a 123c 4a7e 943c c589 623d
00000290: 7a9c 5dbd 4114 65bc c429 a3bc fe0c a83c
000002a0: 080b c2bd 98b3 21bd 8158 b2bd 3c9c 05be
000002b0: 0a94 a1bd 466c 9dbd 967f 8bbd 28f9 f3bd
000002c0: 9333 43bc 7bf0 c5bd 216b a03a 0c72 833c
000002d0: 134a c93b cb42 7bbd aa37 cfbc ff4a 2f3d
000002e0: 39f9 e3bd 1255 0d3d e902 97bd 4f8b 12bb
000002f0: da9b 92bd 4a14 2bbe bb1b 9cbd 4f4d 05bb
00000300: 3d09 cb3c 0491 363d 0b76 853c ba3e a3bc
00000310: 4af4 87bc a165 bfbd 0933 d1bd 5772 efbd
00000320: 377c 183d 8f58 20bd 9206 bcbd fae2 023c
00000330: 11f4 bcbd ecfb 61bd e508 60bd dd68 31bd
00000340: 969c 4abc c5c3 f5bd d291 02be 02a9 c83c
00000350: 7fb5 02bd f59a 92bd 5f91 78bd ec21 2d3d
00000360: 5fa9 883c 8224 94bd 7d41 e73c 64ab 273d
00000370: 3947 ffbd 8a71 b8bd 74bc 1e3c e4eb 3cbc
00000380: ec20 2dbd 6d36 4e3c 2ed1 74bd 977c e7bc
00000390: 8592 60bd eac3 023d c0fa 293d 3b4f 123d
000003a0: c989 0d3b 493e 9f3c c928 f1bc 918e ae3b
000003b0: 5f15 85bc 8afb 423d 44c5 85bc 69fb d73c
000003c0: cafb c6bd 7764 b3bb cd76 d7bd ba4e f3bc
000003d0: c3f4 5dbc b0e9 6abd 94bc 4f3b 8c61 93bc
000003e0: 1b29 ddbb bfb3 e5bd 6f60 193b 97ae 9cbd
000003f0: d2c1 c1bc e2fd 72bd bc79 dcbc d885 433d
-0.17863825 0.5608284 0.096520424 0.29630804 0.46666783 0.17118612 -0.05792578 -0.19929968
0.09156342 -0.42109242 0.12991703 0.20859854 0.038848106 0.36339566 0.47505108 0.58461374
0.47572306 0.27723807 0.25238112 0.64572877 0.35077393 0.379628 0.18853778 -0.35657355
0.5751595 0.43255937 0.2926549 -0.1165298 0.76130813 0.5588475 -0.060578812 0.5112913
-0.16706893 0.45498288 -0.12142584 0.2586245 0.9894052 0.40706193 0.30683473 0.48452392
0.124384575 0.38969883 0.53643626 0.5265793 -0.0018130214 0.48945987 0.49260545 0.6099709
0.23295547 0.46040338 0.34283695 0.11556731 0.58395183 0.5276018 0.30159867 0.45372587
0.109704636 0.2990917 0.03663107 -0.00477595 0.9162085 0.48587295 0.3194281 -0.13998319
-0.0018060561 0.42421827 0.13331313 0.6365466 0.085685894 0.33340782 -0.17677501 0.20075074
0.42463267 0.23982447 -0.48115996 -0.42168275 0.5120853 -0.04487053 0.25073025 -0.1868536
0.8898814 0.56241035 0.30397183 0.5974092 0.5764547 0.09934222 0.30639222 0.12298767
-0.34391537 0.6515927 0.019934015 0.11910936 0.05527819 0.6261333 -0.2523642 0.03091039
0.5804356 0.4366632 0.42508203 -0.18884446 0.25689524 0.6703105 0.17237605 0.35508987
0.44676262 0.5840739 -0.3904735 0.5795951 0.2063957 0.3524673 0.17170964 0.25276032
0.38437486 -1.3039597 0.124583304 -0.18179004 0.9781324 -0.011012781 0.58339787 0.16085784
0.70264494 0.7150352 0.47719076 0.4671985 0.35057405 0.29766956 0.9233415 0.19641261
0.043933265 0.004471506 -0.051995873 0.0005872898 -0.10845122 0.038518008 -0.10031982 -0.08099907
-0.034688015 0.07953761 -0.1123853 -0.03813876 -0.07160138 -0.05300897 -0.07496367 0.004498682
0.055270355 0.015849702 0.026076784 0.037148155 -0.067329206 -0.008030506 -0.025994333 -0.10969516
-0.026709123 -0.08549788 -0.065870084 -0.026420832 0.066212855 -0.010168242 -0.082881846 -0.080276065
-0.026899429 0.008940265 0.018126626 0.05530717 -0.054104306 -0.01398188 -0.019917376 0.020514008
-0.0947476 -0.039477915 -0.08708287 -0.1304788 -0.07889564 -0.07686667 -0.068114445 -0.11912757
-0.011914152 -0.09665009 0.0012238958 0.016045593 0.0061428635 -0.061342996 -0.025295097 0.04279613
-0.1113152 0.034504957 -0.07373602 -0.0022360866 -0.071586326 -0.16706958 -0.07622477 -0.002034027
0.024784679 0.04457189 0.016291639 -0.019927371 -0.016595978 -0.09345556 -0.10214812 -0.116917305
0.037227836 -0.039146956 -0.09180941 0.007988686 -0.092262395 -0.055171892 -0.054695982 -0.043312896
-0.012366435 -0.12000231 -0.12750939 0.024494652 -0.03191137 -0.07158462 -0.06068551 0.04226868
0.016682325 -0.07233526 0.02822947 0.040934935 -0.124647565 -0.09006031 0.009688485 -0.01153085
-0.042267725 0.012586218 -0.0597698 -0.028257651 -0.054827232 0.03192512 0.0414989 0.03572009
0.002159702 0.01943888 -0.029438393 0.005327054 -0.016245542 0.047603168 -0.016329415 0.026364999
-0.09715994 -0.005474623 -0.10520706 -0.029700626 -0.013547125 -0.057351768 0.0031698095 -0.01799085
-0.006749285 -0.112159245 0.0023403426 -0.07650488 -0.023651991 -0.059324153 -0.026913516 0.047735065

network.2.bias f4 [128]
00000000: ab5d 263f 86fe ce3c 8a25 d93c 0c75 443d
00000010: 86f8 99bd 994f 9a3e e884 bb3e c425 e4bb
00000020: 48fa f6be 276e 9fbd 76ae a13c 13c8 8f3e
00000030: 76fd 65be e9d9 873f caba b2bc 7a7e d13e
00000040: d5c8 a23e 792b 143f 477a 05be 0a3f 813d
00000050: 4d1d 1abd 74d6 b83d 1272 4abc 1872 b63e
00000060: 288c 513e 829e 603f b047 0440 b296 043e
00000070: 6b6a f7bd ed51 6c3e b5a3 01bf fe18 19bd
00000080: 41b8 43bd eb88 a5bd 15e7 743d b15c e33c
00000090: 8b95 cd3e 9ca5 a9bd e461 debc a4d5 4abd
000000a0: 41f7 6a3e ae91 003c 7882 73bd 7e3a d53b
000000b0: 020c f53d cece 52bc 8e61 9d3c 2a23 b1bd
000000c0: 663b 29bf 6611 72bd 4633 013d 0c19 43bc
000000d0: 3a55 403d 54b0 a53e b1f6 8abe 7d47 053f
000000e0: a46d ecbc 8a83 7cbe 19e7 d53c b6dd 7d3e
000000f0: 097e c83e 7b84 23bf 457a 8a3d fa99 343e
00000100: f280 b8bd 7ad1 a1bd 8cf9 4d3d f8c5 6c3b
00000110: 1936 113e d1d6 3cbb 01d0 083e bf80 4cbe
00000120: aef3 b8bd 21a7 a0bc d6e0 aa3d 08b1 263e
00000130: 0715 a8bd 4755 64bc 44b1 213d 3118 093d
00000140: b1ab c03d 2fe1 8fbd 4478 773d 336a 15bd
00000150: dea5 08bf 6a1b 8b3c 0e3e 833e 620f 913c
00000160: c69c 20be 2227 913e baf0 1dbe 8988 703b
00000170: a4e1 7bbd 5a1e db3d 8555 72bc 48c3 0fbd
00000180: a782 fa3f 6505 fabe 07c4 53bd 3bb8 96bd
00000190: 9a91 3a3e f523 e7be 7e68 0cbf c08a 07bf
000001a0: 1b7b 073e f083 bfbd f9b9 46bd 8754 cabc
000001b0: 9937 883d fcf3 243d 35bd fa3c 418b ce3d
000001c0: 7cd1 fbbc 552c cdbd 7a1d f23e 4c92 903f
000001d0: a011 5c3d 8a8a 343e be21 843e bffe c03e
000001e0: 3a7e bd3e f0b6 713e 580e f93c f965 3e3d
000001f0: a432 c0ba c1f8 5abd 46f5 043d 18a3 e2be
0.64986676 0.02526785 0.026507158 0.047963187 -0.07518105 0.30138853 0.36624837 -0.00696251
-0.48237824 -0.07784682 0.01973651 0.28082332 -0.22459969 1.0613376 -0.021817584 0.40916806
0.31793848 0.57878834 -0.13034926 0.06310852 -0.0376256 0.09025279 -0.012356298 0.35633922
0.20463622 0.87741864 2.0668755 0.1294811 -0.120808445 0.23078127 -0.5064042 -0.03737735
-0.04778314 -0.08082756 0.05979069 0.02775416 0.40153155 -0.082835406 -0.027146287 -0.04952015
0.22945882 0.007847233 -0.059450597 0.006507217 0.11965181 -0.012866689 0.019211557 -0.08649285
-0.6610626 -0.059098624 0.03154304 -0.011907827 0.04695628 0.3236109 -0.27141336 0.5206221
-0.028860874 -0.24659553 0.026111173 0.24791607 0.39158657 -0.63874024 0.06761602 0.17636862
-0.09008969 -0.079012826 0.050286815 0.003612874 0.14180793 -0.0028814564 0.13360597 -0.19970988
-0.09030853 -0.019610943 0.08343665 0.1627847 -0.08207136 -0.013936347 0.039475694 0.033470336
0.094077475 -0.07025372 0.06041743 -0.036478233 -0.53378093 0.016980845 0.2563328 0.01770753
-0.15684804 0.28350168 -0.15423861 0.0036702475 -0.061494485 0.106991485 -0.014790897 -0.035098344
1.9571122 -0.4883224 -0.051700618 -0.07359358 0.18219605 -0.4514462 -0.5484694 -0.5294609
0.13230555 -0.09351337 -0.0485172 -0.024698509 0.066512294 0.040271744 0.030607799 0.10085154
-0.030739538 -0.10018221 0.47288114 1.1294646 0.053727746 0.17630973 0.25806993 0.37694356
0.37010366 0.23604941 0.030402347 0.046483967 -0.001466353 -0.053459886 0.032460473 -0.44265056

network.4.weight f4 [1, 128]
00000000: 56cf 10be f451 d1bc f794 02bc aa6d bd3d
00000010: ca35 6e3c 0d69 f1be 2117 adbd 84a3 8d3d
00000020: 3ba7 c53f f07d bf3c 99c6 3f3d f7f7 b13e
00000030: c07d 023d 6464 ccbf 18ac 6c3d 536c c23e
00000040: 012f 20bf b7a1 4ebf 5969 c03d 920d de3b
00000050: 4a42 aabc 81aa 2c3e 5f28 bb3d 2b91 c33e
00000060: a427 c73d c79a 28bf f433 e7be d48e d03e
00000070: e4d8 5e3c bba5 e23e 8d32 bb3f 8b39 1cbc
00000080: f8cf 813d 46d9 64bd 501e 373e 7295 533d
00000090: 2847 42bf 5de0 b63c 9845 e1bc 4ebf adbc
000000a0: 8454 bfbe 4b27 4b3d aafa 7f3d 230f 5c3d
000000b0: bd87 bd3d c26c 793d 1278 f73c 9e68 c53d
000000c0: c90c bd3f a365 f03c a3ad e33d 6f86 8c3d
000000d0: aa15 da3c dfdf 4c3d 0113 953d 874e e13e
000000e0: 3314 df3c 6529 c83f 6998 513d 09b5 34be
000000f0: fb85 be3e d4a6 80bf 9990 343e 23b7 d73e
00000100: 44cb efbb c0d1 523d c7ff 8d3d 29c0 e63d
00000110: fa10 333e 9758 cfbc 5130 29bd 2540 d23d
00000120: 236b 523d a66c 873d d1db 0d3e b4d2 313e
00000130: d373 153e fafc c53c c4d2 653d 9387 4c3d
00000140: dce8 ca3d 5f74 da3b 418e 413e fda5 073d
00000150: 3a07 b63f aee3 f83c 741a ab3e 2029 543d
00000160: bc77 d33d 7043 2abe 7155 183f b4b4 993d
00000170: d899 533d 6430 033e 5a94 e53c 2f61 d03d
00000180: dffe d9bf f5c6 873f 8562 443f cbfd a43c
00000190: bc25 053c 116c e23f a09c ea3e def7 803f
000001a0: f8bd 0a3e 06c8 473d 31c8 a13f cbba afbc
000001b0: c25e 053e d648 833b a9bd 753d 38ce e73d
000001c0: 3900 173d 6054 873c 31dc 73bf dda1 d8bf
000001d0: a8af b03b 88d3 93be 1b3f cabe df84 b0be
000001e0: 1615 d23e a250 a23e 8f14 863d 7769 f03c
000001f0: 89b6 ab3d 2648 223d 1a06 1c3e 126a a03f
-0.14141592 -0.025551774 -0.007970086 0.092494324 0.0145391915 -0.4715046 -0.08451677 0.06915954
1.544166 0.023375481 0.046820257 0.34759495 0.031858206 -1.5968137 0.05778131 0.3797327
-0.6257172 -0.8071551 0.093950935 0.00677652 -0.020783562 0.16861917 0.091385596 0.38196692
0.09724358 -0.6586117 -0.45156825 0.4073397 0.013601515 0.44267067 1.4624802 -0.009535204
0.06338495 -0.05587127 0.17882657 0.051656194 -0.75889826 0.022323782 -0.027499005 -0.021209385
-0.37369168 0.04959802 0.06249491 0.053725373 0.09254406 0.060894735 0.030208621 0.09639095
1.4769527 0.02934534 0.11117103 0.06861579 0.026621658 0.050018188 0.07279015 0.44005224
0.027231311 1.5637633 0.05117074 -0.17647184 0.37211594 -1.0050912 0.17633285 0.4213191
-0.0073179323 0.051469564 0.06933551 0.112671204 0.17486945 -0.025310798 -0.041305844 0.10266141
0.051371705 0.0661252 0.13853385 0.17365533 0.14594965 0.02416848 0.056109205 0.04993398
0.09907696 0.0066667045 0.18901922 0.033117283 1.4220955 0.030382004 0.3341862 0.051797032
0.10325572 -0.16627288 0.59505373 0.075051695 0.05166039 0.12811428 0.028024841 0.10174786
-1.7030905 1.0607592 0.7671283 0.02014055 0.008126672 1.7689229 0.4582262 1.0075643
0.1354903 0.04877474 1.2639219 -0.021451375 0.13024428 0.0040064855 0.059995327 0.1131863
0.036865447 0.016519725 -0.9525786 -1.6924397 0.0053920336 -0.28872323 -0.3950127 -0.34476373
0.41031712 0.31702143 0.0654689 0.029347165 0.08384425 0.039619587 0.15236703 1.253237
