RL-implementaions/lunarlander_ppo/actor_model.pth (torch, 279280 bytes, 6 tensors)

network.0.weight f4 [256, 8]
-0.107460365 -0.028057627 0.13634989 0.21871024 -0.12506732 -0.11307959 0.2725371 -0.004393117
0.089842536 0.24772502 0.05995455 -0.42325103 0.21867253 0.090649426 -0.24665403 0.07601728
0.08977129 0.15745789 -0.17974386 0.023413934 -0.2866375 0.21671537 0.25017542 -0.28761908
0.27483818 -0.3111876 0.30955252 -0.06043416 0.02151312 0.36359167 -0.35741693 -0.0056324927
-0.17165653 0.323589 -0.23997574 0.3115438 0.23666851 0.037514914 0.19384328 0.3783902
-0.10410596 -0.27879605 -0.3312779 0.27813852 0.28544638 -0.309436 -0.23268725 -0.2624138
0.025318101 -0.13981849 0.17931148 -0.026949987 -0.2607505 0.21922761 -0.1569325 -0.06618918
0.25792056 0.3412574 0.18027355 -0.26675788 -0.16767941 0.184212 0.15273295 0.05187978
0.2674011 0.031602215 0.30522949 -0.06730999 -0.44220904 -0.25479856 -0.18675296 -0.05047459
0.0516257 0.262326 -0.455603 0.20250252 -0.029936194 -0.099429265 0.07431552 -0.060670607
0.31039405 -0.29441115 0.21499896 0.04883774 -0.31318185 -0.07861673 0.3862573 0.37162745
-0.31030613 0.3258886 0.16122395 -0.33181152 -0.38885382 0.11002755 0.031075388 -0.1830493
0.1050532 -0.01069127 0.0068989065 -0.37518564 0.16148706 -0.0038786693 0.07081032 -0.1854495
0.36365053 0.041376926 0.16639902 -0.059984833 -0.29420173 0.04331105 0.25562114 -0.21657129
0.20495926 0.1612258 0.3600671 0.3083649 0.08930288 0.07186036 0.2916942 -0.1739112
0.04395756 0.24047878 -0.18927722 0.34465232 -0.16589649 -0.028817033 0.25674537 0.30584893
-0.038559522 0.028804991 -0.22738631 -0.28835613 0.049747854 0.1442665 0.04622273 -0.15833801
0.035854906 0.286182 -0.25360024 -0.34773245 0.056351032 0.1540121 0.20926245 0.2016341
-0.017006952 -0.24964035 0.2191694 0.20763817 0.33499104 0.27011493 -0.3469984 0.074311614
-0.26962152 0.14831102 -0.2865922 -0.34064522 0.02980596 0.13914627 -0.025813598 0.10510638
-0.29182917 -0.14625989 0.23779318 0.069788836 0.10750207 -0.020667547 0.2364802 0.049862746
0.13542262 -0.10530794 0.049958628 -0.2970787 0.024642533 0.16852605 0.15207762 -0.2562321
0.03853019 -0.069469295 -0.12371205 -0.29593974 0.039457258 -0.32167286 -0.21391672 0.03127587
-0.16767524 0.15188462 -0.402668 0.2520961 0.2778514 -0.24973316 -0.3779428 0.25219142
-0.07447441 0.07119655 0.30575395 -0.28369203 -0.17461 0.312345 -0.35788873 -0.22039412
-0.23553327 -0.35205472 0.23178804 0.19693676 -0.19122979 -0.01263592 0.08544758 0.12120271
-0.04912968 0.15723965 -0.062272813 -0.28565487 0.23698723 -0.047337256 0.2001815 0.030581255
0.25701463 -0.30531248 -0.15069366 -0.17830779 -0.23792495 -0.08832821 0.34536156 0.22825556
0.09553667 0.039923113 -0.3546418 -0.02104735 -0.18062648 0.15615329 -0.31719047 -0.30316004
0.090103544 -0.2197215 0.3290779 0.08095473 -0.021071322 -0.19611171 0.27253494 0.15513098
0.33446735 0.32709152 0.22474612 0.4271066 -0.3560474 0.16607116 0.36754897 0.36311758
-0.015018963 0.035377856 -0.1403459 0.21094348 -0.30314952 0.32997823 -0.17662397 0.3399861
00000000: 2e14 dcbd 1cd9 e5bc 4e9f 0b3e 94f5 5f3e
00000010: a611 00be 4696 e7bd fc89 8b3e 23f4 8fbb
00000020: 5dff b73d a1ab 7d3e e792 753d 5cb4 d8be
00000030: b1eb 5f3e 68a6 b93d e092 7cbe f3ae 9b3d
00000040: 03da b73d a43c 213e c60e 38be 94ce bf3c
00000050: 27c2 92be a2ea 5d3e fe16 803e cf42 93be
00000060: 97b7 8c3e fb53 9fbe ab7d 9e3e cf89 77bd
00000070: 483c b03c b028 ba3e 5aff b6be c690 b8bb
00000080: bbc6 2fbe 75ad a53e 33bc 75be ab82 9f3e
00000090: 3b59 723e 3da9 193d da7e 463e 5cbc c13e
000000a0: 8135 d5bd 5bbe 8ebe 429d a9be 2c68 8e3e
000000b0: 0726 923e 656e 9ebe 9145 6ebe 1a5b 86be
000000c0: e867 cf3c 942c 0fbe 6e9d 373e 38c6 dcbc
000000d0: 1781 85be 347d 603e eab2 20be 318e 87bd
000000e0: 2a0e 843e 4ab9 ae3e a199 383e 7d94 88be
000000f0: 27b4 2bbe 12a2 3c3e 0766 1c3e e47f 543d
00000100: cce8 883e 5371 013d 0a47 9c3e d2d9 89bd
00000110: 3969 e2be f574 82be 2b3c 3fbe 72be 4ebd
00000120: 7875 533d 984f 863e cc44 e9be d25c 4f3e
00000130: c03c f5bc 92a1 cbbd bc32 983d be81 78bd
00000140: f8eb 9e3e 0fbd 96be b028 5c3e 150a 483d
00000150: 5f59 a0be cf01 a1bd 84c3 c53e f445 be3e
00000160: 72e0 9ebe dfda a63e e417 253e 33e3 a9be
00000170: d917 c7be 2056 e13d d091 fe3c 4771 3bbe
00000180: 2226 d73d 702a 2fbc 3910 e23b 5518 c0be
00000190: dd5c 253e 4631 7ebb 0005 913d 79e6 3dbe
000001a0: 6730 ba3e da7a 293d 8164 2a3e a8b2 75bd
000001b0: 9ca1 96be ed66 313d c6e0 823e ddc4 5dbe
000001c0: d7e0 513e 6018 253e b75a b83e 01e2 9d3e
000001d0: 6ee4 b63d 862b 933d f158 953e c715 32be
000001e0: d80c 343d 1240 763e e3d1 41be 4576 b03e
000001f0: c5e0 29be b311 ecbc 2174 833e 3b98 9c3e
00000200: 97f0 1dbd 72f8 eb3c f5d7 68be 6aa3 93be
00000210: 68c4 4b3d 99ba 133e 0c54 3d3d 5c23 22be
00000220: 98dc 123d 7286 923e e4d7 81be fd09 b2be
00000230: 57d0 663d 59b5 1d3e e548 563e 2b79 4e3e
00000240: 2a52 8bbc b8a1 7fbe f16d 603e 1a9f 543e
00000250: f283 ab3e 814c 8a3e c6a9 b1be b030 983d
00000260: d50b 8abe d8de 173e 36bc 92be 0d69 aebe
00000270: a12b f43c 5c7c 0e3e 0a77 d3bc 0442 d73d
00000280: a26a 95be 27c5 15be 0e80 733e 73ed 8e3d
00000290: 0c2a dc3d fd4e a9bc de27 723e e13c 4c3d
000002a0: 3aac 0a3e b0ab d7bd 6ba1 4c3d b31a 98be
000002b0: 23df c93c 1892 2c3e 3cba 1b3e db30 83be
000002c0: d5d1 1d3d eb45 8ebd be5c fdbd 6a85 97be
000002d0: ef9d 213d 4eb2 a4be fc0c 5bbe 201b 003d
000002e0: 0fb3 2bbe a487 1b3e 802a cebe bd12 813e
000002f0: 8a42 8e3e 0dba 7fbe b881 c1be 3c1f 813e
00000300: 0a86 98bd 7fcf 913d c88b 9c3e 1540 91be
00000310: f7cc 32be afeb 9f3e 313d b7be ffae 61be
00000320: a22f 71be 8440 b4be d859 6d3e caa9 493e
00000330: bed1 43be e406 4fbc 24ff ae3d 2039 f83d
00000340: 343c 49bd 6e03 213e c711 7fbd 5b41 92be
00000350: c8ac 723e b6e4 41bd 61fc 4c3e 8a85 fa3c
00000360: 6c97 833e eb51 9cbe 704f 1abe 5196 36be
00000370: 99a2 73be 6ce5 b4bd 3bd3 b03e d3bb 693e
00000380: bba8 c33d 6b86 233d 9c93 b5be 7e6b acbc
00000390: 26f6 38be a6e6 1f3e ca66 a2be cb37 9bbe
000003a0: 3588 b83d acfe 60be e67c a83e 98cb a53d
000003b0: c49d acbc 82d1 48be b389 8b3e a8da 1e3e
000003c0: 4e3f ab3e 8a78 a73e d923 663e b7ad da3e
000003d0: d84b b6be 8f0e 2a3e 612f bc3e 8cea b93e
000003e0: 1912 76bc 5fe8 103d d6b6 0fbe 9101 583e
000003f0: 6a36 9bbe e8f2 a83e eadc 34be a812 ae3e

network.0.bias f4 [256]
-0.1211592 0.053170964 -0.37266743 0.047534212 -0.24482879 -0.13124159 -0.024030605 -0.27059832
0.2663123 -0.13883105 -0.25849223 -0.17915265 0.18290935 0.14685474 -0.10820966 -0.22165711
0.05474192 -0.270745 -0.00973475 0.30639237 0.16373721 -0.105650105 0.027440678 -0.058970746
0.10454909 -0.11234909 0.23005995 -0.07950743 0.15988436 -0.21579564 -0.01874183 0.19724974
-0.055652004 -0.1955842 -0.18075894 -0.14302857 0.32063296 0.20353158 0.18588908 -0.060129896
0.23018515 0.011620327 0.13637389 0.04471877 0.002320983 -0.09208151 -0.17991838 0.22940844
0.13540728 0.046243005 0.24846774 0.21333718 -0.25045827 -0.20014596 0.3283363 -0.29679292
-0.34054413 -0.10514244 -0.2743291 0.3435223 -0.023010563 -0.049846403 -0.14777346 -0.2851513
0.03777656 -0.14470595 -0.12371481 0.05188216 0.31439397 0.017919157 0.09781667 -0.2134641
0.056883465 0.1914718 -0.16412497 0.32058537 -0.017449383 0.21731457 0.18068029 0.07005219
0.085216515 0.1339807 0.16213058 -0.17941067 -0.012236602 0.21895382 0.23851515 0.09258134
-0.18714023 -0.32122228 -0.025584584 -0.0052474895 -0.20639698 -0.01776078 0.299348 0.07681899
-0.16411449 -0.08588231 0.2188688 0.038080048 0.017189367 -0.3634759 0.2512728 0.11910788
0.14794631 -0.077964276 0.08961635 -0.22808379 -0.2735906 0.2735903 -0.21782936 -0.05669156
-0.30060259 0.27576485 0.2327324 0.16051653 0.19379 -0.12933478 0.13878602 0.07895916
-0.06912213 0.10351964 0.024215529 -0.3301919 0.22007327 -0.088495135 0.20557603 0.16869989
-0.205813 -0.29690307 -0.06598287 -0.10892894 0.32106155 0.14521962 0.022843549 -0.28491017
0.08100465 0.0109509 0.2567294 -0.1478748 -0.30728906 0.019798866 0.30029577 0.03365366
-0.027668437 -0.2889455 -0.15666485 -0.25795504 0.29854444 0.23619513 -0.035064418 -0.06960977
-0.29223117 -0.26203725 0.14578803 0.19929619 0.025010707 0.2733719 0.029582167 0.10822414
-0.29785448 0.14365847 0.16899446 0.13591595 -0.10642972 0.009731205 -0.13348356 0.3299402
-0.079337224 0.20238477 -0.18524101 -0.08720702 -0.2853791 0.04408578 -0.027912915 -0.1462764
-0.10877954 -0.042834032 0.29317942 0.30746907 -0.14702877 -0.18455555 0.20063971 0.17645295
0.24313484 -0.36564535 0.13228102 0.18589075 -0.29863513 -0.10607957 0.19185588 0.23220854
0.13084507 -0.28903598 -0.28788865 0.20242916 -0.24504213 -0.06481339 -0.010600965 0.0772929
0.31618315 0.18941224 0.25364062 0.29277158 -0.27005842 -0.098341264 0.13750029 0.27748674
-0.021428572 -0.017162677 0.32592148 -0.2230401 0.25109518 0.13491327 0.14445741 0.058325253
0.27421173 0.054241516 0.24410889 0.16720514 -0.021691907 -0.054607447 0.2613466 -0.20981647
-0.16144206 0.22048903 -0.1918806 0.07617658 0.28564367 -0.11354799 -0.20118153 -0.11224941
-0.04958055 -0.09862966 0.2898042 0.27090865 0.011749552 0.19127448 -0.33218256 0.19381547
0.0043839887 -0.13775298 -0.021964671 -0.34865868 -0.053765934 0.14835851 0.04634728 0.3127958
-0.020823795 -0.16364849 0.03642635 -0.008431867 0.26465738 -0.24702941 0.24788953 0.10927637
00000000: 5122 f8bd ccc9 593d 44ce bebe 3cb3 423d
00000010: 66b4 7abe 3264 06be d5db c4bc dd8b 8abe
00000020: 165a 883e ba29 0ebe 1859 84be cb73 37be
00000030: 974c 3b3e 1761 163e 079d ddbd 15fa 62be
00000040: 1039 603d 179f 8abe 807e 1fbc 76df 9c3e
00000050: baaa 273e 155f d8bd 46cb e03c 4f8b 71bd
00000060: d51d d63d 4817 e6bd d694 6b3e cbd4 a2bd
00000070: bab8 233e 88f9 5cbe 7788 99bc d6fb 493e
00000080: 5bf3 63bd 3947 48be df18 39be 1576 12be
00000090: 012a a43e 956a 503e b559 3e3e c44a 76bd
000000a0: a8b5 6b3e 2f63 3e3c 99a5 0b3e 072b 373d
000000b0: a21b 183b 3b95 bcbd 863c 38be 0cea 6a3e
000000c0: 35a8 0a3e 4e69 3d3d 546e 7e3e 1075 5a3e
000000d0: 113c 80be 10f3 4cbe b21b a83e 3ef5 97be
000000e0: cd5b aebe eb54 d7bd dd74 8cbe 28e2 af3e
000000f0: a680 bcbc be2b 4cbd ed51 17be 5aff 91be
00000100: 98bb 1a3d cc2d 14be 315e fdbd 6382 543d
00000110: 3ff8 a03e 32cb 923c 1b54 c83d 5596 5abe
00000120: a3fe 683d 2f11 443e 6010 28be c423 a43e
00000130: 02f2 8ebc b687 5e3e 4104 393e 8677 8f3d
00000140: ff85 ae3d 3d32 093e 8f05 263e 6eb7 37be
00000150: 077c 48bc 6e35 603e 513d 743e 499b bd3d
00000160: b0a1 3fbe 3f77 a4be c396 d1bc 22f3 abbb
00000170: bb59 53be 0e7f 91bc 2444 993e 4653 9d3d
00000180: a10d 28be 11e3 afbd 251f 603e d3f9 1b3d
00000190: b7d0 8c3c 8319 babe d4a6 803e d5ee f33d
000001a0: 3d7f 173e bcab 9fbd c788 b73d cc8e 69be
000001b0: 1114 8cbe 0714 8c3e a90e 5fbe 6935 68bd
000001c0: 95e8 99be 0d31 8d3e 6751 6e3e 725e 243e
000001d0: e370 463e 5670 04be ec1d 0e3e 57b5 a13d
000001e0: e78f 8dbd 1b02 d43d a55f c63c ea0e a9be
000001f0: e35a 613e f03c b5bd 8682 523e aabf 2c3e
00000200: a5c0 52be ae03 98be 0722 87bd 2316 dfbd
00000210: 2e62 a43e 74b4 143e 6522 bb3c bfdf 91be
00000220: c4e5 a53d 676b 333c 0972 833e 7e6c 17be
00000230: fe54 9dbe 3b31 a23c 5ec0 993e 6cd8 093d
00000240: eba8 e2bc aaf0 93be c06c 20be af12 84be
00000250: d1da 983e 23dd 713e b59f 0fbd 918f 8ebd
00000260: 539f 95be bf29 86be 7549 153e 4d14 4c3e
00000270: 41e3 cc3c 67f7 8b3e 4d56 f23c 9ea4 dd3d
00000280: 6280 98be 351b 133e e20c 2d3e 8d2d 0b3e
00000290: d3f7 d9bd a26f 1f3c eaaf 08be eced a83e
000002a0: 8e7b a2bd f43d 4f3e d2af 3dbe 9899 b2bd
000002b0: 361d 92be 4a93 343d a0a9 e4bc 7bc9 15be
000002c0: cfc7 debd bd72 2fbd 9d1b 963e 966c 9d3e
000002d0: b68e 16be 21fc 3cbe 7f74 4d3e 15b0 343e
000002e0: 57f8 783e de35 bbbe ad74 073e 255a 3e3e
000002f0: b4e6 98be 3f40 d9bd de75 443e 13c8 6d3e
00000300: 40fc 053e 86fc 93be 2466 93be 9749 4f3e
00000310: 53ec 7abe e2bc 84bd abaf 2dbc bd4b 9e3d
00000320: c2e2 a13e 48f5 413e 2fdd 813e 28e6 953e
00000330: 1945 8abe 2567 c9bd e0cc 0c3e be12 8e3e
00000340: f98a afbc be98 8cbc 2edf a63e a064 64be
00000350: 8c8f 803e b426 0a3e a5ec 133e 76e6 6e3d
00000360: 7b65 8c3e 5a2c 5e3d aef7 793e d337 2b3e
00000370: 3ab3 b1bc 0fac 5fbd 39cf 853e 21da 56be
00000380: 1151 25be e0c7 613e 597c 44be 7702 9c3d
00000390: e33f 923e d98b e8bd 8802 4ebe 05e3 e5bd
000003a0: fa14 4bbd 59fe c9bd 3761 943e 8ab4 8a3e
000003b0: 3181 403c 75dd 433e d513 aabe 9077 463e
000003c0: 90a7 8f3b 1e0f 0dbe 41ef b3bc 6483 b2be
000003d0: ab39 5cbd 4beb 173e a5d6 3d3d c526 a03e
000003e0: aa96 aabc 7893 27be cc33 153d d025 0abc
000003f0: 2c81 873e 47f5 7cbe c1d6 7d3e 4acc df3d

network.2.weight f4 [256, 256]
0.02683734 -0.004012728 0.019245168 -0.048514012 0.0142896045 0.042113636 0.037757486 0.00787804
-0.03366475 -0.0059468267 -0.03138825 0.05335863 -0.058080893 -0.018891435 -0.0042599556 0.03906466
0.016077725 0.052393854 0.035049107 0.0438304 -0.02630085 -0.057446733 -0.046341963 -0.03503438
-0.013613468 0.054491848 0.010561438 0.015523392 -0.06203127 -0.058377504 -0.05579675 0.04364337
-0.007916382 0.04817687 0.035146628 -0.06632412 0.00095768087 -0.014520827 -0.06331928 0.05034621
-0.03361157 -0.059207734 0.04229706 0.010030021 -0.008329228 0.012186803 0.026478829 0.02234201
0.0511151 0.031770136 0.043080546 -0.0572799 -0.048362557 -0.032239504 0.0014014 -0.03446494
0.013999515 -0.066969 0.019045949 0.009994189 -0.01802741 0.03255176 -0.018323725 -0.054322038
0.05392282 0.022619836 -0.060775608 -0.057742637 0.03189469 -0.05229068 0.012170396 0.02385357
-0.062364515 -0.04290663 0.023315161 -0.021948496 -0.016008273 -0.04934936 -0.0031562252 0.027575199
0.030127704 0.006051976 0.024599178 0.020735655 -0.060297657 0.010540757 -0.067261115 0.0057697874
-0.06932073 0.008355193 -0.039071172 0.01797113 0.02651183 0.025643935 -0.06798382 0.008220234
-0.010834045 0.048433673 0.043084092 0.018181164 -0.038802795 0.0009866736 -0.06077969 0.020430451
-0.037723385 -0.01058322 -0.015883304 -0.042328224 -0.060278434 -0.01991677 -0.051260583 0.0080863815
-0.049173743 -0.033674095 -0.057778336 0.04197137 -0.038632926 0.049892463 0.01749953 -0.024096282
-0.034640573 0.011452467 -0.05761974 -0.014314513 -0.034767758 -0.020141426 0.042864945 0.039038938
-0.033419915 -0.0028861684 -0.018278101 -0.055054825 0.04889834 0.020595806 0.024008367 0.051793974
-0.05202384 -0.012916961 0.02393027 -0.05162929 0.0558907 -0.03095514 0.058371354 0.014942482
0.050670017 -0.044349693 -0.032508306 0.046404924 -0.03952821 -0.06153493 -0.028306194 -0.022841178
-0.059968293 0.047853287 -0.0067053773 -0.029444536 0.007777214 -0.03973837 -0.018693943 0.007801882
-0.0068683103 0.0405513 0.008328746 0.005696778 -0.057443626 0.060407072 -0.055610437 -0.06671226
-0.061147105 -0.01144933 -0.048994895 -0.038507648 0.023564836 -0.065542124 0.035111368 -0.017958818
-0.058384523 0.018309448 0.046128288 -0.0646624 0.043855637 -0.011820311 -0.0690645 0.03611037
-0.03205177 -0.0046337596 0.009859405 0.014761158 -0.004908641 0.02117183 -0.059646204 -0.039034087
-0.0034075996 0.05068689 0.034992997 -0.04693244 0.038848452 0.027774941 0.02745181 0.043489847
0.037598286 -0.060742456 -0.04611326 -0.001080593 -0.04761365 0.037733547 0.003748633 0.018791867
-0.046391405 0.015773697 0.0459745 0.055089135 -0.006560747 -0.027051458 0.023208968 -0.025566498
-0.06708741 0.02212115 -0.02629332 -0.0025268425 0.0239509 0.046705455 0.008866057 -0.0052582324
-0.051509283 -0.052367643 0.046939474 -0.043513827 0.036146447 0.020690572 0.03998337 -0.018825233
0.034024816 0.05061529 -0.033808734 0.028996691 -0.021687524 0.002134053 -0.0042015132 -0.029861506
0.015329123 0.053362656 0.00031758056 -0.028451473 0.01079577 0.0377884 0.04657545 0.020708753
-0.009595588 -0.059260126 0.043629896 -0.0154160075 0.030983292 -0.044709202 0.051957157 -0.024852041
00000000: fbd9 db3c 347d 83bb 0ba8 9d3c a1b6 46bd
00000010: f21e 6a3c 597f 2c3d 98a7 1a3d e512 013c
00000020: 0de4 09bd 99dd c2bb f790 00bd 948e 5a3d
00000030: 3be6 6dbd 36c2 9abc 1997 8bbb 4402 203d
00000040: 6fb5 833c f09a 563d a78f 0f3d 8187 333d
00000050: e174 d7bc 444d 6bbd 12d1 3dbd 3680 0fbd
00000060: 060b 5fbc d832 5f3d e209 2d3c d355 7e3c
00000070: 8014 7ebd 401d 6fbd 228b 64bd 64c3 323d
00000080: b6b3 01bc 1c55 453d e9f5 0f3d f1d4 87bd
00000090: e00c 7b3a c3e8 6dbc 8aad 81bd d437 4e3d
000000a0: 49ac 09bd cf83 72bd af3f 2d3d f554 243c
000000b0: 5077 08bc 28ab 473c 21ea d83c 9706 b73c
000000c0: 115e 513d 6721 023d 3a75 303d 549e 6abd
000000d0: d117 46bd 920d 04bd 2eaf b73a 1c2b 0dbd
000000e0: 395e 653c 0b27 89bd 4006 9c3c abbe 233c
000000f0: 38ae 93bc ff54 053d a31b 96bc c980 5ebd
00000100: 2dde 5c3d 3c4d b93c d8ef 78bd 8b83 6cbd
00000110: 02a4 023d c12e 56bd 5766 473c 9068 c33c
00000120: ef71 7fbd ddbe 2fbd 70ff be3c 55cd b3bc
00000130: c823 83bc 8e22 4abd acd8 4ebb 62e5 e13c
00000140: 60ce f63c a74f c63b 3784 c93c d2dd a93c
00000150: adfa 76bd 24b3 2c3c 32c0 89bd 7c10 bd3b
00000160: 07f8 8dbd 38e4 083c 1809 20bd 3138 933c
00000170: 562f d93c 3b13 d23c 1a3b 8bbd 29ae 063c
00000180: 4781 31bc 6362 463d f278 303d aaf0 943c
00000190: aeef 1ebd 4653 813a 20f4 78bd c35d a73c
000001a0: d683 1abd 3e65 2dbc b41d 82bc 5c60 2dbd
000001b0: 85e6 76bd 7e28 a3bc 9ef6 51bd be7c 043c
000001c0: 686a 49bd d9ed 09bd faa8 6cbd 2cea 2b3d
000001d0: 8f3d 1ebd 0a5c 4c3d 2d5b 8f3c 9165 c5bc
000001e0: 46e3 0dbd 21a3 3b3c ad02 6cbd 6b87 6abc
000001f0: a368 0ebd a2ff a4bc 2793 2f3d 4be7 1f3d
00000200: 52e3 08bd df25 3dbb f5bb 95bc 2b81 61bd
00000210: a049 483d 89b8 a83c 32ad c43c eb25 543d
00000220: f316 55bd a9a1 53bc 6a09 c43c 3c79 53bd
00000230: a6ed 643d a295 fdbc cd16 6f3d 50d1 743c
00000240: 5d8b 4f3d 06a8 35bd 6e27 05bd 1713 3e3d
00000250: 55e8 21bd 0d0c 7cbd 64e2 e7bc 6c1d bbbc
00000260: 50a1 75bd cf01 443d c8b8 dbbb ab35 f1bc
00000270: 00d8 fe3b b3c4 22bd 0a24 99bc eea6 ff3b
00000280: 900f e1bb 1f19 263d 4b75 083c 0aac ba3b
00000290: 024a 6bbd 686d 773d c5c7 63bd 70a0 88bd
000002a0: 6375 7abd f895 3bbc dfae 48bd 32ba 1dbd
000002b0: 0b0b c13c f33a 86bd f0d0 0f3d 5f1e 93bc
000002c0: 9c24 6fbd b2fd 953c 04f1 3c3d b86d 84bd
000002d0: f8a1 333d faa9 41bc b071 8dbd 78e8 133d
000002e0: b748 03bd cbd6 97bb 5889 213c c9d8 713c
000002f0: aad8 a0bb 8c70 ad3c 944f 74bd 35e2 1fbd
00000300: 0952 5fbb 0e9d 4f3d d154 0f3d 3b3c 40bd
00000310: 8e1f 1f3d 4688 e33c 9ee2 e03c 6922 323d
00000320: a900 1a3d 15cd 78bd 42e1 3cbd afa2 8dba
00000330: 8806 43bd 7e8e 1a3d a0ab 753b 67f1 993c
00000340: ea04 3ebd d737 813c c24f 3c3d 25a5 613d
00000350: 89fb d6bb 059b ddbc bc20 be3c d570 d1bc
00000360: 2065 89bd 6a37 b53c 1765 d7bc 6299 25bb
00000370: ae34 c43c 384e 3f3d f042 113c 404d acbb
00000380: 66fb 52bd 747f 56bd 9b43 403d 8e3b 32bd
00000390: 4c0e 143d 467f a93c 9ac5 233d 6037 9abc
000003a0: 9b5d 0b3d fa51 4f3d 077b 0abd 788a ed3c
000003b0: 09aa b1bc 78db 0b3b d9ac 89bb 1ea0 f4bc
000003c0: 0027 7b3c cd92 5a3d f180 a639 1013 e9bc
000003d0: bee0 303c 02c8 1a3d e6c5 3e3d 67a5 a93c
000003e0: d036 1dbc bfba 72bd 43b5 323d 6c93 7cbc
000003f0: acd0 fd3c ff20 37bd 07d1 543d 8296 cbbc

network.2.bias f4 [256]
-0.023949577 0.08340364 -0.060943738 -0.07962179 0.009414927 -0.02376293 0.07312504 -0.053856306
-0.04491723 0.069856174 0.07202196 0.0014141508 0.083642185 0.05868776 1.866419e-05 0.0006618019
-0.046238575 0.03921499 0.047096483 -0.019404752 0.05232045 0.0026164434 0.021135386 0.04619229
0.06891381 0.04398824 0.00331145 -0.06428709 -0.023066143 0.015580176 -0.043346226 -0.050820924
0.022002047 -0.022110412 -0.036795493 -0.023482185 0.015487501 0.03778155 -0.015657663 -0.044499118
0.02512663 0.023463184 0.045711856 0.019976135 -0.07706384 0.073194996 0.01825295 0.020753935
-0.052892633 0.022911279 0.0005661051 -0.030192858 -0.003441421 0.041396055 -0.022156782 0.053993315
-0.06549993 0.044328086 0.10348681 0.04852019 0.047293615 0.033610996 -0.022461113 -0.07500866
-0.007067346 0.061381977 -0.004736544 0.017161004 -0.04094565 0.09664486 0.054729942 -0.006406141
0.020903545 -0.048488066 0.03487886 -0.034760494 -0.06398735 -0.0006860663 -0.037884697 -0.031249877
-0.060490806 0.0046308297 0.028530782 0.1137183 0.0380264 0.019311845 0.00064493134 -0.02197184
-0.01708784 -0.0074371486 -0.036869142 0.038817797 -0.02136078 -0.021762175 0.048708238 0.057353143
0.09705255 0.022283686 0.013316278 0.010663501 -0.03988116 0.08898448 0.032129496 -0.007718816
0.027457522 -0.029310193 -0.023881162 -0.05595936 -0.06213613 0.022913897 0.002406602 -0.04954818
0.035035588 0.049462438 -0.05284003 0.049523585 0.042293902 -0.015274764 0.004136858 0.00014601115
-0.016130762 0.07250959 0.010305142 0.049920555 -0.011632237 0.03800046 0.04729888 0.006649242
0.027796209 0.045592614 0.048645437 -0.016483312 -0.0067284387 0.037846684 -0.006479089 -0.057780277
-0.010243539 -0.0050369976 -0.017316148 -0.027524585 -0.019417856 0.047867473 -0.052109048 -0.0021158103
0.058339376 0.007736951 0.0046427385 0.081663765 -0.06276335 0.05739587 -0.048631337 -0.044627517
0.034455564 -0.026178136 -0.058692507 0.05062699 0.070478484 -0.008458303 0.049040142 -0.020962493
0.0389305 -0.06567246 -0.03196668 0.06058047 -0.033511132 -0.08804761 -0.009707771 0.04855192
-0.002989398 -0.007326357 0.021337554 0.0805027 0.041090894 0.031611808 -0.053423345 0.0739018
-0.0017447589 0.04819708 0.013669615 0.00020750685 0.082592964 0.027011214 -0.010970528 -0.028973056
-0.04129256 0.03050255 -0.059650004 -0.04605183 0.051057827 -0.027815353 -0.068740904 0.0277349
0.06802017 0.03829419 0.028499762 0.069101945 0.026664982 -0.014877381 0.03431856 0.03815404
0.05116266 -0.047606304 -0.004893297 -0.009598641 0.035690863 -0.05781351 0.05378299 -0.01822206
-0.046466496 0.009488651 -0.018362794 0.0039444775 -0.008473246 -0.028427789 0.002916193 0.041235093
0.0034499604 0.052840732 -0.006581976 0.017014729 -0.015999949 -0.002258715 0.077615075 0.046817962
0.06665855 -0.052216556 0.09569143 0.057319663 0.023321042 0.0125502255 -0.007710267 0.03134103
-0.023662236 -0.060979288 0.08330122 0.020978266 -0.059404057 0.016406283 0.016722955 -0.022223536
-0.024415135 -0.014457829 0.033639193 0.05277252 -0.027168151 0.018798584 0.020135986 0.048586845
0.040014636 -0.0006310493 -0.006790223 -0.046288736 0.09150487 -0.048337203 0.03907484 -0.05103989
00000000: e731 c4bc 87cf aa3d 24a0 79bd c010 a3bd
00000010: 1141 1a3c 7aaa c2bc 95c2 953d 6e98 5cbd
00000020: 21fb 37bd c110 8f3d 4080 933d 075b b93a
00000030: 984c ab3d 9462 703d 0b91 9c37 c67c 2d3a
00000040: a964 3dbd e69f 203d 3ee8 403d b7f6 9ebc
00000050: f84d 563d a378 2b3b 1e24 ad3c 2034 3d3d
00000060: af22 8d3d 032d 343d e904 593b f3a8 83bd
00000070: 35f5 bcbc ff43 7f3c d08b 31bd 9a29 50bd
00000080: a33d b43c e520 b5bc dfb6 16bd b65d c0bc
00000090: 4abf 7d3c d4c0 1a3d 8044 80bc b544 36bd
000000a0: 5dd6 cd3c dd35 c03c 5b3c 3b3d fea4 a33c
000000b0: a6d3 9dbd 42e7 953d 3687 953c 2804 aa3c
000000c0: f2a5 58bd 6fb0 bb3c ac66 143a 0357 f7bc
000000d0: 7789 61bb e98e 293d 2482 b5bc 1828 5d3d
000000e0: d424 86bd 5e91 353d e5f0 d33d 1bbd 463d
000000f0: f3b6 413d afab 093d 5e00 b8bc 249e 99bd
00000100: 3295 e7bb ab6b 7b3d 0335 9bbb 3c95 8c3c
00000110: a0b6 27bd beed c53d 812c 603d 9bea d1bb
00000120: e93d ab3c 6c9b 46bd 23dd 0e3d 0561 0ebd
00000130: cd0b 83bd 21d9 33ba fc2c 1bbd beff ffbc
00000140: 35c5 77bd 37be 973b 63b9 e93c 24e5 e83d
00000150: 92c1 1b3d e033 9e3c 9c10 293a 4afe b3bc
00000160: ccfb 8bbc 53b3 f3bb 1904 17bd 69ff 1e3d
00000170: cdfc aebc 9746 b2bc 4a82 473d 21eb 6a3d
00000180: 7dc3 c63d 478c b63c 852c 5a3c f7b5 2e3c
00000190: 6d5a 23bd 7f3d b63d 389a 033d 1fee fcbb
000001a0: 99ee e03c ee1b f0bc 6da2 c3bc a435 65bd
000001b0: 7482 7ebd edb5 bb3c 15b8 1d3b 08f3 4abd
000001c0: 7a81 0f3d 2099 4a3d ca6e 58bd 3ed9 4a3d
000001d0: 5f3c 2d3d 0143 7abc 7b8e 873b 921a 1939
000001e0: a924 84bc e87f 943d e6d6 283c 7f79 4c3d
000001f0: 2395 3ebc 5fa6 1b3d 78bc 413d e2e1 d93b
00000200: e0b4 e33c 52bf 3a3d 7040 473d 0308 87bc
00000210: 3c7a dcbb 2005 1b3d 8a4e d4bb 03ab 6cbd
00000220: 84d4 27bc 660d a5bb 98da 8dbc 3d7b e1bc
00000230: 3212 9fbc af10 443d 4c70 55bd 68a9 0abb
00000240: 45f5 6e3d 4086 fd3b 1d22 983b 553f a73d
00000250: 128a 80bd ef17 6b3d a731 47bd 58cb 36bd
00000260: 4721 0d3d 8873 d6bc 8e67 70bd 3f5e 4f3d
00000270: 0657 903d b294 0abc 51de 483d 89b9 abbc
00000280: 9775 1f3d 487f 86bd 7eef 02bd 3a23 783d
00000290: f842 09bd 4e52 b4bd 580d 1fbc 61de 463d
000002a0: c7e9 43bb f011 f0bb 18cc ae3c 99de a43d
000002b0: ed4e 283d 627b 013d 70d2 5abd d459 973d
000002c0: 65b0 e4ba 4d6a 453d 85f6 5f3c 3296 5939
000002d0: 8026 a93d 9f46 dd3c bbbd 33bc e758 edbc
000002e0: 6322 29bd 7ce0 f93c 9053 74bd d8a0 3cbd
000002f0: 0322 513d 06dd e3bc 08c8 8cbd 4d34 e33c
00000300: 294e 8b3d 5eda 1c3d 5578 e93c 5285 8d3d
00000310: 8570 da3c 42c0 73bc 9e91 0c3d 6947 1c3d
00000320: f08f 513d d4fe 42bd f357 a0bb 9e43 1dbc
00000330: 9530 123d dccd 6cbd 8d4b 5c3d 6e46 95bc
00000340: a753 3ebd 4976 1b3c 926d 96bc ad40 813b
00000350: 5fd3 0abc 65e1 e8bc 9a1d 3f3b 21e6 283d
00000360: bb18 623b 866f 583d 9ead d7bb 7962 8b3c
00000370: 5312 83bc f306 14bb a7f4 9e3d 31c4 3f3d
00000380: 4784 883d 07e1 55bd def9 c33d 06c8 6a3d
00000390: c50b bf3c 769f 4d3c 68a6 fcbb 745f 003d
000003a0: 4ed7 c1bc 6bc5 79bd d499 aa3d 9dda ab3c
000003b0: ab51 73bd 7866 863c 94fe 883c 220e b6bc
000003c0: 4002 c8bc 88e0 6cbc 40c9 093d ff27 583d
000003d0: be8f debc 7dff 993c 39f4 a43c 0003 473d
000003e0: 63e6 233d 006d 25ba 8580 debb 4299 3dbd
000003f0: e866 bb3d 3bfd 45bd f00c 203d 340f 51bd

network.4.weight f4 [4, 256]
0.046173796 0.07238111 -0.055428896 0.07269679 -0.042935118 0.08782268 -0.0045234123 0.11216931
0.11853574 -0.02302569 -0.07007873 0.07229222 -0.04772207 -0.02983921 -0.046531856 0.06609423
0.080159545 0.0004004938 -0.11531756 -0.059070088 0.0784223 -0.048663843 -0.023595978 0.06041211
0.00438099 -0.042254217 0.04233799 0.077915415 0.070754 -0.041083083 0.04285483 0.010598632
0.07038823 0.052048296 0.03306328 0.035524826 0.050806034 0.021599943 0.029360894 -0.024186252
0.06316294 0.081254795 0.13344862 0.043157693 -0.03548433 0.07563423 0.0062091975 -0.011176708
0.005234565 0.01864012 -0.045939673 -0.0603246 0.024051385 0.077030085 0.12312452 -0.0032741341
0.12754327 -0.0461928 -0.022183228 0.081467696 0.017828425 -0.0059372727 0.059573796 0.030840803
-0.030531552 0.01518886 0.043627303 0.061210513 -0.045868266 -0.0672388 -0.015524504 0.02689444
-0.043562755 0.053023268 0.041015804 0.049530566 -0.0443005 0.08192358 0.028426142 0.065993465
-0.058596883 -0.041368794 0.064190224 -0.056723937 -0.07689378 0.011564779 0.03372547 0.032183234
0.061472002 0.023245344 -0.006030848 0.07208825 0.04725729 0.09838958 0.011426455 0.04109957
-0.017471178 -0.0031385443 0.0066220053 0.07344628 0.0377205 -0.06763307 -0.02227973 -0.02060237
0.02709448 0.024994465 -0.007958198 -0.00772094 0.004650429 0.022849403 0.022748834 0.06332232
0.059073873 -0.041710306 0.034586933 -0.001736507 -0.06397119 0.0027329198 0.05105549 0.026421314
-0.011413558 -0.086786516 0.046811476 -0.08295266 -0.024784122 -0.05738337 0.035131637 -0.05529305
0.058943287 0.018660435 0.016535597 0.07975382 0.06340046 0.055726245 0.117479004 0.0732865
-0.023181256 -0.024920553 -0.010684907 0.030448444 -0.0125383325 -0.044460826 -0.050490413 -0.0028284513
-0.039948303 -0.073077105 0.06513241 -0.0011830726 0.09083823 -0.014002587 -0.0063188667 -0.009955666
0.053941507 0.053448807 0.025343547 0.027740825 -0.05651255 0.034066416 0.041298993 0.113158554
0.02889775 0.10654515 0.12885205 0.093458444 -0.023408119 0.05776246 0.09310706 0.019728927
0.05636405 0.059824795 -0.045978744 -0.095131285 0.077015065 0.004939377 -0.030148363 -0.09074045
-0.056722403 -0.018866695 -0.019233732 0.062310357 -0.040245295 -0.053003848 0.053333405 0.024017643
0.04695418 -0.01864766 -0.01511292 -0.04072685 0.053993367 0.036604915 0.015777018 -0.028663203
-0.0616444 0.018600455 0.024984973 -0.080426656 0.020380136 0.036487687 0.06599058 0.007913372
0.02470334 0.03407133 0.029427882 0.019588474 -0.05727828 0.011061327 -0.04957119 -0.058151595
0.024928905 -0.03962003 -0.009222098 0.016097737 0.046391338 0.068233185 -0.023621555 0.04611696
-0.0070388136 -0.011125685 0.12181505 0.025483813 -0.054920457 0.029545143 -0.06852545 -0.07602881
0.039292686 0.11982906 0.006798988 -0.011721566 0.053684417 0.050729558 0.051873006 0.0374764
0.021674959 0.011807005 0.01839421 -0.026790401 0.06837161 0.05818333 0.066298135 0.050365448
0.12436675 0.031312935 -0.009572818 -0.025495796 0.012334307 0.072209775 0.051107187 -0.02867217
-0.04508956 0.043307245 -0.023469826 -0.03179174 -0.06262485 -0.03217638 -0.04730281 -0.012543127
00000000: bc20 3d3d 8c3c 943d 6909 63bd 0ee2 943d
00000010: bcdc 2fbd 61dc b33d 2239 94bb 06b9 e53d
00000020: dec2 f23d 5fa0 bcbc 7085 8fbd f20d 943d
00000030: 3878 43bd 5c71 f4bc 3098 3ebd 695c 873d
00000040: b02a a43d 5ef9 d139 9d2b ecbd 7af3 71bd
00000050: df9b a03d bd53 47bd 5a4c c1bc b072 773d
00000060: 688e 8f3b c212 2dbd 9a6a 2d3d 1e92 9f3d
00000070: 79e7 903d bc46 28bd 8c88 2f3d e2a5 2d3c
00000080: b427 903d 9830 553d 5d6d 073d 7b82 113d
00000090: fd19 503d 5df2 b03c 4286 f03c 3f22 c6bc
000000a0: 925b 813d ea68 a63d c1a6 083e 1fc6 303d
000000b0: 0458 11bd 1fe6 9a3d 8676 cb3b 831e 37bc
000000c0: b786 ab3b 2ab3 983c 3d2b 3cbd ee16 77bd
000000d0: 6907 c53c f3c1 9d3d b528 fc3d db92 56bb
000000e0: b49a 023e a934 3dbd 9ab9 b5bc 89d8 a63d
000000f0: eb0c 923c 748d c2bb a703 743d daa5 fc3c
00000100: 4e1d fabc b2da 783c 8bb2 323d e0b7 7a3d
00000110: 5de0 3bbd 7fb4 89bd 7d5a 7ebc bb51 dc3c
00000120: dc6e 32bd ed2e 593d 3000 283d 90e0 4a3d
00000130: 7174 35bd 8dc7 a73d f1dd e83c 9527 873d
00000140: 4903 70bd 5372 29bd 2a76 833d 5c57 68bd
00000150: 7c7a 9dbd 337a 3d3c b823 0a3d 91d2 033d
00000160: 11ca 7b3d 056d be3c 6b9e c5bb 01a3 933d
00000170: dc90 413d 7a80 c93d 0736 3b3c 0658 283d
00000180: b71f 8fbc 09b0 4dbb 68fd d83b 016b 963d
00000190: d080 1a3d 3583 8abd fb83 b6bc 4dc6 a8bc
000001a0: 3ef5 dd3c 31c1 cc3c 1a63 02bc f0ff fcbb
000001b0: a062 983b ac2e bb3c c35b ba3c 22af 813d
000001c0: 72f7 713d 6dd8 2abd 07ab 0d3d 829b e3ba
000001d0: 5403 83bd c91a 333b 901f 513d 8371 d83c
000001e0: efff 3abc 21bd b1bd 64bd 3f3d 16e3 a9bd
000001f0: 1208 cbbc d30a 6bbd 31e6 0f3d f77a 62bd
00000200: 846e 713d c5dd 983c a975 873c f955 a33d
00000210: 1ad8 813d 3441 643d d598 f03d 3c17 963d
00000220: 9ee6 bdbc 3026 ccbc c00f 2fbc 046f f93c
00000230: 946d 4dbc 8e1c 36bd 09cf 4ebd 8a5d 39bb
00000240: d5a0 23bd 73a9 95bd 2464 853d 5411 9bba
00000250: 6509 ba3d 1b6b 65bc 7f0e cfbb 171d 23bc
00000260: c5f1 5c3d 23ed 5a3d 459d cf3c ba40 e33c
00000270: b479 67bd 3a89 0b3d 2229 293d acbf e73d
00000280: f9ba ec3c 5834 da3d cbf1 033e 2467 bf3d
00000290: 62c2 bfbc 5498 6c3d eaae be3d 8f9e a13c
000002a0: fddd 663d d80a 753d 3554 3cbd 31d4 c2bd
000002b0: 13ba 9d3d 7fda a13b b3f9 f6bc 21d6 b9bd
000002c0: c055 68bd 548e 9abc 0f90 9dbc 2539 7f3d
000002d0: 40d8 24bd 901a 59bd 2174 5a3d a6c0 c43c
000002e0: 0753 403d fac2 98bc 2e9c 77bc 33d1 26bd
000002f0: 2628 5d3d 09ef 153d ce3e 813c 18cf eabc
00000300: d77e 7cbd fb5f 983c 49ad cc3c bbb6 a4bd
00000310: 3ef4 a63c 1d74 153d 1226 873d 16a7 013c
00000320: a95e ca3c 618e 0b3d be12 f13c 0278 a03c
00000330: a19c 6abd 913a 353c 290b 4bbd 5e30 6ebd
00000340: b437 cc3c 9d48 22bd 4818 17bc 67df 833c
00000350: d804 3e3d d7bd 8b3d fe81 c1bc 23e5 3c3d
00000360: d9a5 e6bb 8148 36bc 2b7a f93d 6ec3 d03c
00000370: 46f4 60bd a808 f23c 1257 8cbd feb4 9bbd
00000380: 5ef1 203d f068 f53d 0cca de3b d00b 40bc
00000390: 31e4 5b3d ccc9 4f3d ca78 543d db80 193d
000003a0: af8f b13c 2b72 413c 74af 963c 8b77 dbbc
000003b0: 6a06 8c3d a551 6e3d 51c7 873d 004c 4e3d
000003c0: ffb3 fe3d fe41 003d 4fd7 1cbc 8fdc d0bc
000003d0: d515 4a3c b8e2 933d c555 513d e6e1 eabc
000003e0: d5af 38bd f062 313d cb43 c0bc 0e38 02bd
000003f0: 7541 80bd 61cb 03bd 97c0 41bd b081 4dbc

network.4.bias f4 [4]
-0.006141508 -0.013911239 -0.0074990466 -0.01451372
00000000: b43e c9bb f7eb 63bc 90ba f5bb f4ca 6dbc
