RL-implementaions/lunarlander_ppo/actor_model.pth (torch, 279280 bytes, 6 tensors)

network.0.weight f4 [256, 8]
0	0xbe87066a	-0.2637208
1	0x3efa0103	0.48828897
2	0xbe1c4dad	-0.15264006
3	0x3f54f7e4	0.8319075
4	0x3fe8b0c6	1.8178947
5	0x3f3390a1	0.7014256
6	0xbe7111d8	-0.23541963
7	0xbacaf3fa	-0.0015484088
8	0xbdfc1f7e	-0.12310694
9	0xbe069b3c	-0.13145155
10	0xbd832bca	-0.064048365
11	0x3f15d3e3	0.5852644
12	0xbe8da5e2	-0.2766562
13	0xbd6c862c	-0.057745144
14	0xbea7cda9	-0.32774094
15	0x3e0a8d7e	0.13530537
16	0x3df98d4d	0.12185154
17	0x3e1b5258	0.1516813
18	0xbd4feff0	-0.05076593
19	0xbe0e238b	-0.13880746
20	0xbe4d5bec	-0.20054597
21	0x3e8fc8b7	0.2808282
22	0xbe8b89ad	-0.27253476
23	0xbe4e86ea	-0.20168653
24	0x3e26107e	0.16217229
25	0x3e23bbb2	0.15989569
26	0xbdd6bcde	-0.10485242
27	0xbc8104b5	-0.015749315
28	0xbbbee56e	-0.00582569
29	0x3c6b84cb	0.014374922
30	0x3d362e01	0.044477466
31	0xbe315e7a	-0.17321196
32	0x3e5bdaeb	0.2147023
33	0xbd6262b7	-0.055269923
34	0x3da6fe72	0.08154
35	0xbd5f6d24	-0.054547444
36	0x3e8759c9	0.26435688
37	0x3d49a462	0.049229033
38	0xbcc4993a	-0.023998845
39	0x3d863736	0.065534994
40	0xbf28ef42	-0.6599008
41	0xbf67e501	-0.9058381
42	0xbfb392cf	-1.4029177
43	0x401a977f	2.4154966
44	0xbeae3601	-0.34025577
45	0x3f1b97ce	0.6077851
46	0x3dafd4f9	0.08585543
47	0x3ef5b791	0.47991613
48	0xbea2e1f8	-0.31813025
49	0x3ee2b7ec	0.44280946
50	0xc017a1ed	-2.3692582
51	0x3da39f4f	0.0798937
52	0x40055e5d	2.0838845
53	0x4034b64f	2.8236272
54	0x3d8bc1c4	0.06824067
55	0xbc48bc33	-0.012251901
56	0x3f44b643	0.7684061
57	0xbf91d020	-1.139164
58	0x3fb92dd3	1.446711
59	0xbec084fa	-0.37601453
60	0xbeb4d9cd	-0.3532242
61	0xbffc7826	-1.9724166
62	0xbe948322	-0.29006296
63	0xbe1dbe44	-0.15404612
64	0x3e13ccef	0.14433645
65	0xbf2795ca	-0.65462935
66	0xbdf4eb37	-0.11958926
67	0xbf82c99c	-1.0217776
68	0xbf2bca33	-0.67105407
69	0xbc90d3cc	-0.017679118
70	0x3e55f10f	0.20892738
71	0xbe4ef5f4	-0.20211011
72	0x3ec5d9ad	0.38642636
73	0xbd671c78	-0.056423634
74	0x402a8e68	2.6649418
75	0x3f00b2fa	0.50273097
76	0xbf069919	-0.5257736
77	0xbf7838a3	-0.9696142
78	0x3e0cb38d	0.13740368
79	0x3e265e83	0.16246991
80	0x3d8cf4fd	0.06882665
81	0x3b437038	0.0029821526
82	0xbef7bca4	-0.4838611
83	0xbf4077bf	-0.7518272
84	0xbf910dc1	-1.1332322
85	0xbf337655	-0.70102435
86	0x3e8ebf18	0.27880168
87	0x3efde117	0.49585792
88	0x3ee4bda2	0.44675928
89	0xbf00c054	-0.5029347
90	0x3c191aa7	0.009344733
91	0xbe6fe03b	-0.23425381
92	0xbb590573	-0.003311482
93	0x3ee57316	0.44814366
94	0xbed0a6c7	-0.4075224
95	0xbd9cd6c0	-0.07658148
96	0x3ea07c2a	0.3134473
97	0xbeedc35e	-0.46438116
98	0x3e18c101	0.14917375
99	0x3e617756	0.2201818
100	0x3e980923	0.2969447
101	0xbe35a062	-0.17736962
102	0x3d62f1c7	0.055406358
103	0xbe1e2f47	-0.15447722
104	0x3f67e5c1	0.9058495
105	0xbf5fd5c7	-0.87435573
106	0x3c5062ef	0.0127189
107	0xbe4d1d14	-0.20030624
108	0x3ea94e5d	0.330676
109	0xbe25455a	-0.16139737
110	0xbea93473	-0.33047828
111	0x3f040c09	0.51580864
112	0xbf071e5b	-0.52780694
113	0x3d8aa361	0.06769443
114	0xbe90de57	-0.28294632
115	0x3ed51a90	0.41621828
116	0xbcd846f5	-0.026401022
117	0xbda21cad	-0.07915626
118	0xbe0599e3	-0.13046984
119	0x3e8c7743	0.2743474
120	0x3e17507c	0.14776796
121	0xbdc557ba	-0.09635873
122	0x3d36debe	0.044646017
123	0x3e9873b4	0.29775774
124	0x3e1a3f3f	0.15063189
125	0xbe90cc84	-0.28281033
126	0xbeab9aca	-0.33516532
127	0xbeac796a	-0.33686382
128	0x3e613afc	0.21995157
129	0xbf1d3c91	-0.6142054
130	0x3f405fff	0.7514648
131	0xbfd1b3bb	-1.6382974
132	0xbf2a339f	-0.6648502
133	0xbfa27a15	-1.2693506
134	0x3eabc6b3	0.33550033
135	0xbe932f2b	-0.28746924
136	0x3f2c9dfe	0.67428577
137	0xbe1a28dd	-0.1505465
138	0x3fe0ae95	1.7553278
139	0xbfb41478	-1.4068747
140	0xc00f498c	-2.238864
141	0xc01b5ad3	-2.4274185
142	0x3e64c245	0.22339733
143	0x3ca55259	0.020180868
144	0x3f018b8c	0.50603557
145	0xbe936dd7	-0.2879474
146	0xbeb04215	-0.34425417
147	0xbfc0d5cb	-1.5065244
148	0xbf6a95df	-0.91634935
149	0xbf135b15	-0.57560855
150	0xbec0c28d	-0.3764843
151	0x3cf0e7d2	0.029407416
152	0xbe801898	-0.25018764
153	0x3f581f6c	0.84422946
154	0xbfca76d7	-1.5817517
155	0x3f685249	0.9075056
156	0x3f24f37e	0.6443404
157	0x3fb209a5	1.3909193
158	0x3e817876	0.25287217
159	0x3e4397ae	0.1910083
160	0x3efa6d00	0.48911285
161	0xbeea4955	-0.45759073
162	0xbf353034	-0.7077668
163	0xbe2ddced	-0.16978808
164	0xbeaca177	-0.33716938
165	0xbf462fc8	-0.7741666
166	0x3dcce0ff	0.10003852
167	0xbdf00dff	-0.117214195
168	0x3d1b70d8	0.037949413
169	0xbec29469	-0.38003853
170	0x3f2f628e	0.6850976
171	0x3fc1e760	1.5148735
172	0x3d1e4537	0.038640227
173	0xbd6f24f9	-0.05838487
174	0xbf135998	-0.57558584
175	0xbe503b29	-0.20335068
176	0x3e53e98c	0.2069456
177	0x3dcb0aa8	0.09914142
178	0xbfa9d64c	-1.3268523
179	0x400381bb	2.0547931
180	0x3f5ed8ab	0.8704936
181	0x3ef7f64d	0.484301
182	0xbde47579	-0.11155219
183	0xbec77135	-0.38953558
184	0xbecc2aeb	-0.39876494
185	0xbef2beb7	-0.4741113
186	0xbe0002bc	-0.12501043
187	0xbfbb6a80	-1.4641876
188	0xbf29b938	-0.66298246
189	0xbe28d0b4	-0.16485864
190	0x3d8d766a	0.06907351
191	0xbe67a191	-0.22620226
192	0x3ab429b9	0.0013745344
193	0xbfa27e9c	-1.2694888
194	0x3ebba231	0.3664718
195	0x3f4e6d4f	0.8063554
196	0x3c162706	0.009164577
197	0xbec4d5d0	-0.38444376
198	0xbf12e7e9	-0.57385117
199	0x3ea41610	0.32048082
200	0x3e1bf510	0.15230203
201	0x3c3fa0de	0.011696069
202	0xc0366a4c	-2.8502378
203	0x3ddcb900	0.107774734
204	0xbed51bb8	-0.4162271
205	0x3fd17a30	1.6365414
206	0x3ea5e66d	0.32402363
207	0xbd90f7a6	-0.07078485
208	0x3ed3fc6a	0.41403514
209	0xbf34b61b	-0.7059037
210	0xbf2d2943	-0.67641085
211	0xbfcc7a69	-1.5974857
212	0x3f16637c	0.5874555
213	0x3e8955d5	0.26823297
214	0xbcdf1e06	-0.027235996
215	0xbf03719f	-0.5134525
216	0xbb9cccb1	-0.0047851433
217	0x3f4c4365	0.79790336
218	0x4014480f	2.316898
219	0x3fc6bd9d	1.5526615
220	0xbf813421	-1.0094033
221	0xbf76cbe1	-0.96404845
222	0x3eaac610	0.33354235
223	0xbe0868ab	-0.13321178
224	0xbf439ac1	-0.7640801
225	0xbed6cb90	-0.4195218
226	0xbf69e302	-0.9136201
227	0x3e8295a3	0.2550479
228	0xbd90d7be	-0.070723996
229	0x3f7092fe	0.9397429
230	0xbeb01b5a	-0.34395868
231	0x3f0e1b9f	0.55510896
232	0x3a476067	0.00076056126
233	0x3ef49b5f	0.4777479
234	0xc02337a1	-2.5502703
235	0x3fe8e94a	1.8196194
236	0x3faf5a3d	1.3699414
237	0x400d867e	2.2113338
238	0x3a73bb6b	0.0009297642
239	0x3e845d49	0.2585242
240	0xbd523b8c	-0.05132632
241	0xbe7fd5a1	-0.24983837
242	0xbd1206ad	-0.035650898
243	0x3dbce1bb	0.09222742
244	0xbeb3976a	-0.35076457
245	0xbd0ca83f	-0.03434014
246	0xbe379796	-0.17928919
247	0xbe1d39eb	-0.15354125
248	0xbf48a3f2	-0.7837516
249	0x3f35e8b4	0.710582
250	0xc0070f0b	-2.1102931
251	0x3f5cfc0c	0.86322093
252	0x3fcd4b24	1.6038556
253	0x3ffa73b0	1.9566555
254	0x3ea40064	0.32031548
255	0x3ea6ca3d	0.3257617

network.0.bias f4 [256]
0	0x3e90a639	0.28251818
1	0xbe9f65ae	-0.31132263
2	0xbeda4722	-0.42632395
3	0xbedec7f1	-0.43511918
4	0xbec6656a	-0.38749248
5	0x3ea4665a	0.32109338
6	0x3dd67910	0.104723096
7	0x3e87122c	0.26381052
8	0x3d9c47f4	0.076309115
9	0xbe2411cb	-0.16022412
10	0xbe6653a8	-0.2249285
11	0xbdf7eccc	-0.12105712
12	0xbedbd646	-0.42936915
13	0xbe031ed5	-0.1280473
14	0xbec60f64	-0.38683617
15	0xbec650b0	-0.38733435
16	0xbdf726a8	-0.1206792
17	0x3ba4896d	0.0050212652
18	0xbd5a1d89	-0.053250823
19	0x3dad7a76	0.08470623
20	0x3c39ed90	0.011348143
21	0xbe7b519a	-0.24542847
22	0xbdbb58af	-0.091477744
23	0xbe467e2d	-0.1938407
24	0xbe364d87	-0.17803012
25	0xbeba6ad1	-0.3640962
26	0x3c483526	0.012219703
27	0x3edac83c	0.42730892
28	0xbebf7a55	-0.3739802
29	0xbdb1f4c6	-0.08689265
30	0xbe502358	-0.20325983
31	0x3e042179	0.12903394
32	0x3cdcefa8	0.026969746
33	0xbe45b10b	-0.19305818
34	0xbe9e584d	-0.30926743
35	0x3e749e78	0.23888576
36	0x3e9b74f6	0.30362672
37	0xbe680907	-0.22659694
38	0x3d8ff89c	0.0702984
39	0xbf00e206	-0.50344884
40	0xbd7eab75	-0.062175233
41	0xbeed58f7	-0.46356937
42	0xbe25c7e7	-0.16189538
43	0x3d10d0fd	0.035355557
44	0xbee7b8d0	-0.45258188
45	0x3d6f6907	0.05844977
46	0xbe0f3da9	-0.13988365
47	0xbed5d110	-0.41761065
48	0xbeb5f496	-0.35538167
49	0x3e5061b5	0.20349772
50	0x3e788326	0.24268779
51	0xbf022579	-0.5083843
52	0xbf1ae724	-0.6050894
53	0xbc048b84	-0.008089904
54	0xbea2a853	-0.31769046
55	0x3ec1d6b3	0.37859115
56	0xbead29ad	-0.3382086
57	0xbecfd2b0	-0.4059043
58	0x3e8606ad	0.26176968
59	0xbf49eae3	-0.78874034
60	0xbd8a5c65	-0.06755904
61	0xbeff2f36	-0.49840707
62	0xbec50695	-0.38481584
63	0xbe483843	-0.19552712
64	0xbd092a68	-0.033487707
65	0xbf0351f6	-0.5129694
66	0xbeb16681	-0.34648517
67	0xbf13eec9	-0.5778623
68	0xbedbca99	-0.42928007
69	0xbda37471	-0.07981194
70	0xbd6ebb56	-0.058284126
71	0x3e073c58	0.13206613
72	0xbde4228a	-0.111394
73	0xbf0fc3af	-0.56157964
74	0xbefedbed	-0.49777165
75	0x3e762b61	0.24039985
76	0xbeb1344e	-0.34610218
77	0xbec2c11e	-0.38037962
78	0xbe6c4acf	-0.23075412
79	0xbe96e549	-0.29471806
80	0xbe13eef2	-0.14446619
81	0x3ec7dacb	0.39034113
82	0xbeb24531	-0.34818414
83	0x3ec38bcf	0.38192603
84	0x3e79c3ca	0.24391094
85	0xbef0a15c	-0.46998107
86	0xbe016427	-0.12635861
87	0xbee6c340	-0.4507084
88	0xbea9666b	-0.3308595
89	0x3e420364	0.18946606
90	0x3e11977a	0.1421794
91	0xbe2f12a7	-0.17096959
92	0xbdd2f22a	-0.103000954
93	0x3cff0268	0.031129077
94	0xbe3d7290	-0.18500733
95	0xbe9ad4b9	-0.3024042
96	0x3df9b6e5	0.121930875
97	0xbec57fa0	-0.38573933
98	0xbeaaaf01	-0.33336642
99	0xbea3c557	-0.31986496
100	0x3deacdd7	0.11465042
101	0x3d8eccb2	0.06972636
102	0xbef876b3	-0.4852806
103	0xbea80fbd	-0.32824507
104	0xbe4d1715	-0.20028336
105	0x3e4f6d26	0.2025648
106	0xbeb58c0f	-0.3545842
107	0xbedadb73	-0.4274555
108	0xbee419a4	-0.44550812
109	0xbd9d00e2	-0.07666184
110	0x3ebd3d81	0.36960986
111	0xbefd8b87	-0.49520513
112	0xbef95ac2	-0.48702055
113	0xbcb0f233	-0.021599865
114	0x3d0dd9f2	0.034631677
115	0xbeee2e30	-0.46519613
116	0xbeef8718	-0.46782756
117	0xbf1bc4f1	-0.60847384
118	0x3dddd779	0.10832114
119	0xbf321b11	-0.6957255
120	0xbf098033	-0.5371124
121	0xbeb78c40	-0.3584919
122	0xbe37f373	-0.17963962
123	0xbeec80c6	-0.46191996
124	0x3e7744a8	0.24147284
125	0xbd446d6b	-0.04795591
126	0xba09a85f	-0.00052512245
127	0xbc206ffd	-0.009792325
128	0x3e82205a	0.25415307
129	0xbd9b3c86	-0.07579903
130	0xbcafce42	-0.021460656
131	0x3d39bacd	0.045344163
132	0xbc9e85ac	-0.01935085
133	0xbde6b4d1	-0.11264957
134	0x3e0750c7	0.13214408
135	0xbeaf15fc	-0.3419646
136	0x3de00d45	0.10940031
137	0x3ee54746	0.4478094
138	0xbe483062	-0.19549707
139	0x3c5a2211	0.013313786
140	0xbe9f891b	-0.3115929
141	0xbf2c10f8	-0.6721339
142	0xbe4f9fcd	-0.20275803
143	0xbedcefc3	-0.43151674
144	0x3e0cda14	0.13755065
145	0xbee37e67	-0.44432375
146	0xbf2e759c	-0.6814821
147	0xbe77c5f8	-0.24196613
148	0xbf1c5c2d	-0.6107815
149	0xbe0bb893	-0.13644628
150	0xbeb0ab51	-0.34505704
151	0xbedd0790	-0.43169832
152	0xbe8c760f	-0.27433822
153	0xbe84ce89	-0.25938824
154	0x3df15c53	0.117851876
155	0x3ea02166	0.3127548
156	0xbe9d1353	-0.30678806
157	0xbd01e778	-0.031714886
158	0xbb3bf583	-0.0028680272
159	0xbeb1ab1e	-0.34700865
160	0xbf16747e	-0.587715
161	0x3d6de0ad	0.058075596
162	0xbd71d91a	-0.059044935
163	0xbd02ac0c	-0.031902358
164	0xbe58c604	-0.21169287
165	0xbe8b7157	-0.2723491
166	0xbed0fbec	-0.408172
167	0xbee77e77	-0.45213673
168	0x3ebd0295	0.36916032
169	0x3dfeff99	0.12451095
170	0xbf04e8af	-0.51917547
171	0x3cb2195f	0.021740614
172	0xbe80fb71	-0.25191835
173	0xbec1df11	-0.378655
174	0x3e5c59bc	0.21518606
175	0xbeca797d	-0.39545813
176	0x3eaebc4a	0.34128028
177	0x3d943dc8	0.07238346
178	0xbeac4342	-0.33645064
179	0xbe353e15	-0.17699464
180	0xbe82f126	-0.25574607
181	0xbe8df009	-0.27722195
182	0xbdfc8232	-0.1232952
183	0xbdec1c9f	-0.115288965
184	0xbe906884	-0.2820474
185	0xbf38262b	-0.7193324
186	0xbe91861e	-0.28422636
187	0xbdd48912	-0.103777066
188	0xbf1c06e5	-0.6094802
189	0xbed3b732	-0.41350704
190	0xbddc757b	-0.10764595
191	0xbf0c058e	-0.54695976
192	0xbee0c004	-0.43896496
193	0xbe6626f0	-0.22475791
194	0xbecaa647	-0.39579985
195	0xbcdc0a03	-0.026860243
196	0xbd92e9e1	-0.07173515
197	0xbea419ba	-0.32050878
198	0x3df77dbe	0.1208453
199	0xbeacf9c0	-0.33784294
200	0xbed225b9	-0.41044405
201	0x3caad1bd	0.020851964
202	0xbcd1212c	-0.025528513
203	0xbee3dd57	-0.44504806
204	0xbf1226d5	-0.570905
205	0xbe7e1e03	-0.24816136
206	0xbec88cd5	-0.39169946
207	0x3e5ae3a4	0.213759
208	0xbf03eeb7	-0.51536125
209	0xbecf0a75	-0.40437666
210	0x3ec9ee12	0.39439446
211	0xbed3d7cf	-0.41375586
212	0x3e13a733	0.1441925
213	0x3eeceb7f	0.4627342
214	0xbd93c27d	-0.0721483
215	0xbe82940a	-0.2550357
216	0x3e00ad82	0.12566188
217	0xbea1997f	-0.3156242
218	0xbe9e0773	-0.30865058
219	0xbf0bf358	-0.5466819
220	0x3d02dd2b	0.031949203
221	0x3e90aed2	0.28258377
222	0xbf05b1ef	-0.5222463
223	0xbedbd1e4	-0.4293357
224	0xbe8487ff	-0.25885007
225	0xbeb31ea0	-0.34984303
226	0xbef9fb0f	-0.48824355
227	0xbdf18003	-0.117919944
228	0xbe25ad3b	-0.16179363
229	0xbe1b3a0e	-0.15158865
230	0xbf1f0563	-0.62117594
231	0x3bd34537	0.00644746
232	0xbe70cd5e	-0.23515841
233	0xbe8d5c92	-0.27609688
234	0xbe14f0d4	-0.14544994
235	0xbead2027	-0.33813593
236	0xbd2dff77	-0.04247996
237	0x3e24cb71	0.16093232
238	0xbed493a4	-0.4151889
239	0xbcd7e561	-0.026354494
240	0xbec26a06	-0.37971514
241	0xbe3412e0	-0.17585325
242	0x3dda0c11	0.10646833
243	0xbea011e5	-0.31263652
244	0x3bfc9840	0.0077085793
245	0xbee85632	-0.45378262
246	0xbe622b0a	-0.2208673
247	0xbee9627e	-0.45582956
248	0xbe9ac463	-0.30227956
249	0xbe5c647f	-0.21522711
250	0xbf111740	-0.566761
251	0xbdd0b1ef	-0.10190188
252	0xbea4e9f1	-0.32209733
253	0xbf02623e	-0.50931156
254	0x3c2a5fe0	0.010398835
255	0xbe7d2f32	-0.24725035

network.2.weight f4 [256, 256]
0	0xbd25c1e1	-0.0404681
1	0xbe134f8f	-0.14385818
2	0xbe6e0cc9	-0.23247065
3	0x3df73e6a	0.120724514
4	0xbdcde2d2	-0.10053028
5	0xbf059982	-0.5218736
6	0xbf1dda77	-0.61661476
7	0x3ed23546	0.4105627
8	0xbda6f124	-0.08151463
9	0x3e9cf3cc	0.30654752
10	0xbd13eb7a	-0.03611324
11	0x3e091405	0.13386543
12	0xbe052faf	-0.13006471
13	0xbe76240d	-0.2403719
14	0x3d86c2e2	0.0658014
15	0x3d355e2f	0.044279274
16	0x3d9b3cba	0.07579942
17	0x3f38405d	0.7197321
18	0x3e73ecdb	0.23820822
19	0x3b45585c	0.003011248
20	0x3ed06d25	0.4070827
21	0x3e1f9843	0.15585427
22	0x3f10b7b3	0.565303
23	0x3e39241c	0.18080181
24	0xbebed98a	-0.37275344
25	0xbf0d91a5	-0.5530036
26	0xbf01d101	-0.5070954
27	0x3f413ef9	0.75486714
28	0xbe99a8eb	-0.30011687
29	0xbeaaaa4e	-0.33333057
30	0x3dd80805	0.105484046
31	0xbec74627	-0.3892071
32	0xbeda6fd7	-0.42663452
33	0x3f0f5f49	0.5600477
34	0xbe719132	-0.23590544
35	0xbe1ecafa	-0.15507117
36	0x3e8c824a	0.27443153
37	0x3de08b87	0.10964113
38	0xbf0874db	-0.5330331
39	0x3f05b059	0.5222221
40	0x3ec09e9d	0.37621012
41	0x3dafeb0a	0.08589752
42	0x3ebc479b	0.3677338
43	0xbf654539	-0.8955875
44	0x3d2d9818	0.042381376
45	0x3e84ace0	0.25913143
46	0xbe9d1328	-0.30678678
47	0xbe42c2a2	-0.19019559
48	0x3ca57f6b	0.02020236
49	0xbeb900b0	-0.36133337
50	0xbf68aef4	-0.9089196
51	0x3e6534d2	0.2238343
52	0x3d9d0e26	0.07668714
53	0xbddf7c8b	-0.109124266
54	0x3ed13bb7	0.4086587
55	0x3f4fbd2c	0.8114803
56	0xbe29b5c6	-0.16573247
57	0xbe51b811	-0.20480372
58	0xbefe827c	-0.49708927
59	0x3da9cfde	0.08291601
60	0x3f08a8f5	0.5338281
61	0xbe84ce51	-0.25938657
62	0xbdc9b655	-0.0984923
63	0x3ef078ab	0.46967062
64	0xbf1dbf11	-0.6161967
65	0xbdb3a2bd	-0.08771274
66	0xbf3e9708	-0.74449205
67	0xbe78325c	-0.2423796
68	0x3d858da2	0.06521155
69	0xbe3e61f0	-0.18592048
70	0xbe2d7785	-0.16940124
71	0x3f3ac4a8	0.72956324
72	0x3e6ec6b5	0.23317988
73	0x3da57165	0.08078269
74	0xbee81816	-0.45330876
75	0xbf9d220b	-1.2276014
76	0xbdd37b99	-0.10326309
77	0xbeb8cc1e	-0.3609323
78	0xbe8ee420	-0.2790842
79	0xbea86e48	-0.32896638
80	0x3d003f64	0.031310454
81	0xbe302d13	-0.17204694
82	0x3e6616ec	0.22469682
83	0x3e384b27	0.17997418
84	0x3fc0637a	1.5030358
85	0xbcaa2b03	-0.020772463
86	0xbd09a9ff	-0.033609387
87	0xbe6f6dd8	-0.23381746
88	0xbe012040	-0.12609959
89	0xbf41bed0	-0.7568178
90	0x3e7cbf5d	0.24682374
91	0xbe2803ae	-0.16407654
92	0x3eb37bb4	0.35055315
93	0x3e4a9886	0.19784746
94	0xbd09c156	-0.033631645
95	0xbda5b9ab	-0.08092054
96	0xbe43be93	-0.19115667
97	0xbe8da162	-0.27662188
98	0x3ce1fcfa	0.027586449
99	0x3d7f8735	0.062384803
100	0x3ec62dea	0.38706905
101	0xbf807797	-1.0036496
102	0x3d987687	0.07444482
103	0x3da2f253	0.07956376
104	0xbd0ce5ca	-0.03439883
105	0x3f73260b	0.94979924
106	0xbe452047	-0.19250594
107	0x3f2ecf69	0.6828523
108	0x3dc19867	0.094528966
109	0x3ec4b259	0.38417318
110	0x3f7da689	0.9908224
111	0x3da51cdf	0.08062147
112	0x3e98d502	0.29850012
113	0xbe0328f7	-0.12808596
114	0x3e6037d2	0.21896294
115	0xbd3b9c97	-0.045803633
116	0x3c5610e2	0.013065549
117	0xbe9882f0	-0.29787397
118	0xbf2e5d8c	-0.6811149
119	0x3e0ae2e1	0.1356311
120	0x3e15ee25	0.14641626
121	0x3e02bdb1	0.12767674
122	0xbf1937db	-0.59850854
123	0xbe1a2276	-0.15052208
124	0x3f0f37a5	0.5594428
125	0x3d52aa37	0.05143186
126	0x3f2d8e4b	0.67795247
127	0xbf7171e4	-0.9431441
128	0x3f3a35b0	0.7273817
129	0x3f0d92a5	0.55301887
130	0xbec0cc91	-0.37656072
131	0xbe8c2348	-0.27370667
132	0xbe1fa4a6	-0.15590152
133	0x3e0f8555	0.14015706
134	0xbe93c230	-0.2885909
135	0xbe4b5e58	-0.19860208
136	0xbf3a9a96	-0.7289213
137	0x3e9553c1	0.29165462
138	0xbdfb48ac	-0.122697204
139	0x3e52daf2	0.20591334
140	0x3ca30dd8	0.019904062
141	0xbe11cdef	-0.14238714
142	0x3d2d3756	0.0422891
143	0x3dffdd89	0.12493426
144	0x3f81793d	1.0115124
145	0x3e8da4c4	0.2766477
146	0x3e0899fe	0.13339993
147	0xbed933dd	-0.4242238
148	0xbeff9c71	-0.49924043
149	0xbed4725a	-0.41493493
150	0xbedfb0a7	-0.43689463
151	0xbb04c182	-0.0020256941
152	0x3d83d163	0.06436422
153	0xbed765b2	-0.42069775
154	0x3d2dc742	0.042426355
155	0x3ef5a841	0.4797993
156	0x3d027b24	0.031855717
157	0x3df90ac2	0.12160255
158	0xbdcc9f35	-0.09991304
159	0x3e0d4653	0.13796358
160	0xbdc7b249	-0.09750802
161	0x3dffee3c	0.124966115
162	0x3e41bcc6	0.18919668
163	0x3ed07455	0.40713754
164	0xbe7352de	-0.2376208
165	0xbf282ed1	-0.65696436
166	0x3c80c614	0.015719451
167	0x3f0b5bf8	0.5443721
168	0x3e803a7a	0.25044614
169	0xbf7834c0	-0.9695549
170	0x3e6e62f8	0.23279941
171	0x3ece0bca	0.4024337
172	0xbd82661c	-0.06367132
173	0x3d18fb45	0.037349004
174	0xbeb51353	-0.35366306
175	0xbd172d10	-0.03690821
176	0xbe639305	-0.22224052
177	0x3f4abf3c	0.7919805
178	0xbcbc84ac	-0.023012482
179	0x3e9e0ef5	0.30870786
180	0xbd2bcb5b	-0.04194198
181	0xbe9162ce	-0.28395694
182	0x3e4cce52	0.2000058
183	0x3eb84560	0.3599043
184	0xba456c42	-0.0007531085
185	0x3e0d5ff2	0.13806131
186	0xbdd5359b	-0.10410615
187	0x3daddb44	0.08489087
188	0x3e3fcc1a	0.18730202
189	0x3db97449	0.09055383
190	0x3ea0a918	0.31379008
191	0x3eeba965	0.46027675
192	0xbe13ac52	-0.14421204
193	0x3e3defaf	0.18548463
194	0xbdbb94fa	-0.091592744
195	0xbd0de6f2	-0.034644075
196	0x3eeabb36	0.45845956
197	0xbe864cf8	-0.26230597
198	0x3e762e53	0.24041109
199	0x3e865232	0.26234585
200	0xbd204353	-0.039126705
201	0x3e8db5ff	0.27677915
202	0xbe3af160	-0.1825614
203	0x3d7f1a1b	0.062280755
204	0x3e50b277	0.20380579
205	0x3c3692b5	0.011143376
206	0xbddc1233	-0.10745659
207	0xbe18196e	-0.1485345
208	0xbd81d5a8	-0.0633958
209	0x3cad5d47	0.021162642
210	0x3f82a248	1.0205774
211	0xbecba2f9	-0.39772776
212	0xbdff0364	-0.124518186
213	0xbf1405b9	-0.5782123
214	0x3f587bf8	0.8456416
215	0x3cf92f0e	0.030417945
216	0x3f0c5ab5	0.5482591
217	0x3e146e32	0.14495161
218	0xbe2df8c2	-0.16989425
219	0xbebb2403	-0.36550912
220	0x3eab5974	0.33466685
221	0xbf759249	-0.9592634
222	0x3b921cb2	0.004458987
223	0x3ea8158a	0.32828933
224	0x3d6fd44c	0.05855207
225	0xbeb590b4	-0.35461962
226	0xbe3621a4	-0.1778627
227	0x3ec67ea3	0.3876849
228	0xbeb8e96d	-0.3611559
229	0x3d731c07	0.0593529
230	0xbdd614ff	-0.104532234
231	0xbec169ec	-0.37776124
232	0x3b0af639	0.002120389
233	0xbd41bbca	-0.04729823
234	0x3ec37a0e	0.38179058
235	0xbd212762	-0.0393442
236	0xbea48649	-0.321337
237	0x3e8a285e	0.26983923
238	0x3e356c9f	0.17717217
239	0xbe99596d	-0.2995104
240	0xbd33c238	-0.043886393
241	0xbe3fff42	-0.18749717
242	0x3e3b7df6	0.18309769
243	0x3eb30461	0.34964278
244	0xbf1c0036	-0.6093782
245	0x3cdcd03a	0.026954759
246	0xbf139413	-0.5764782
247	0x3ef605c7	0.48051283
248	0x3e869790	0.26287508
249	0xbf650612	-0.8946239
250	0xbf00f8fd	-0.50379926
251	0x3da7187e	0.081589684
252	0x3e86f92a	0.26361972
253	0xbeac01e8	-0.33595204
254	0x3ef65245	0.48109642
255	0xbd22a41c	-0.03970729

network.2.bias f4 [256]
0	0x3e4d0c19	0.20024146
1	0xbda5566e	-0.08073126
2	0xbd621250	-0.055193245
3	0xbda0390f	-0.07823383
4	0xbd25e44a	-0.040500917
5	0xbdbbbc6c	-0.09166798
6	0xbbec56c8	-0.0072124936
7	0xbd316b3c	-0.043315157
8	0xbc72816d	-0.014801365
9	0xbe1dfee8	-0.1542927
10	0x3d0634a9	0.032765064
11	0xbe5fe62b	-0.21865146
12	0xbd88a9c4	-0.06673005
13	0xbc917afa	-0.017758835
14	0xbdb20b4a	-0.086935595
15	0xbd905c44	-0.07048848
16	0xbda31c32	-0.07964362
17	0xbd927e61	-0.07153011
18	0xbd4e5229	-0.050371323
19	0xbc64ac48	-0.013957091
20	0x3bf8e5a5	0.007595735
21	0xbda8708c	-0.082245916
22	0x3bce7b85	0.006301346
23	0x3d723cc1	0.05913997
24	0x3b2cea3c	0.0026384732
25	0xbd99e181	-0.075137146
26	0xbdb60237	-0.08887141
27	0xbc73c3a9	-0.014878192
28	0xbdaebc52	-0.08532013
29	0xbd211533	-0.039326858
30	0xbd75c78d	-0.06000476
31	0x3b4d5e9a	0.0031336905
32	0x3cea7011	0.02861789
33	0xbd827694	-0.06370273
34	0xbd6af448	-0.05736187
35	0xbd4830fa	-0.048874833
36	0xbd969cd3	-0.073541306
37	0xbd70be11	-0.05877501
38	0xbd144111	-0.036194865
39	0xbe1b001c	-0.1513676
40	0xbd8544e5	-0.06507281
41	0x3e4a4e7c	0.19756502
42	0xbd52bf69	-0.051452074
43	0xbd89b7bf	-0.067245
44	0x3f3d736b	0.7400424
45	0xbdb5da11	-0.088794835
46	0xbcfb9d4b	-0.030714652
47	0xbd0be9b3	-0.03415842
48	0x3b137a7b	0.0022503424
49	0xbb57aa6b	-0.0032907974
50	0xbd2b59ea	-0.041833796
51	0x3eb62e09	0.35581997
52	0xbcb352aa	-0.021890003
53	0xbd94819c	-0.072512835
54	0xbbe8e013	-0.00710679
55	0xbda4e6ac	-0.0805181
56	0xbcce9a27	-0.02521999
57	0xbd9b075d	-0.07569764
58	0xbc81c13c	-0.015839212
59	0xbdaba522	-0.08381106
60	0xbe5da128	-0.21643507
61	0x3e8b19b1	0.27168038
62	0xbd9c35a1	-0.076274164
63	0x3c279de1	0.010230512
64	0xbd8bc8cc	-0.06825408
65	0xbd096822	-0.033546574
66	0xbbe946cf	-0.0071190367
67	0xbd870e6b	-0.06594547
68	0xbcc722c3	-0.024308568
69	0x3c28967a	0.010289783
70	0xbdeab1f6	-0.114597246
71	0xbd439970	-0.04775375
72	0xbdb5febb	-0.088864766
73	0xbd6e7ac3	-0.058222543
74	0xbcf437ea	-0.029811818
75	0xbd91973f	-0.07108926
76	0xbe1e3243	-0.15448861
77	0xbd23d23b	-0.039995413
78	0xbb89cd46	-0.0042053787
79	0xbc6d2356	-0.014473757
80	0xbc13e6b9	-0.009027177
81	0xbd906c3a	-0.070518926
82	0xbd01e8b2	-0.031716056
83	0xbdae67e2	-0.08515908
84	0x3c6cbdd5	0.014449556
85	0xbcf12957	-0.029438658
86	0xbd3112db	-0.043230873
87	0xbd3387d4	-0.043830708
88	0xbc5c1963	-0.013433787
89	0xbcc1a8ee	-0.023640122
90	0x3e15cb0e	0.1462824
91	0xbdbbc60d	-0.091686346
92	0xbd0d83c9	-0.03454951
93	0x3ca51bcf	0.020154862
94	0xbd9536bd	-0.07285831
95	0xbd77006d	-0.06030314
96	0xba7653ff	-0.00093966717
97	0xbcb78b17	-0.02240519
98	0xbd4eac83	-0.05045749
99	0x3e45e614	0.19326049
100	0xbd08afa9	-0.033370648
101	0xbc66881c	-0.014070537
102	0xbe1c6cd7	-0.15275894
103	0xbc825ca7	-0.01591332
104	0xbda21d50	-0.07915747
105	0xbe285c60	-0.16441488
106	0x3e2d3535	0.16914828
107	0xbd72b2b4	-0.059252456
108	0xbd6c85e5	-0.05774488
109	0x3d34e003	0.044158947
110	0xbd04c5c6	-0.032415174
111	0xbd6df487	-0.058094528
112	0x3e4a47dc	0.19753975
113	0xbdb213fd	-0.08695219
114	0xbca6b388	-0.020349279
115	0xbd24f0e9	-0.040268812
116	0xbd811a08	-0.06303793
117	0xbccb4dcb	-0.024817368
118	0xbdc1aecf	-0.0945717
119	0xbd206d65	-0.039166827
120	0xbcff2af3	-0.03114841
121	0xbc5ac7ff	-0.013353347
122	0x3e0706ba	0.1318616
123	0xbd9b5c61	-0.07585979
124	0xbcac9855	-0.021068731
125	0xbde34710	-0.110975385
126	0xbd5a680a	-0.053321876
127	0xbd885b38	-0.066580236
128	0xbd7609bb	-0.060067873
129	0xbd41dc85	-0.047329444
130	0xbb53851c	-0.0032275384
131	0xbe91a70c	-0.2844776
132	0xbd82a39f	-0.063788645
133	0xbd6053d6	-0.054767452
134	0xbded73cf	-0.11594354
135	0xbcfaf0b7	-0.03063236
136	0xbe3288ed	-0.17435046
137	0xbb6e5361	-0.0036365616
138	0xbd6cb5e1	-0.05779064
139	0xbe10d1f3	-0.1414259
140	0xbd8f393b	-0.06993338
141	0xbdaf0abe	-0.08546971
142	0xbde4c085	-0.11169533
143	0xbbdd6d53	-0.006757417
144	0xbda2e36d	-0.07953534
145	0xbf01f395	-0.507623
146	0xbd9350aa	-0.0719312
147	0xbd9f7a4f	-0.077870004
148	0xbcbf2723	-0.023334092
149	0x3cc3b3e8	0.023889497
150	0xbd189343	-0.037249815
151	0x3c846c42	0.016164903
152	0xbd82f462	-0.063942686
153	0x3d74b930	0.05974692
154	0xbcea6779	-0.028613793
155	0xbd4082c1	-0.046999697
156	0xbd80d564	-0.06290701
157	0xbdbf0e26	-0.093288705
158	0xbdf8eb14	-0.121542126
159	0x3bd1228e	0.006382293
160	0xbd30074c	-0.04297571
161	0xbd37f433	-0.04491062
162	0xbd062892	-0.032753535
163	0xbdb85e6c	-0.090023845
164	0xbd822144	-0.06354001
165	0xbd703133	-0.05864067
166	0xbe57ec58	-0.21086252
167	0x3d0336d3	0.032034706
168	0xbe5c7f8d	-0.21533032
169	0x3c984a9f	0.01859027
170	0xbcaac49c	-0.020845704
171	0xbeb6f57b	-0.35734162
172	0xbdb52f7e	-0.08846949
173	0xbd99b294	-0.07504764
174	0xbd25b450	-0.040455163
175	0xbd0a9bee	-0.033840112
176	0xbc17237b	-0.009224768
177	0xbda5efdf	-0.081023924
178	0xbc8a86d9	-0.016910003
179	0xbcd26a43	-0.025685435
180	0x3d46b612	0.04851348
181	0xbb8a5622	-0.0042216936
182	0xbda11a0a	-0.07866295
183	0xbd9d33b8	-0.0767588
184	0xbd083bff	-0.03326034
185	0xbdbbaf43	-0.09164288
186	0xbda3a9fe	-0.07991408
187	0xbdc23fb9	-0.094848104
188	0xbe23ca83	-0.15995221
189	0xbf013019	-0.50464016
190	0xbd6e0adc	-0.058115825
191	0xbd6a89b9	-0.05726025
192	0xbdcf23e2	-0.10114266
193	0xbd4da06b	-0.050201815
194	0xbd17b979	-0.037042115
195	0xbc351f35	-0.011054804
196	0xbc3d8a2a	-0.011568585
197	0xbecefbd0	-0.40426493
198	0xbd4e4a35	-0.050363738
199	0x3e906c35	0.28207555
200	0xbdb54b5d	-0.08852265
201	0xbdb0d251	-0.08633865
202	0xbd8179c6	-0.063220546
203	0xbc37cb38	-0.011217885
204	0xbb9eb9c7	-0.0048439237
205	0x3eb2a4bf	0.34891316
206	0xbd48e8f6	-0.049050294
207	0xbea5e9d1	-0.3240495
208	0xbd1f5b78	-0.03890559
209	0x3e70f2c8	0.23530114
210	0x3c8d3eed	0.01724192
211	0xbd3171f7	-0.043321576
212	0xbdae513c	-0.08511588
213	0xbda24e61	-0.07925106
214	0x3e6cb7fb	0.23117058
215	0xbb75cc0f	-0.0037505662
216	0x3bbb413e	0.0057145646
217	0xbdd0e328	-0.101995766
218	0x3e9edaf8	0.31026435
219	0xbe34931c	-0.17634243
220	0xbd4ee035	-0.05050679
221	0xbd48e7a4	-0.049049035
222	0xbcec1b94	-0.028821744
223	0xbcdc3eb5	-0.02688537
224	0x3e1bbeb4	0.15209466
225	0xbdba37e4	-0.090926915
226	0xbd69ad6b	-0.05705015
227	0x3d43a4c2	0.047764547
228	0xbdbde287	-0.09271722
229	0x3b864b36	0.0040983213
230	0x3ea93458	0.33047748
231	0xbda7b9d9	-0.081897445
232	0xbe2aa96d	-0.16666193
233	0xbda9705b	-0.08273383
234	0xbc92fa55	-0.017941633
235	0xbbeb47ab	-0.0071801743
236	0xbccb1ef6	-0.024795037
237	0xbde0b302	-0.10971643
238	0xbd7052b7	-0.058672633
239	0xbd9c1c76	-0.07622616
240	0xbd6afde3	-0.05737103
241	0xbd9f9090	-0.07791245
242	0x3e2d41a2	0.16919568
243	0xbdf5f7a6	-0.12010126
244	0xbd7f8ea3	-0.06239189
245	0x3d367ea6	0.044554375
246	0xbe85dc2e	-0.26144546
247	0xbd8b2435	-0.06794015
248	0xbe557d23	-0.20848517
249	0xbdb91240	-0.09036684
250	0x3bba9523	0.005694048
251	0xbdc44105	-0.09582714
252	0xbd88e206	-0.066837355
253	0xbebfc3d7	-0.374541
254	0x3c8cba89	0.01717879
255	0xbd9bb451	-0.07602752

network.4.weight f4 [4, 256]
0	0x3f0abfc2	0.5419885
1	0x3bbdf3ae	0.005796871
2	0x3ca58795	0.020206252
3	0x3d9d2ce7	0.0767458
4	0xbd287e90	-0.041136324
5	0x3cac9da3	0.02107126
6	0x3cc75991	0.0243347
7	0xbd5a7161	-0.053330783
8	0xbc7126d5	-0.014718731
9	0x3e4a0139	0.19727029
10	0xbca7964d	-0.020457411
11	0xbe8c197d	-0.27363196
12	0xbc3a670f	-0.01137711
13	0x3be93852	0.0071173096
14	0x3be9e799	0.0071382043
15	0xbc89fb08	-0.016843334
16	0xbd3fb94a	-0.046807565
17	0xbc266606	-0.01015616
18	0x3bd7da7c	0.0065873247
19	0xbcb16297	-0.021653457
20	0xbd6b3aba	-0.057429053
21	0xbc49f9b7	-0.012327603
22	0x3cd8fa24	0.026486464
23	0xbca8332a	-0.02053221
24	0xbc7fc19d	-0.015610126
25	0x3d1dc6b6	0.038519584
26	0xbd4fce2e	-0.050733738
27	0xbbaf954c	-0.0053583737
28	0x3e3c84c4	0.18410021
29	0x3c30eee7	0.010799146
30	0x3d22d53c	0.039754137
31	0xbc4b678d	-0.012414825
32	0x3d8136a4	0.0630925
33	0xbd089357	-0.03334364
34	0xbbe103d5	-0.006866912
35	0xbd5de6d2	-0.054175206
36	0xb9f07c0d	-0.00045868792
37	0x3ce3c2f2	0.027802918
38	0xbcb707d1	-0.022342594
39	0x3e4a013f	0.19727038
40	0x3dca9ea9	0.09893543
41	0x3ec753fa	0.38931257
42	0x3d12eef1	0.035872404
43	0xbb89b94d	-0.004202998
44	0x3f7c2bc1	0.98504263
45	0xbcc65ee9	-0.024215179
46	0xbcf5ce59	-0.03000562
47	0x3c9d5dc3	0.019209748
48	0x3cec1090	0.028816491
49	0xbcec973e	-0.028880712
50	0xbc1fd95b	-0.009756411
51	0xbe951ec2	-0.2912503
52	0xbadc0ffb	-0.001678943
53	0x3d96309d	0.07333491
54	0xbdb95df6	-0.09051125
55	0x3d415ecf	0.047209557
56	0x3c5cf672	0.0134864915
57	0xbdae93aa	-0.085242584
58	0xbc8e2f93	-0.01735667
59	0xbb5f2a7c	-0.0034052422
60	0x3e4c2477	0.19935785
61	0x3f6f8d16	0.93574655
62	0x3c5ba680	0.013406396
63	0x3bc3efee	0.0059795296
64	0xbd35b5ec	-0.044362947
65	0xbdb0d911	-0.08635152
66	0x3d6ad4e7	0.057331946
67	0x3e2795f5	0.16365798
68	0x3d187779	0.037223313
69	0x3d1cc500	0.03827381
70	0xbc0e2489	-0.008675703
71	0x3d4c649f	0.049900647
72	0xbc0a254a	-0.008431742
73	0xbd17739b	-0.036975484
74	0xbd76eb37	-0.060282912
75	0xbc6ae403	-0.014336589
76	0xbeb4566e	-0.3522219
77	0x3e11dc51	0.142442
78	0x3e9e7a74	0.309528
79	0xbbb10052	-0.0054016495
80	0x3d3de41f	0.04636013
81	0x3e9597c6	0.29217356
82	0xbc865f9c	-0.016403012
83	0x3bb89f5d	0.005634232
84	0x3d0e876b	0.034797113
85	0xbcfac8c9	-0.03061332
86	0xbbe3bcf6	-0.006950016
87	0xbda8217c	-0.08209512
88	0xbc3b8600	-0.011445522
89	0xbc607ef6	-0.013702145
90	0xbf74c695	-0.9561551
91	0xbda50f48	-0.08059555
92	0x3c8870c3	0.016655331
93	0xbb649050	-0.0034876056
94	0x3cc8c009	0.024505632
95	0x3d083d62	0.033261664
96	0x3ce42e36	0.027854066
97	0x3d99732a	0.07492669
98	0x3c929e18	0.01789765
99	0x3f0253a7	0.50908893
100	0x3ce3805f	0.027771173
101	0x3c90f48e	0.017694738
102	0xbe86731d	-0.262597
103	0x3d2f4dc6	0.04279878
104	0x3cda238e	0.026628282
105	0xbd53e904	-0.051735893
106	0x3f0f51d7	0.5598425
107	0x3b111c72	0.00221422
108	0xbcb1776c	-0.02166339
109	0xbee5cd1a	-0.44883043
110	0x3d66f6b7	0.05638763
111	0xbb233722	-0.0024904688
112	0xbfcafb2b	-1.58579
113	0xbd4a9f9a	-0.049468614
114	0x3cf418fd	0.029797072
115	0xbd0cdc18	-0.034389585
116	0xbd8e7857	-0.06956547
117	0x3c82119f	0.015877543
118	0xbd48f550	-0.049062073
119	0x3ccfa1e2	0.025345746
120	0x3c8df7af	0.017330019
121	0x3d12983e	0.03578972
122	0x3f4ada98	0.792398
123	0xbc1d7885	-0.009611254
124	0x3c7efbd3	0.015562969
125	0x3e33bb65	0.17551954
126	0x3c6d8fe2	0.014499636
127	0xbb27a6a5	-0.0025581506
128	0x3cae80b9	0.021301614
129	0xbbdd6592	-0.006756493
130	0x3cf3d79b	0.029765895
131	0x3f3244bb	0.69636124
132	0xbc1ce7eb	-0.009576778
133	0x3c88fa97	0.016721053
134	0xbd1cb312	-0.038256712
135	0x3d7610c1	0.06007457
136	0xbd2dddda	-0.042447902
137	0x3c82af89	0.015952842
138	0xbb975015	-0.004617701
139	0xbdbeee1d	-0.0932276
140	0x3c656965	0.014002179
141	0x3c1fb3c2	0.009747447
142	0x3d978611	0.07398618
143	0x3c4c450f	0.012467637
144	0xbc168636	-0.009187272
145	0x3e56e4e8	0.20985758
146	0x3c20598c	0.009786975
147	0xbbfba88d	-0.007680005
148	0xbc74792a	-0.014921466
149	0x3d2112e2	0.03932465
150	0x3b1aa06e	0.0023594159
151	0xbd26678f	-0.040626105
152	0x3d093739	0.03349993
153	0x3f1c0ff3	0.60961837
154	0x3b402bc5	0.0029322964
155	0x3ea273d6	0.31729
156	0x3ce2a616	0.027667087
157	0x3f0b7814	0.544801
158	0x3d98eb01	0.074666984
159	0xbd13aef0	-0.036055505
160	0xbd3f54ff	-0.046711918
161	0x3e09d9fe	0.13462064
162	0x3ca885cb	0.02057161
163	0x3c2f5576	0.010701528
164	0xbaeae393	-0.0017920606
165	0xbc4d1d9b	-0.0125192655
166	0xbd11e25d	-0.035616267
167	0xbc5e2e9f	-0.01356092
168	0xbe378cb1	-0.17924763
169	0x3c31ce69	0.010852435
170	0x3c687279	0.014187449
171	0x3cfe15bd	0.031016225
172	0x3cd90bc9	0.026494877
173	0xbdb4159f	-0.087931864
174	0x3c067247	0.008205957
175	0x3d488e6a	0.04896394
176	0xbd0a1562	-0.0337118
177	0x3c30b8cc	0.0107862465
178	0xbc48255a	-0.012215937
179	0x3d1beb6d	0.038066316
180	0xbe305295	-0.17219003
181	0xbcfcf88d	-0.030880237
182	0xbda7ad16	-0.081873104
183	0x3bb31e8f	0.0054662894
184	0xbd8de3dc	-0.06928226
185	0xbd1cb5d0	-0.038259327
186	0x3d336751	0.043799702
187	0x3bfe720e	0.007765061
188	0x3ccacf93	0.024757182
189	0x3ebdc835	0.37066808
190	0x3d672db1	0.05644006
191	0xbbf63a4b	-0.0075142733
192	0x3cd67e76	0.026183348
193	0x3d2864e2	0.041111834
194	0x3adede92	0.0017003587
195	0x3c455981	0.012045265
196	0x3c3c8259	0.011505687
197	0x3e25022e	0.16114113
198	0x3cb1ae53	0.02168957
199	0x3f1efe7e	0.62107074
200	0xbcb3bed2	-0.021941576
201	0xbccfdcc9	-0.025373833
202	0xbda1dc60	-0.07903361
203	0x3c958454	0.018251576
204	0x3c9a0020	0.018798888
205	0x3f331648	0.69955873
206	0x3c016efc	0.007899996
207	0x3f25e1e2	0.64797795
208	0xbd2aa545	-0.04166152
209	0x3f460bd8	0.7736182
210	0xbd37f922	-0.044915326
211	0x3cdf1a0a	0.027234096
212	0xbd36bcb7	-0.044613566
213	0xbd57b2a1	-0.05266059
214	0x3ea165e7	0.31523058
215	0x3d8ed2f1	0.06973828
216	0x3c8e4913	0.017368829
217	0xbd267ca0	-0.040646195
218	0x3ea6e78e	0.32598537
219	0xbdee5a4f	-0.11638319
220	0xbd17ae86	-0.037031673
221	0x3cb39599	0.02192192
222	0x3d1a8663	0.037725817
223	0x3d7dc940	0.061959505
224	0xbd669585	-0.056294937
225	0x3c31a01f	0.0108413985
226	0xbd163f63	-0.036681544
227	0x3d6984bb	0.057011347
228	0xbd0dd1a6	-0.034623764
229	0x3cc4d0e0	0.02402538
230	0x3e0a3014	0.13494903
231	0xbc9305b3	-0.017947054
232	0x3d6eb720	0.05828011
233	0x3bfb9530	0.0076776966
234	0x3d76cbd5	0.060252983
235	0xbb9e658d	-0.004833883
236	0xbb367224	-0.002783903
237	0x3d75ca60	0.060007453
238	0x3be3cb93	0.006951758
239	0x39df7aac	0.00042625272
240	0x3d7f994c	0.062402055
241	0xbc319ea1	-0.010841043
242	0xbf13979a	-0.576532
243	0x3e2519a1	0.16123058
244	0x3c9fe77d	0.019519562
245	0x3ee77b47	0.4521124
246	0xbee30652	-0.4434076
247	0x3d003adb	0.03130613
248	0xbe36939a	-0.17829743
249	0x3d4272d9	0.04747281
250	0xbe821522	-0.25406748
251	0xbd0cac42	-0.034343965
252	0xbc4d7ba0	-0.0125416815
253	0xbea54139	-0.32276323
254	0xbce2fcfb	-0.027708521
255	0x3ddb8a76	0.10719769

network.4.bias f4 [4]
0	0x3f308e85	0.6896747
1	0x3dc0a343	0.0940614
2	0x3e9f104f	0.3106713
3	0x3e428801	0.18997194
