RL-implementaions/lunarlander_ppo/critic_model.pth (torch, 276154 bytes, 5 tensors)

network.0.weight f4 [256, 8]
-0.19244087 0.039345052 -0.048115686 0.16950956 -0.22325127 0.06784559 0.22870393 0.11566861
0.18808831 0.25468114 0.1861303 0.28216577 0.2981655 0.23411065 0.009915678 -0.07374506
-0.25947976 -0.27470574 0.25313425 -0.18340366 -0.31755412 0.053971145 -0.25870696 0.2431106
-0.31979674 0.19924185 0.18686159 -0.20470062 0.09608204 -0.1461522 0.1390344 0.22131728
-0.29900622 0.13558505 0.07056866 0.2660717 -0.31640157 -0.14662264 0.1449465 0.04416328
0.26053908 0.21499002 -0.32227945 0.10482279 0.18215775 -0.15277469 0.28248167 -0.33014074
-0.34330496 0.23223667 0.33971754 0.20043924 -0.19099674 0.053864177 -0.04739548 0.18595253
0.04598394 -0.34596658 0.11040847 0.13775204 -0.34256878 -0.060785618 -0.112072855 0.080991656
-0.10893763 0.32845488 -0.102411784 -0.13973333 -0.16886176 -0.10973581 0.31137446 -0.055931184
-0.1467579 -0.17592962 0.14067973 -0.24733064 0.2615933 -0.004185519 -0.31793463 0.06322238
-0.2262552 0.112683475 0.20230141 0.13860497 0.3159898 0.23390615 -0.21620356 -0.13673665
0.19355881 -0.18790962 0.3351401 0.2893916 -0.25969207 -0.105672345 -0.1496503 0.26369452
0.23280229 0.30052963 -0.1493836 -0.09239963 -0.30154496 0.2348162 0.041889373 -0.0004547645
-0.3158809 0.33853596 -0.17037328 0.04501056 -0.32005966 0.100343384 -0.16272236 0.02693192
-0.3121629 -0.25043303 0.27993733 0.2780546 0.07812993 -0.14023179 -0.19914722 -0.27074426
0.02633765 0.102296636 0.2745056 -0.2872206 -0.285637 0.1702734 0.18567263 -0.093189165
-0.047153007 -0.17184328 -0.32047135 -0.07844662 -0.3069788 0.3137945 0.22234233 0.31278825
0.16841918 0.20238057 0.12937376 -0.08355899 -0.19015849 -0.09184384 -0.12515423 -0.1639367
-0.32487103 -0.1332272 -0.008380142 -0.1891078 0.121343516 -0.059412852 -0.34526503 -0.25479925
-0.27618864 -0.007843866 0.029908119 0.23955603 0.27947053 -0.11327425 0.198806 -0.14161594
-0.1168107 0.32879096 -0.3134353 -0.1240898 0.23850526 -0.05701963 0.08747136 0.10902446
-0.1624547 0.1428602 0.2298376 -0.054834735 0.011994403 -0.19673896 -0.34493485 -0.21534848
-0.050490364 0.10123096 0.30299315 0.15020438 -0.14702776 -0.073220246 0.17546332 -0.030690027
0.12555031 -0.18050872 -0.2565256 -0.13924737 0.13827117 0.21571705 0.29172197 0.01770627
-0.08034062 -0.33554512 -0.11341662 0.17909266 -0.26135683 0.04651621 0.10181713 -0.10056406
0.32632017 -0.08353826 -0.2512318 0.3163934 -0.33773175 0.3283877 -0.03283703 -0.22465968
0.31380153 -0.15189348 -0.14895652 0.028055891 -0.16104855 0.20451593 0.12693152 0.07546199
-0.1704306 0.27574688 -0.082562305 -0.05192239 0.09613334 0.21419124 -0.21788189 -0.020008922
0.3060353 -0.28576407 -0.13708608 0.23904727 0.34539354 0.09582305 -0.29980364 -0.10428513
0.22995105 -0.10436179 0.20703417 -0.21714844 0.15237042 -0.034201365 0.16944024 0.31948274
0.32975832 0.24859917 0.2659316 0.15923126 -0.15748844 -0.186247 0.15032752 -0.17065553
0.24562807 -0.276982 -0.1593689 0.089926034 0.012127545 -0.2717984 0.34285918 -0.3148065
00000000: 380f 45be 4728 213d f414 45bd ea93 2d3e
00000010: fb9b 64be a1f2 8a3d 5d31 6a3e aae3 ec3d
00000020: 399a 403e 9165 823e f198 3e3e 0878 903e
00000030: 26a9 983e b4ba 6f3e 5e75 223c a607 97bd
00000040: 88da 84be 3ba6 8cbe d09a 813e 2bce 3bbe
00000050: 7496 a2be d910 5d3d 3d75 84be fcf1 783e
00000060: 66bc a3be 0e06 4c3e a558 3f3e 0a9d 51be
00000070: a9c6 c43d eca8 15be 095f 0e3e ffa0 623e
00000080: 5817 99be cfd6 0a3e 4d86 903d 8d3a 883e
00000090: 63ff a1be 3f24 16be db6c 143e 8ee4 343d
000000a0: 6165 853e 5826 5c3e d001 a5be 55ad d63d
000000b0: 9087 3a3e f870 1cbe 70a1 903e 3508 a9be
000000c0: abc5 afbe 73cf 6d3e 75ef ad3e f23f 4d3e
000000d0: a694 43be afa0 5c3d c321 42bd 576a 3e3e
000000e0: a859 3c3d 8822 b1be d61d e23d df0e 0d3e
000000f0: 2d65 afbe 57fa 78bd 7486 e5bd f4de a53d
00000100: b11a dfbd 3d2b a83e 45bd d1bd 4116 0fbe
00000110: 19ea 2cbe 2bbd e0bd 796c 9f3e 1918 65bd
00000120: b447 16be e526 34be 590e 103e 3e44 7dbe
00000130: 8fef 853e ae26 89bb 54c8 a2be bc7a 813d
00000140: 71af 67be 98c6 e63d 1a28 4f3e 76ee 0d3e
00000150: 6ac9 a13e 1885 6f3e 7764 5dbe b104 0cbe
00000160: 4834 463e 616b 40be 7c97 ab3e 232b 943e
00000170: 5cf6 84be be6a d8bd ee3d 19be f802 873e
00000180: b963 6e3e 05df 993e 04f8 18be 043c bdbd
00000190: 1a64 9abe a873 703e 3194 2b3d 756d eeb9
000001a0: 24bb a1be 9654 ad3e 5576 2ebe fe5c 383d
000001b0: dcde a3be d580 cd3d b1a0 26be 54a0 dc3c
000001c0: d1d3 9fbe c238 80be f253 8f3e 2c5d 8e3e
000001d0: 9602 a03d ec98 0fbe 40ed 4bbe fe9e 8abe
000001e0: 0ec2 d73c e680 d13d ff8b 8c3e 940e 93be
000001f0: 033f 92be 265c 2e3e f720 3e3e f6d9 bebd
00000200: 8323 41bd aff7 2fbe d214 a4be 9fa8 a0bd
00000210: 532c 9dbe aca9 a03e b5ad 633e c825 a03e
00000220: 1476 2c3e da3c 4f3e 8e7a 043e fa20 abbd
00000230: e8b8 42be a018 bcbd 6e28 00be 06df 27be
00000240: 7f55 a6be b66c 08be dd4c 09bc 7aa5 41be
00000250: f382 f83d e45a 73bd 94c6 b0be 0c75 82be
00000260: 9968 8dbe 8f83 00bc df01 f53c 2d4e 753e
00000270: c316 8f3e 54fc e7bd cd93 4b3e c503 11be
00000280: 733a efbd 4a57 a83e 977a a0be cb22 febd
00000290: b93a 743e 6a8d 69bd 2f24 b33d 3748 df3d
000002a0: 865a 26be f249 123e 8c5a 6b3e 639a 60bd
000002b0: 2c84 443c f075 49be 4d9b b0be 5084 5cbe
000002c0: fcce 4ebd 2d52 cf3d eb21 9b3e 2dcf 193e
000002d0: 728e 16be 7ff4 95bd a8ac 333e a769 fbbc
000002e0: 4390 003e 47d7 38be 5357 83be dd96 0ebe
000002f0: f596 0d3e eee4 5c3e 955c 953e bd0c 913c
00000300: 9f89 a4bd 92cc abbe f946 e8bd 1164 373e
00000310: 90d0 85be c887 3e3d 8085 d03d 88f4 cdbd
00000320: 7013 a73e 1b16 abbd 74a1 80be 51fe a13e
00000330: 2deb acbe 6f22 a83e 1f80 06bd 300d 66be
00000340: 98aa a03e f789 1bbe 0f88 18be 78d5 e53c
00000350: e9e9 24be a06c 513e 56fa 013e d18b 9a3d
00000360: 5c85 2ebe b22e 8d3e 6d16 a9bd 92ac 54bd
00000370: 8ee1 c43d f354 5b3e 6e1c 5fbe c0e9 a3bc
00000380: a9b0 9c3e ab4f 92be 4b60 0cbe cfc8 743e
00000390: 6cd7 b03e e03e c43d dd7f 99be 7193 d5bd
000003a0: 4a78 6b3e a2bb d5bd c400 543e 295c 5ebe
000003b0: fe06 1c3e bb16 0cbd be81 2d3e 3e93 a33e
000003c0: 15d6 a83e c890 7e3e 3028 883e 850d 233e
000003d0: a644 21be 89b7 3ebe 75ef 193e 53c0 2ebe
000003e0: ed85 7b3e 96d0 8dbe 9a31 23be 242b b83d
000003f0: 9cb2 463c 2929 8bbe 3d8b af3e 512e a1be

network.0.bias f4 [256]
-0.34507465 0.06318567 -0.32066295 -0.10972152 0.3230724 0.17968816 0.09795762 -0.08561066
0.022523865 0.16557583 -0.24135418 0.02665118 0.07018272 0.23143555 -0.29088292 0.29474196
-0.27220672 -0.14418209 0.14350577 -0.012701416 0.26692948 -0.08628652 0.022266012 0.21362893
-0.1604694 0.18621927 -0.057788722 -0.01658352 -0.3122439 0.22102612 -0.023476722 0.11694814
-0.046618883 0.25580814 -0.0303255 0.21035998 0.23215562 0.074646026 0.33536568 0.27976474
-0.12930447 -0.204419 0.2588503 -0.34961215 -0.1369 -0.0691481 0.031750612 0.03093448
0.25049773 0.2203277 0.2019696 -0.2318571 -0.19304605 0.0678061 0.20037791 0.06044663
-0.30649605 0.11417362 -0.122845836 0.32912216 -0.0963595 0.011373074 0.3215569 -0.25882003
-0.25001964 0.09981166 0.112138264 -0.021389188 -0.2725401 -0.11083871 -0.34176937 -0.27902144
0.20722042 0.18216175 -0.23949082 0.18231715 -0.07222823 -0.08921885 -0.111993656 0.26245445
-0.03388906 0.064900495 -0.14392668 0.13035084 -0.27733192 0.119196385 0.14930357 0.10948209
-0.032760367 -0.091159165 -0.168897 -0.0037925 -0.09689101 0.19132844 -0.19638656 0.23644765
0.17271402 0.2316582 -0.1442854 -0.349284 -0.25084454 0.12702402 0.20304303 0.32994676
-0.31919986 0.3272301 -0.309883 0.34799522 0.15774688 0.23773439 -0.2856601 -0.31107387
0.058194935 -0.009460534 -0.18755376 0.2988351 -0.29571822 0.03845314 -0.102556854 0.12678981
-0.22044416 0.32170936 -0.16061005 0.32742807 -0.18261892 -0.12743703 0.23965082 0.0012164845
-0.06367706 0.036131818 -0.27419192 -0.21824126 0.12384923 0.09659809 0.3291942 -0.110862814
0.1485745 0.33848184 0.07355742 -0.056247286 -0.08108864 -0.2996616 0.11491085 0.313935
-0.092414424 -0.09787982 0.2335617 -0.02040822 -0.08056851 0.34853065 -0.04751134 0.0954962
0.22796808 0.09952346 0.017022226 -0.020209793 -0.025952175 0.0882802 0.2350837 -0.21279328
0.07567104 -0.23155524 -0.26530117 -0.11110465 0.03335118 0.31883132 -0.039890222 0.3210733
0.15150835 -0.034872387 0.108342096 -0.21678273 -0.13574184 -0.11297774 0.07028337 -0.085539475
-0.3512318 0.00020032396 0.07106924 0.012467796 0.20404646 -0.06391839 -0.08878082 -0.09818673
0.20760445 0.17069364 -0.23787567 -0.18471433 -0.34118485 -0.09934353 0.18296675 0.026906252
-0.3261222 -0.22150634 0.047327075 -0.17236876 -0.26357695 0.3301038 -0.31829128 -0.3527225
-0.13452709 0.19352901 0.17381394 0.2315432 0.28738803 0.2394668 0.26901618 -0.16232926
-0.30081242 0.15515287 0.25857002 0.032284528 0.01907208 0.28026178 0.23018493 -0.2623352
-0.017165778 -0.35334653 -0.3294524 0.18739529 0.0819634 -0.1084121 -0.061116174 0.095250234
-0.13149594 0.22168176 0.25181347 -0.19644836 0.09587371 0.016808838 0.12882054 0.23168582
-0.13514487 -0.18449332 -0.18155071 0.30362236 -0.34299308 -0.041204993 0.31375846 0.17875992
-0.21585159 -0.022111963 -0.25318223 0.27589443 0.17769603 0.0008807848 0.20931739 -0.31851906
0.07360075 -0.26349193 -0.030564431 0.14193612 0.035145707 -0.098358564 -0.29195863 -0.3104565
00000000: a0ad b0be 7d67 813d ef2d a4be adb5 e0bd
00000010: bf69 a53e 2c00 383e 019e c83d a454 afbd
00000020: f883 b83c b68c 293e 8d25 77be 9353 da3c
00000030: f5bb 8f3d 71fd 6c3e 9bee 94be 6be8 963e
00000040: ae5e 8bbe 78a4 13be 2df3 123e 9a19 50bc
00000050: fbaa 883e fdb6 b0bd 3667 b63c 8bc1 5a3e
00000060: 1752 24be 44b0 3e3e deb3 6cbd 2ada 87bc
00000070: 6fde 9fbe ac54 623e 4152 c0bc 8282 ef3d
00000080: 71f3 3ebd 49f9 823e 2f6d f8bc 9b68 573e
00000090: 34ba 6d3e 04e0 983d 0db5 ab3e 533d 8f3e
000000a0: 6468 04be 3753 51be 0788 843e 5d00 b3be
000000b0: 832f 0cbe 859d 8dbd ee0c 023d 4e6a fd3c
000000c0: 3d41 803e 969d 613e 1ed1 4e3e f36b 6dbe
000000d0: ddad 45be eddd 8a3d de2f 4d3e e396 773d
000000e0: 0ded 9cbe dcd3 e93d 9996 fbbd b382 a83e
000000f0: 2158 c5bd 2156 3a3c 1ba3 a43e 0f84 84be
00000100: 9302 80be 0e6a cc3d bfa8 e53d 6138 afbc
00000110: 608a 8bbe 68ff e2bd 65fc aebe e6db 8ebe
00000120: 9731 543e 9c88 3a3e 153d 75be 59b1 3a3e
00000130: 65ec 93bd 5fb8 b6bd ee5c e5bd 6e60 863e
00000140: 41cf 0abd 8dea 843d 8461 13be b17a 053e
00000150: 73fe 8dbe 3c1d f43d 09e3 183e 2538 e03d
00000160: bc2f 06bd a8b1 babd 56f3 2cbe 978b 78bb
00000170: cb6e c6bd 9aeb 433e 8f19 49be 551f 723e
00000180: f2db 303e cf37 6d3e 8dbf 13be 5ad5 b2be
00000190: b26e 80be 9612 023e 83ea 4f3e c8ee a83e
000001a0: 2a6e a3be b48a a73e fca8 9ebe 6e2c b23e
000001b0: 6688 213e a570 733e 0a42 92be 1345 9fbe
000001c0: d05d 6e3d 5b00 1bbc 180e 40be ea00 993e
000001d0: 6168 97be 0a81 1d3d 5409 d2bd 30d5 013e
000001e0: 1dbc 61be 17b7 a43e f676 24be a7a4 a73e
000001f0: 7400 3bbe da7e 02be 0667 753e 7272 9f3a
00000200: 1e69 82bd f5fe 133d e262 8cbe a37a 5fbe
00000210: aaa4 fd3d 38d5 c53d 248c a83e 0b0c e3bd
00000220: ea23 183e 7e4d ad3e 46a5 963d 8e63 66bd
00000230: cd11 a6bd 3f6d 99be 6156 eb3d 17bc a03e
00000240: c643 bdbd 3775 c8bd cc2a 6f3e 242f a7bc
00000250: 1a01 a5bd 9c72 b23e 409b 42bd 8393 c33d
00000260: 7770 693e f5d2 cb3d 3272 8b3c 028f a5bc
00000270: a899 d4bc 40cc b43d c8b9 703e 7be6 59be
00000280: 6bf9 9a3d d11c 6dbe 8ed5 87be d68a e3bd
00000290: 3f9b 083d dc3d a33e ee63 23bd b863 a43e
000002a0: 0125 1b3e 59d6 0ebd 76e2 dd3d 4bfc 5dbe
000002b0: e9ff 0abe e060 e7bd baf0 8f3d 522f afbd
000002c0: a8d4 b3be 0e0e 5239 c08c 913d ba45 4c3c
000002d0: 8ef1 503e a5e7 82bd b8d2 b5bd 2016 c9bd
000002e0: 4396 543e 50ca 2e3e ae95 73be c125 3dbe
000002f0: c8af aebe 9f74 cbbd a35b 3b3e 806a dc3c
00000300: 7df9 a6be 8fd2 62be 09da 413d 7081 30be
00000310: 8ff3 86be 5e03 a93e 13f7 a2be 0b98 b4be
00000320: 78c1 09be 782c 463e 48fc 313e a919 6d3e
00000330: 8624 933e c936 753e 7dbc 893e a439 26be
00000340: 1604 9abe 65e0 1e3e 4a63 843e c83c 043d
00000350: 0d3d 9c3c 797e 8f3e 99b5 6b3e cd50 86be
00000360: 3f9f 8cbc d6e9 b4be fcad a8be 8de4 3f3e
00000370: 6ddc a73d 2a07 debd f454 7abd 8e12 c33d
00000380: dfa6 06be 8b00 633e b2ed 803e c229 49be
00000390: 7059 c43d b0b2 893c 88e9 033e 0c3f 6d3e
000003a0: 6b63 0abe d1eb 3cbe 6ee8 39be 6474 9b3e
000003b0: ca9c afbe 91c6 28bd f3a4 a03e d70c 373e
000003c0: 3308 5dbe 2624 b5bc 1aa1 81be 0942 8d3e
000003d0: f3f5 353e 78e4 663a 4c57 563e ee14 a3be
000003e0: fdbb 963d 6ae8 86be 4262 fabc b457 113e
000003f0: f2f4 0f3d 3770 c9bd 9a7b 95be 28f4 9ebe

network.2.weight f4 [256, 256]
-0.028869927 0.032966003 -0.029466368 0.034438036 0.033824995 -0.023909241 0.0488452 -0.047538206
-0.046371803 -0.028343655 -0.04280293 -0.036765955 -0.062416382 -0.036216557 -0.027709037 -0.015513331
-0.04953689 -0.006742105 -0.059478328 -0.052665062 -0.0021515936 0.010267086 -0.022147104 -0.039288126
0.022473864 -0.06174113 -0.048989356 -0.048700273 0.033293396 0.052741677 -0.02774465 0.018879354
0.005514458 -0.007280916 0.022786975 0.0010416582 0.046516664 0.04719781 0.050417677 -0.021389134
-0.031182408 -0.041898504 -0.026295058 -0.03692452 0.04683724 -0.03300889 0.018524267 -0.0044890568
0.050094448 -0.05609782 0.0028189272 -0.05135581 0.05152473 0.05550065 0.022054441 0.05731689
0.06003706 0.061508022 -0.058360323 0.0065473393 -0.031618938 0.014366254 0.042536728 -0.02336181
-0.046566583 -0.046241857 -0.05584649 -0.03879071 0.04000219 -0.06032811 -0.049903236 -0.051689766
-0.053500883 -0.031910673 0.03801839 -0.0069420785 0.0056021214 0.006413102 0.0036315843 -0.038866907
0.039692134 0.009670682 0.020447582 -0.05447372 0.014030911 0.021287441 -0.06070172 0.0091049075
0.047040597 -0.057613797 0.013110936 0.033215553 0.06035786 0.04177545 -0.015344501 0.039414838
-0.032012597 0.060428865 0.05879709 -0.006154895 0.05581312 0.040225826 -0.05420725 0.012237839
0.04031183 0.023574412 -0.01674892 0.039426275 -0.0443156 0.015876338 -0.03444071 0.022925906
0.038640656 0.010746457 -0.04776168 -0.030758798 -0.02182933 0.037812367 0.014217958 -0.032690257
0.018894143 0.0024040863 -0.049106777 0.016678937 0.01222498 -0.04288108 0.008712336 -0.0009835511
-0.0006179735 0.04230693 0.015515141 0.0018018037 -0.028430246 0.011798225 0.008826166 -0.043439277
0.030567594 0.051062696 0.03431849 -0.01570914 0.003461346 -0.016744457 0.05636411 -0.05083081
-0.040349767 0.04990705 0.058986895 -0.05303648 -0.012520522 -0.023538314 0.018278643 0.061084718
0.044827737 0.032625616 0.023776002 -0.03753668 0.03692828 -0.030895762 -0.062059842 0.014779218
0.062241606 0.029451646 -0.037321277 -0.011247456 -0.012701839 0.00551454 0.014238223 0.001878418
0.0021355748 0.06095747 0.024823204 0.03930214 0.035584062 0.0011868253 0.015292078 -0.059644468
0.007431239 0.05001814 -0.024595633 0.04278984 -0.05862856 0.006912753 -0.030832954 0.0250775
0.045946427 -0.0045927763 -0.05170481 0.034693927 -0.025625184 -0.040202953 -0.008661404 -0.037040986
-0.04037427 -0.0068983063 0.038291775 -0.03815542 -0.043428957 0.025560029 -0.057059787 0.050441988
-0.026141174 0.05369392 0.016702674 0.03740617 0.011269577 -0.015954457 -0.037977494 -0.052927025
-0.049683414 0.034173526 0.03621588 0.03170587 -0.007385008 -0.050763026 0.04705532 -0.054982886
0.031936087 -0.04474096 -0.025475033 -0.0131666735 0.0055056363 -0.011947192 0.020538747 -0.051082343
0.017148249 -0.008483037 0.02969867 -0.058090553 -0.020494781 -0.016011782 0.050488137 0.0008614734
-0.03933143 -0.0051878393 -0.012626506 -0.055699103 -0.017286591 -0.00927265 -0.048537433 0.036033884
-0.030162811 0.054289512 -0.005183153 0.041024357 -0.057993256 0.03971751 0.01807595 0.023393705
-0.003422007 -0.02698277 -0.047057338 -0.005315982 -0.049273416 -0.016436078 0.049445175 -0.028807811
00000000: a080 ecbc 5c07 073d 7463 f1bc e60e 0d3d
00000010: 148c 0a3d 50dd c3bc e811 483d 6cb7 42bd
00000020: 5cf0 3dbd f430 e8bc 2052 2fbd e697 16bd
00000030: 52a8 7fbd d057 14bd 10fe e2bc a02b 7ebc
00000040: 32e7 4abd e0ec dcbb 8c9f 73bd 52b7 57bd
00000050: c001 0dbb 4837 283c d86d b5bc 96ec 20bd
00000060: 1c1b b83c 44e4 7cbd 10a9 48bd f079 47bd
00000070: a85e 083d a807 583d c048 e3bc e0a8 9a3c
00000080: a0b2 b43b c094 eebb c0ab ba3c 4088 883a
00000090: 4288 3e3d 7e52 413d c482 4e3d 4438 afbc
000000a0: 4072 ffbc c49d 2bbd bc68 d7bc 2a3e 17bd
000000b0: 68d8 3f3d 5434 07bd 34c0 973c f018 93bb
000000c0: d62f 4d3d d4c6 65bd c0bd 383b 785a 52bd
000000d0: 980b 533d a654 633d 84ab b43c 1ec5 6a3d
000000e0: 6ce9 753d d6ef 7b3d 3c0b 6fbd 108b d63b
000000f0: dc82 01bd 7060 6b3c fe3a 2e3d 4461 bfbc
00000100: 9abc 3ebd 1a68 3dbd 4abf 64bd 02e3 1ebd
00000110: 56d9 233d 9c1a 77bd 5667 4cbd a6b8 53bd
00000120: be23 5bbd c4b4 02bd 2cb9 1b3d 607a e3bb
00000130: 0092 b73b 0025 d23b e0ff 6d3b e832 1fbd
00000140: 3894 223d c871 1e3c b081 a73c d61f 5fbd
00000150: e8e1 653c 0063 ae3c 5ea2 78bd c02c 153c
00000160: a4ad 403d 72fc 6bbd 40cf 563c 080d 083d
00000170: ce39 773d bc1c 2b3d 8067 7bbc 7471 213d
00000180: a41f 03bd 4284 773d 38d5 703d 00af c9bb
00000190: 4c9c 643d d6c3 243d 6c08 5ebd 3881 483c
000001a0: 041e 253d 201f c13c 0835 89bc 727d 213d
000001b0: 4684 35bd 180f 823c b411 0dbd 1ccf bb3c
000001c0: aa45 1e3d e811 303c c0a1 43bd e0f9 fbbc
000001d0: 6cd3 b2bc 24e1 1a3d 70f2 683c 38e6 05bd
000001e0: e4c7 9a3c e08d 1d3b 3024 49bd 44a2 883c
000001f0: 484b 483c 12a4 2fbd 30be 0e3c 80ea 80ba
00000200: 80ff 21ba 084a 2d3d 3833 7e3c 802a ec3a
00000210: 8ce6 e8bc 584d 413c a09b 103c 62ed 31bd
00000220: e468 fa3c 1e27 513d 8c91 0c3d 74b0 80bc
00000230: c0d7 623b ac2b 89bc 0ede 663d f833 50bd
00000240: cc45 25bd 566b 4c3d 3e9c 713d c83c 59bd
00000250: e022 4dbc 6cd3 c0bc 18bd 953c f833 7a3d
00000260: 4a9d 373d 70a2 053d e4c5 c23c 10c0 19bd
00000270: 1c42 173d 1c19 fdbc 7632 7ebd 8824 723c
00000280: 0ef1 7e3d 9444 f13c 32de 18bd 4047 38bc
00000290: 601b 50bc 50b3 b43b 7047 693c 4035 f63a
000002a0: 00f5 0b3b 8aae 793d 085a cb3c 48fb 203d
000002b0: 98c0 113d 408f 9b3a a08b 7a3c c24d 74bd
000002c0: c081 f33b d2df 4c3d c87c c9bc 6644 2f3d
000002d0: 8024 70bd 6084 e23b 6495 fcbc 546f cd3c
000002e0: 5232 3c3d 007f 96bb 6cc8 53bd 381b 0e3d
000002f0: e8eb d1bc daab 24bd 90e8 0dbc 4ab8 17bd
00000300: 7e5f 25bd 300b e2bb d6d7 1c3d dc48 1cbd
00000310: 90e2 31bd 4463 d13c 86b7 69bd 429c 4e3d
00000320: 0426 d6bc 28ee 5b3d 0cd4 883c 3637 193d
00000330: 08a4 383c ecb2 82bc 4a8e 1bbd 02ca 58bd
00000340: d680 4bbd 8af9 0b3d 1a57 143d 04de 013d
00000350: f0fd f1bb e4ec 4fbd 14bd 403d bc35 61bd
00000360: 6acf 023d 4c42 37bd 04b1 d0bc 08b9 57bc
00000370: a068 b43b 28be 43bc e040 a83c b83b 51bd
00000380: 7c7a 8c3c 70fc 0abc a04a f33c 5cf0 6dbd
00000390: ace4 a7bc 242b 83bc a6cc 4e3d 80d4 613a
000003a0: fe19 21bd c0fe a9bb 68df 4ebc be24 64bd
000003b0: 9c9c 8dbc 50ec 17bc 30cf 46bd 4498 133d
000003c0: 0018 f7bc ae5e 5e3d 70d7 a9bb 2809 283d
000003d0: 568a 6dbd d4ae 223d 0414 943c 28a4 bf3c
000003e0: c043 60bb f80a ddbc 32bf 40bd b031 aebb
000003f0: ecd2 49bd f4a4 86bc 0687 4a3d 5cfe ebbc

network.2.bias f4 [256]
0.05444561 -0.01879023 -0.059151545 -0.047691613 0.03763494 -0.0008684695 -0.0017813668 0.035821654
-0.0417139 0.024421923 -0.05645492 0.055304654 -0.008931667 0.0337234 0.02701088 -0.015823178
0.057331286 -0.025568344 0.042379342 -0.0045268536 -0.0084573105 0.043055706 0.023100369 -0.038418785
0.046492934 0.007487625 0.055920392 0.037710644 0.0524986 0.01067777 -0.020017095 0.011682972
0.031939678 0.05283446 0.013379276 -0.048214994 0.00076090544 0.047106206 -0.05722268 0.024931118
0.016572326 0.05291175 -0.009907559 -0.026402436 0.058992416 -0.022836082 0.039483644 -0.008187085
0.03266009 0.047364384 -0.033146508 0.04914952 -0.03850402 0.021212056 0.0131877065 0.028352946
-0.036775626 0.02342058 0.014345534 -0.018074766 -0.045055054 0.025714599 -0.03191345 -0.026023805
0.022921272 -0.0517641 -0.020702086 -0.062400706 -0.00087157637 0.016605824 -0.02701214 -0.028232083
-0.052724846 -0.02980943 0.04778351 0.061826468 -0.06228824 -0.044973247 -0.03466788 -0.012796104
-0.014507793 0.031514876 -0.038050137 -0.004337698 -0.060557187 -0.03528133 -0.021063782 -0.006394021
0.03676206 0.021104679 0.05641958 -0.040807262 -0.011425793 -0.0013952181 -0.03648956 -0.041405097
0.05451648 -0.013189398 -0.03394171 -0.01522994 0.051431358 -0.04306961 0.055373944 -0.05472982
0.059769407 0.058254622 -0.03322781 -0.008736193 -0.04158535 -0.039155655 0.027558208 -0.02456592
0.020450473 0.028158411 0.037328407 -0.015547924 -0.053776413 0.04263895 0.045936696 -0.032336876
0.02028896 0.051677063 -0.051856235 0.023242645 0.008815296 -0.018115848 -0.017456897 0.0016207248
-0.059411667 0.016211003 0.02262716 -0.062386833 0.0029805228 -0.007574126 0.011916213 -0.042271473
0.0067428276 -0.0287942 0.0059600845 0.008269906 -0.053668372 -0.014064677 0.046860635 0.058053203
-0.046948522 -0.0022696555 -0.004069045 -0.0041938424 -0.0009858087 0.010274269 -0.021330379 -0.05025824
0.014661379 -0.007830277 -0.02922146 -0.031832688 0.0363833 0.043734215 0.058704168 -0.049722813
0.020000726 0.024084397 -0.02052746 0.025409095 0.03169822 0.047598287 0.015766665 -0.027033947
-0.0049504116 0.040892676 -0.0035351813 0.023749948 -0.052666336 -0.0047128946 -0.025845908 -0.045058437
-0.04063955 -0.020716898 0.045367323 -0.03359198 0.022310063 -0.050458603 0.029983923 0.011728138
0.046126932 -0.039643973 -0.047585145 -0.05627794 0.011692293 0.0057356283 0.029797018 0.01775159
-0.031342477 -0.03626629 -0.009818874 0.051648445 -0.02936931 0.04602313 0.0459434 0.06019733
0.014508814 -0.05026427 -0.029333428 -0.015368842 0.058295265 0.04741832 -0.031857662 0.037724204
0.0008113533 0.04230658 0.0129580945 0.033296578 -0.0059006363 0.009150021 -0.040381335 -0.026653953
-0.049619935 -0.012097895 0.005613558 -0.027687594 0.052592844 0.029041886 -0.023420751 0.047956012
0.0055785626 0.026857197 -0.026535943 -0.038305685 -0.02521848 0.023504533 -0.03982058 0.022998415
0.008249395 -0.031178974 -0.010067619 -0.045317434 0.055634767 0.009318829 -0.03735491 -0.0269842
0.0011062175 -0.05378007 0.028461084 0.05388193 -0.018553786 -0.0031341538 -0.04797125 -0.04321201
-0.024541311 -0.026374184 0.05926428 0.010691859 -0.026569031 -0.055790342 -0.0078107417 -0.052378617
00000000: 5c02 5f3d f8ed 99bc e448 72bd 4858 43bd
00000010: 1827 1a3d 00aa 63ba c07c e9ba bab9 123d
00000020: 32dc 2abd 7c10 c83c 463d 67bd 2287 623d
00000030: 2056 12bc 8c21 0a3d ec45 dd3c 9c9f 81bc
00000040: 36d4 6a3d b474 d1bc f695 2d3d 0056 94bb
00000050: 8890 0abc 2e5b 303d fc3c bd3c 045d 1dbd
00000060: 606f 3e3d c05a f53b c80c 653d 7a76 1a3d
00000070: c608 573d d0f1 2e3c e4fa a3bc f069 3f3c
00000080: 2ed3 023d f268 583d c034 5b3c 167d 45bd
00000090: 8077 473a 70f2 403d 5462 6abd 583c cc3c
000000a0: b0c2 873c feb9 583d 5053 22bc ec49 d8bc
000000b0: 08a2 713d bc12 bbbc 9ab9 213d 2023 06bc
000000c0: 96c6 053d 2801 423d a2c4 07bd 0251 493d
000000d0: 64b6 1dbd e8c4 ad3c 4011 583c 7044 e83c
000000e0: 0aa2 16bd 84dc bf3c 8809 6b3c 8811 94bc
000000f0: a68b 38bd 6ca7 d23c aeb7 02bd e02f d5bc
00000100: 64c5 bb3c 9806 54bd 6c97 a9bc e297 7fbd
00000110: 807a 64ba f008 883c 9048 ddbc f846 e7bc
00000120: 02f6 57bd e832 f4bc a4b8 433d c03d 7d3d
00000130: f421 7fbd de35 38bd e8ff 0dbd c0a6 51bc
00000140: 18b2 6dbc be15 013d 76da 1bbd 4023 8ebb
00000150: d00a 78bd 2883 10bd f48d acbc f084 d1bb
00000160: d093 163d b8e3 ac3c 3818 673d 8425 27bd
00000170: 4033 3bbc c0df b6ba 1476 15bd 6498 29bd
00000180: ac4c 5f3d 5818 58bc 7606 0bbd 0087 79bc
00000190: b0a9 523d c269 30bd cacf 623d 602c 60bd
000001a0: c4d0 743d 669c 6e3d e219 08bd 4022 0fbc
000001b0: 6655 2abd ae61 20bd c0c1 e13c 783e c9bc
000001c0: c087 a73c 78ac e63c ace5 183d b8bc 7ebc
000001d0: a844 5cbd 2ea6 2e3d 1e28 3c3d ac73 04bd
000001e0: 0835 a63c 54ab 533d 3467 54bd 5c67 be3c
000001f0: 086e 103c b067 94bc c401 8fbc 806e d43a
00000200: a659 73bd f0cc 843c 985c b93c 5689 7fbd
00000210: e054 433b 6030 f8bb 383c 433c da24 2dbd
00000220: f0f2 dc3b d0e1 ebbc d04c c33b 807e 073c
00000230: 5ed3 5bbd 886f 66bc f0f0 3f3d 32c9 6d3d
00000240: 184d 40bd 80be 14bb a055 85bb 806c 89bb
00000250: 4036 81ba 6855 283c 0cbd aebc 96db 4dbd
00000260: 4836 703c 904a 00bc d861 efbc fe62 02bd
00000270: a806 153d a622 333d c873 703d 26aa 4bbd
00000280: 90d8 a33c a44c c53c 3429 a8bc bc26 d03c
00000290: fed5 013d 6cf6 423d 1829 813c 4c76 ddbc
000002a0: 1037 a2bb 147f 273d 80ae 67bb 408f c23c
000002b0: a8b8 57bd a06e 9abb ccba d3bc 328f 38bd
000002c0: a875 26bd 7cb6 a9bc 16d3 393d be97 09bd
000002d0: 98c3 b63c aead 4ebd d8a0 f53c 6027 403c
000002e0: 98ef 3c3d b861 22bd a4e8 42bd b283 66bd
000002f0: 0891 3f3c f0f1 bb3b e018 f43c c86b 913c
00000300: f860 00bd f68b 14bd 58df 20bc 528d 533d
00000310: e897 f0bc c082 3c3d 262f 3c3d 7a91 763d
00000320: 60b6 6d3c e8e1 4dbd a84c f0bc 98cd 7bbc
00000330: 04c7 6e3d b639 423d 2e7d 02bd b284 1a3d
00000340: 00b1 543a aa49 2d3d 304e 543c fe61 083d
00000350: 205a c1bb f8e9 153c e666 25bd 6459 dabc
00000360: 463e 4bbd 4036 46bc f0f1 b73b 18d1 e2bc
00000370: 986b 573d 40e9 ed3c e0dc bfbc 866d 443d
00000380: 60cc b63b a003 dc3c e861 d9bc 6ce6 1cbd
00000390: fc96 cebc 948c c03c e81a 23bd 2c67 bc3c
000003a0: 7828 073c 0c6b ffbc a8f2 24bc c69e 39bd
000003b0: 48e1 633d 00ae 183c 7601 19bd f80d ddbc
000003c0: 80fe 903a 7e48 5cbd 3827 e93c 4cb3 5c3d
000003d0: 1cfe 97bc 6066 4dbb 807d 44bd 14ff 30bd
000003e0: dc0a c9bc ac0e d8bc 1abf 723d e82c 2f3c
000003f0: 4ca7 d9bc 6a84 64bd 40f1 ffbb f68a 56bd

network.4.weight f4 [1, 256]
0.058993876 -0.018741012 0.053852 0.03543444 -0.03454162 -0.055180237 -0.020938039 -0.051796474
0.009019464 0.052428134 0.01205489 -0.009791985 0.02152095 -0.02905304 -0.000553146 0.023337036
0.024450824 0.027679704 -0.047061466 -0.053778708 0.041894518 0.00858359 -0.04358673 -0.06217158
-0.051207513 0.040208206 -0.014833912 -0.046499595 -0.030557193 0.025106221 -0.012033291 -0.0044171065
-0.033240788 0.05993265 0.06006381 -0.028308913 0.06054478 -0.0061842278 -0.033221044 0.053427666
-0.011579335 0.015387818 -0.01355429 0.015387446 -0.033177137 -0.039577335 0.059320807 0.043924026
-0.013540611 -0.02901999 0.018420532 0.010028139 0.044292033 0.006157942 -0.0057981387 -0.0010804608
0.039958745 -0.026585802 0.048737854 -0.046722904 0.043184005 -0.014068723 0.042582333 -0.0037192702
0.052037522 -0.033342354 -0.017866366 -0.0014251173 -0.028954573 0.030109309 0.0063665435 0.0607768
-0.039122224 0.017441526 0.025491022 0.02345702 0.023478478 0.009640075 -0.03446511 0.036325105
0.053393513 0.02518572 0.0029974282 0.047015205 -0.026390895 -0.0049710646 -0.013707049 -0.040371105
-0.051900692 -0.060189523 0.05125715 -0.014242157 0.006020978 0.059405625 0.0063662603 -0.053515114
-0.041895106 0.019511834 -0.04376255 0.033908598 0.0609617 0.04810007 0.004304245 -0.056919828
-0.0042467117 -0.046156228 0.04171121 0.0069848523 0.022462986 0.053539902 0.052007355 -0.009141013
-0.04755871 -0.05253975 0.060412124 -0.013973422 -0.057509817 -0.041511893 -0.007622272 0.022751406
0.044018947 0.03363605 -0.024814017 0.042602547 0.051853344 -0.039323613 0.06026052 -0.043201268
-0.027617 -0.0048861727 -0.03315761 -0.03537856 0.03826838 0.04357528 -0.0057197213 -0.00933639
0.042024672 -0.0015741512 0.035568975 -0.008398883 0.007962614 -0.009176657 -0.056974962 -0.040258512
0.0624616 0.0090461895 0.05454906 -0.056330815 -0.042119794 -0.038707115 0.04728555 0.0025451034
0.05417803 0.01212769 -0.058551572 -0.00038838387 0.06176953 -0.043042995 0.05293616 0.004262984
0.004330978 0.023824647 -0.028777584 0.015346028 0.06033344 0.05032412 -0.05051118 0.049329408
0.03350643 -0.022951819 -0.0414258 -0.060315147 -0.056497507 0.012590893 -0.04595595 0.005231492
-0.026622318 -0.03004913 0.024737783 -0.0493451 -0.034942605 0.028940476 0.040604778 -0.05811517
0.011711948 0.047521606 -0.049118392 0.059223272 0.04925996 0.028435685 -0.0577358 -0.028211214
0.05002009 -0.026506752 -0.06074737 -0.0008978918 -0.016058818 0.02141381 0.04308717 -0.04480827
-0.007349506 0.05305524 0.016396612 0.01806362 0.0009644404 -0.0074209124 -0.009892255 0.00814949
0.00736814 0.036656305 0.061024114 0.03364104 -0.017462663 -0.051217347 -0.01645761 -0.04911913
0.0026465058 -0.005990766 0.05382801 -0.0109619275 0.011328071 -0.002884999 -0.02572 -0.025577508
0.0002066195 -0.03209857 0.016956866 0.044896677 0.06216725 0.04812882 0.054366708 -0.029204145
-0.020299748 0.016759306 0.017282695 -0.021927223 -0.043657437 0.04081382 0.020006083 -0.020928316
0.025182799 0.0046873465 -0.004239671 0.005321048 -0.023558848 -0.04870689 -0.006949626 -0.018463492
0.057709977 0.05514139 -0.050158717 -0.01792346 0.058931917 -0.017326668 -0.0053220317 0.011027135
00000000: 90a3 713d c086 99bc ea93 5c3d b423 113d
00000010: 847b 0dbd ac04 62bd 4086 abbc 8a28 54bd
00000020: 60c6 133c e2be 563d e081 453c 906e 20bc
00000030: b44c b03c a400 eebc 0001 11ba 502d bf3c
00000040: 184d c83c 8cc0 e23c 86c3 40bd 1047 5cbd
00000050: 9699 2b3d 30a2 0c3c 0088 32bd a0a7 7ebd
00000060: f8be 51bd 5cb1 243d f009 73bc 5c76 3ebd
00000070: 1453 fabc 90ab cd3c 4827 45bc 60bd 90bb
00000080: 7e27 08bd f07b 753d 7805 763d 18e8 e7bc
00000090: cefd 773d 10a5 cabb ca12 08bd f8d6 5a3d
000000a0: 40b7 3dbc 301d 7c3c d012 5ebc a01b 7c3c
000000b0: c0e4 07bd d81b 22bd 60fa 723d aee9 333d
000000c0: 70d9 5dbc 54bb edbc a8e6 963c 104d 243c
000000d0: 906b 353d 90c8 c93b 50fe bdbb 409e 8dba
000000e0: c8ab 233d 78ca d9bc 58a1 473d 8460 3fbd
000000f0: b6e1 303d 8080 66bc d06a 2e3d 00bf 73bb
00000100: 4c25 553d fe91 08bd 7c5c 92bc 00cb baba
00000110: 2432 edbc cca7 f63c 709e d03b 18f1 783d
00000120: a03e 20bd 88e1 8e3c 8cd2 d03c f028 c03c
00000130: f055 c03c 68f1 1d3c 4a2b 0dbd a2c9 143d
00000140: 28b3 5a3d 4852 ce3c 8070 443b 0493 403d
00000150: b831 d8bc 50e4 a2bb 8893 60bc 2c5c 25bd
00000160: d295 54bd 4a89 76bd 04f3 513d f057 69bc
00000170: a04b c53b 5053 733d 109c d03b aa32 5bbd
00000180: 349a 2bbd 48d7 9f3c 5c40 33bd bee3 0a3d
00000190: fab2 793d 9404 453d a00a 8d3b c424 69bd
000001a0: 0028 8bbb 500e 3dbd 60d9 2a3d 30e1 e43b
000001b0: 4c04 b83c a84c 5b3d aa05 553d 30c4 15bc
000001c0: eccc 42bd ec33 57bd b472 773d c8f0 64bc
000001d0: 6a8f 6bbd 6008 2abd 40c4 f9bb 2861 ba3c
000001e0: 364d 343d f4c5 093d c446 cbbc 0280 2e3d
000001f0: 2c64 543d cc11 21bd bcd3 763d d0f3 30bd
00000200: 0c3d e2bc 301c a0bb 46d0 07bd 1ce9 10bd
00000210: 4ebf 1c3d fe7b 323d 806c bbbb a8f7 18bc
00000220: 1022 2c3d c053 ceba c6b0 113d 789b 09bc
00000230: a075 023c b059 16bc 945e 69bd 1ce6 24bd
00000240: bcd7 7f3d 7836 143c d66e 5f3d 24bb 66bd
00000250: ce85 2cbd 5a8b 1ebd 7eae 413d c0cb 263b
00000260: c8e9 5d3d 38b3 463c c6d3 6fbd 00a0 cbb9
00000270: 0c02 7d3d da4d 30bd 96d3 583d 80b0 8b3b
00000280: e0ea 8d3b e82b c33c f8be ebbc e86d 7b3c
00000290: 3220 773d aa20 4e3d d0e4 4ebd a20d 4a3d
000002a0: 0a3e 093d 7405 bcbc 1aae 29bd 040d 77bd
000002b0: ee69 67bd 084a 4e3c 4e3c 3cbd f06c ab3b
000002c0: 0c17 dabc 9829 f6bc e4a6 ca3c 161e 4abd
000002d0: fa1f 0fbd 9414 ed3c 3251 263d 2c0a 6ebd
000002e0: 78e3 3f3c 04a6 423d 5e30 49bd 1a94 723d
000002f0: d0c4 493d f4f1 e83c 607c 6cbd 341b e7bc
00000300: dee1 4c3d b024 d9bc 3cd2 78bd 8060 6bba
00000310: c88d 83bc 046c af3c 2c7c 303d e088 37bd
00000320: 20d4 f0bb 7450 593d 3052 863c 28fa 933c
00000330: 80d2 7c3a 202b f3bb 2013 22bc 7085 053c
00000340: 7070 f13b ec24 163d 6cf4 793d 30cb 093d
00000350: dc0d 8fbc 48c9 51bd 1cd2 86bc 2431 49bd
00000360: 0071 2d3b 304e c4bb c27a 5c3d a899 33bc
00000370: 6099 393c 4012 3dbb c0b2 d2bc ec87 d1bc
00000380: 00a8 5839 ca79 03bd 20e9 8a3c 94e5 373d
00000390: 16a3 7e3d ba22 453d a0af 5e3d 883d efbc
000003a0: a84b a6bc d04a 893c 7094 8d3c b8a0 b3bc
000003b0: 24d2 32bd 642c 273d cce3 a33c dc71 abbc
000003c0: 284c ce3c 5098 993b f0ec 8abb 305c ae3b
000003d0: 7cfe c0bc e080 47bd b0b9 e3bb c040 97bc
000003e0: 4c61 6c3d f0db 613d 3a73 4dbd 38d4 92bc
000003f0: 9862 713d a8f0 8dbc 7064 aebb 28ab 343c
