RL-implementaions/lunarlander_ppo/critic_model.pth (torch, 276154 bytes, 5 tensors)

network.0.weight f4 [256, 8]
000000 6d c1 4e bf bc b6 d5 bf 7d dd f3 3e 32 b7 92 bf
       -0.80763894 -1.6696391 0.4762992 -1.1462157
000010 44 e2 9c 3f 21 82 2c 3f 28 3c ed be 41 c5 e3 3e
       1.2256551 0.6738606 -0.46334958 0.4448643
000020 8a 8c a2 bd 73 12 0b bf cd 7b 2d bf fa 4c b9 3e
       -0.07936962 -0.54325026 -0.6776703 0.3619154
000030 8a 2b 91 bf 4d da 94 3e 3d 50 14 bf b2 11 05 bd
       -1.1341412 0.290728 -0.57934934 -0.03248758
000040 c3 c1 f5 3c 75 3f 9a be 78 44 dd 3e 91 35 85 3c
       0.02999962 -0.3012654 0.432163 0.016260894
000050 17 8a 4d 3e 08 03 96 be 8e 7e 73 bd 4d dc 93 be
       0.20072208 -0.29299188 -0.059446864 -0.28879014
000060 85 4a a7 bd 2e f0 a0 bf 35 98 61 3f ff fb 2a 3f
       -0.0816851 -1.2573297 0.88122874 0.66790766
000070 ea 62 2e bf 4b 41 16 be 94 65 2a bf d4 32 b0 3e
       -0.6811968 -0.14673345 -0.66561246 0.3441378
000080 0e 3c f9 bd 8a 83 e1 be 6e 60 3b be 3c 59 f3 3e
       -0.12169658 -0.4404567 -0.18298504 0.47529018
000090 4d eb 97 3e 32 93 5f 3e d1 c6 cd be 0c e9 86 be
       0.29671708 0.21833494 -0.40190747 -0.26349676
0000a0 8b 76 d2 3f 9b 6b e7 be 55 7a af 3f f3 af 55 3c
       1.6442426 -0.45199284 1.3709208 0.013042438
0000b0 a3 9a 16 c0 a8 c4 44 3f 20 d9 96 be 14 f6 03 3f
       -2.3531883 0.76862574 -0.29462528 0.5154736
0000c0 c1 e4 93 be 1b d7 88 bf 73 be 5e 40 41 af 0a 3f
       -0.28885463 -1.0690645 3.480374 0.54173666
0000d0 84 7d 76 bf 62 aa 3a bf 92 0c 05 bc cf c3 1d 3e
       -0.9628527 -0.72916234 -0.008120673 0.15406726
0000e0 20 49 24 3e 06 aa 01 c0 36 eb 9b 3f df ef c0 3f
       0.1604352 -2.0260024 1.2181156 1.5073203
0000f0 dd aa 90 3f b1 af 1b bf 50 26 08 3d 25 f2 59 bf
       1.1302143 -0.6081496 0.033239663 -0.8513511
000100 bb 47 af 3f 5f cb d5 be 65 4e 5e be 19 3e 3b bf
       1.3693765 -0.41756722 -0.21709593 -0.7314163
000110 f3 12 78 3d 66 70 bf bf ac 7c 00 3f 05 79 91 bf
       0.060564946 -1.4956176 0.50190234 -1.1365057
000120 a7 5e 08 bf 47 0b 7f be c7 ae 7f be 1f cb df 3e
       -0.5326943 -0.24906646 -0.24969016 0.43709657
000130 29 ac cf bc 50 75 37 be 0e 08 40 bf 61 1d ce 3a
       -0.025350647 -0.17915845 -0.7501229 0.0015725308
000140 ca 40 5f 3e a0 da 27 c0 7c b7 e9 3c 97 f2 56 3f
       0.21802059 -2.6227188 0.028529875 0.8396391
000150 d8 f0 2e 3e bb aa ea be 15 d1 4b bf ad 12 01 be
       0.17084062 -0.45833382 -0.7961591 -0.1260478
000160 19 ac f1 be 6d 38 c6 bf 32 c3 d0 3e c2 09 ad be
       -0.47201613 -1.548597 0.40773922 -0.33796507
000170 a3 14 61 bf aa 1a 43 bf 16 7f 40 bf 86 21 de be
       -0.87922114 -0.7621256 -0.7519392 -0.4338495
000180 b6 d3 48 3e 41 1c 23 c0 78 40 fd 3e 08 04 ce bf
       0.19612011 -2.5485995 0.49463248 -1.609498
000190 17 87 0e c0 15 29 ea bf bc bc 1b bf f2 1e f3 3c
       -2.2269952 -1.8293787 -0.6083486 0.029677842
0001a0 26 dd ed bd 0d 95 3c be 3b eb 1f 3f f5 b8 2a 40
       -0.11614446 -0.18416233 0.6246831 2.667539
0001b0 22 1b fb 3d f1 af 94 bf ba 2e a7 3f be e3 16 3f
       0.122610345 -1.1616193 1.3061135 0.58941257
0001c0 2a 35 59 c0 68 cb 0c bf e9 56 7d bf 0c e8 fe 3e
       -3.3938699 -0.54997873 -0.9896074 0.49786413
0001d0 cd 73 51 3f 06 24 2b 3f f9 04 4b bd 16 21 f8 3d
       0.8181732 0.6685184 -0.04956529 0.12115686
0001e0 81 cb a4 3e f8 30 2e be 18 72 87 40 ac 2d 08 be
       0.3218651 -0.17010868 4.2326775 -0.13298672
0001f0 e5 f4 73 3f 8a b9 28 bf cb 47 f9 3e c0 21 ac bd
       0.95295554 -0.6590811 0.48687586 -0.08404875
000200 0a bb 5b 3f fe 09 1c c0 06 d6 78 3f d9 70 ed bf
       0.85832274 -2.4381099 0.97201574 -1.8550063
000210 47 b1 c1 bf e1 0f 6a bf e7 66 58 3c dc 43 d0 3d
       -1.5132226 -0.9143048 0.013208128 0.10169193
000220 78 bd 47 be c3 e7 51 3d a6 60 87 3e 37 14 1a 3e
       -0.1950587 0.051246416 0.26440924 0.15046774
000230 d3 82 7f 3e f0 f6 0c be 9f ad 8e 3d ac 42 5c be
       0.24952249 -0.13766074 0.06966709 -0.21509808
000240 49 1c 31 3f 78 e4 27 c0 af ca d6 be 70 e9 89 3f
       0.69183785 -2.6233196 -0.4195151 1.0774364
000250 c2 60 30 bf a5 cd 25 3f 2a 6d ad bf e9 95 0a 3f
       -0.6889764 0.64766914 -1.3548939 0.54134995
000260 eb 61 16 bf 61 0b 11 bf 9d c5 93 3f b8 c4 69 bf
       -0.5874316 -0.5665799 1.1544682 -0.91315794
000270 85 af 44 bf 86 aa 2d bf 9e b6 1c bf 04 4b 8a 3d
       -0.7683032 -0.67838323 -0.6121615 0.06752589
000280 91 90 9f bf ab 30 82 bf 11 d0 59 3f b8 a3 09 bf
       -1.2465993 -1.0171102 0.8508311 -0.5376544
000290 6b cc 8b be 4f 43 d7 3d ef 39 83 bf 12 bd c6 be
       -0.27304396 0.10510885 -1.0252055 -0.38816124
0002a0 2f a3 03 c0 bc f2 37 bf 06 64 01 40 cf a0 be be
       -2.056835 -0.7185476 2.02173 -0.37232062
0002b0 72 e1 a0 bf 3b 36 76 bd da de 84 3e d7 88 ff 3e
       -1.25688 -0.060110312 0.25951272 0.49909088
0002c0 91 da 3c 3d 33 a4 97 bf b6 6a 5d bf 29 5d dd 3e
       0.04610688 -1.1846985 -0.8649095 0.43235138
0002d0 b8 e0 17 bf fc b4 22 3f ca 62 37 bf f4 66 19 bf
       -0.5932727 0.6355741 -0.71635115 -0.5992272
0002e0 1e 9d 6c 3d 1f 52 2d bd 89 90 7d be 5e bd 06 bd
       0.057767026 -0.042314645 -0.24762167 -0.03289544
0002f0 39 d3 6b bd b0 a2 e6 bb 04 00 82 3e 70 78 5f bd
       -0.057574484 -0.007038437 0.25390637 -0.054558218
000300 2b ce 52 3f 08 bf 0c 3f 0a af 57 bf ca 5a f1 3f
       0.8234584 0.5497899 -0.84251463 1.8855832
000310 06 22 9f 3f 4f 54 ed bd 0f be be 3e ad ce 84 3d
       1.2432258 -0.11588346 0.37254378 0.06484733
000320 c1 af 2b be 56 26 af bf 8f 7b c3 be 2c a8 b1 3f
       -0.16766264 -1.3683574 -0.38180205 1.3879447
000330 74 ac 1e 3d d2 36 48 3f 5e 55 ab be cc 2a 27 bf
       0.038738683 0.7820865 -0.33463567 -0.6529968
000340 88 11 2f 3f 79 42 8f 3e c0 63 fe bf 9d 3f b6 3e
       0.68386126 0.27980402 -1.9874191 0.35595408
000350 82 cf df be eb 60 ea 3f 91 e8 40 bf 30 50 3e bf
       -0.43713003 1.8310827 -0.7535487 -0.74341106
000360 ba aa da bf 44 c2 5e bf cb 0b 6c be 52 24 c3 bd
       -1.7083352 -0.87015176 -0.23051374 -0.09528412
000370 26 b2 b4 3f 81 93 10 40 af 70 db 3e 0a 13 45 bf
       1.4116867 2.259003 0.42859408 -0.76982176
000380 d5 c0 12 3f cd 7b 2f 3f 0e 01 25 bf 08 8b 1f bf
       0.5732549 0.6854828 -0.64454734 -0.6232152
000390 7e b6 e5 bf 5c 97 07 bf 8d 87 97 bf 04 14 c1 bf
       -1.7946317 -0.5296533 -1.1838242 -1.5084233
0003a0 69 ff 28 be 6a be 12 bd b9 9b d1 bf 6d 87 d8 3f
       -0.16503681 -0.035826124 -1.6375648 1.6916329
0003b0 d8 d9 40 bf 73 f1 3c 3f 41 bd 19 bf d4 56 90 3f
       -0.75332403 0.7380592 -0.60054404 1.1276498
0003c0 a7 29 ae bf 3e 10 2a c0 27 95 4e 3f 7d df 46 3e
       -1.3606461 -2.6572413 0.8069634 0.19421192
0003d0 ca c8 13 3f ea b2 15 3f 2c 7e 4e bf 33 81 bc be
       0.57728255 0.58476126 -0.80661273 -0.3681732
0003e0 6c c1 21 be 55 90 7f bf ab ee 26 bf 9f 91 12 be
       -0.15796441 -0.9982961 -0.6520793 -0.14313363
0003f0 63 1e 27 40 ce 26 f0 3e d6 ea 1c bf 3e b4 09 bc
       2.6112297 0.46904606 -0.6129583 -0.0084047895

network.0.bias f4 [256]
000000 9c 2c 82 bd 07 2f f4 3e 5b bc 3a bf 9f 62 7f be
       -0.06356165 0.4769213 -0.7294366 -0.24939965
000010 70 d4 e0 be 08 e6 1e be 21 d3 6f be 2a f7 76 be
       -0.43912077 -0.15517437 -0.23420383 -0.24117723
000020 33 c1 1f bc 4a 34 ad be 27 24 34 3d ef ab 4e 3c
       -0.009750652 -0.33828956 0.04397979 0.012614234
000030 94 26 c5 bd 91 20 b3 3e b6 26 6b be 53 a9 41 be
       -0.09626499 0.34985784 -0.22963986 -0.18912248
000040 45 5b 07 bf fe 24 c6 be 17 8d 83 3c a3 4f bd be
       -0.5287364 -0.38700098 0.016058488 -0.3697482
000050 4a 37 a7 3e d3 b3 cf 3c 3d ea 5f bf a0 0b 13 bf
       0.3265937 0.025354302 -0.87466794 -0.57439613
000060 b0 c0 54 3f c4 5a 3f bf 77 88 3d bf 8b 8a fe be
       0.8310652 -0.7474787 -0.74036354 -0.49715075
000070 45 ff 89 3e 03 8b 93 bc 99 05 99 be 3e 16 74 be
       0.26952568 -0.018010622 -0.29887083 -0.2383661
000080 20 d6 11 bd db cc 08 bf 07 bb 80 be 78 eb 09 bf
       -0.035604596 -0.53437585 -0.2514269 -0.5387492
000090 98 e5 e6 be cd e6 11 3f b8 42 0f bd cf d6 a9 3e
       -0.4509704 0.569928 -0.034975737 0.33171698
0000a0 74 27 0a bf f0 a5 41 3e 7b 4c 9c bd fd 81 1e 3e
       -0.5396645 0.18910956 -0.07631775 0.15479274
0000b0 a3 36 ed be bd 14 48 3d d1 91 47 bf 47 b5 ce be
       -0.46330747 0.048847903 -0.77956873 -0.4037268
0000c0 50 8b 10 bf 21 9e 59 3e f5 55 9f be 62 1b 87 be
       -0.56462574 0.21251728 -0.31120268 -0.2638808
0000d0 5b ef 0d bf 46 51 f1 be 72 2e 50 3d b7 24 5c 3f
       -0.5544335 -0.4713232 0.050825544 0.8599352
0000e0 f5 4a 7a be 63 e6 98 be 02 77 0b be 1a 6f e3 3e
       -0.24442656 -0.2986327 -0.13619617 0.444207
0000f0 6a 7c 12 bf 89 d9 84 3e cd a3 49 bf 90 84 ad bf
       -0.5722109 0.25947216 -0.78765565 -1.355608
000100 3f 8d e0 3d 27 26 87 be 03 4e 25 3e 13 3a b4 bd
       0.109644406 -0.26396295 0.1614304 -0.08800139
000110 c7 79 75 3f 4b 7a 25 bf 66 dc bf be 01 14 ee be
       0.9588894 -0.6463973 -0.37472838 -0.46499637
000120 72 cd b7 be a9 ce ed 3d ae f3 94 be b8 8b e9 bd
       -0.3589893 0.11611683 -0.29092163 -0.11403602
000130 7b 4f fc be 88 69 13 bf 6f af 89 3f 2d 8f 6f 3d
       -0.4927939 -0.575829 1.0756663 0.058486152
000140 e8 aa 00 3f 8a e4 66 3e da 82 6f bd 44 f2 4d bd
       0.5026078 0.22548118 -0.0584744 -0.05027987
000150 18 fb 55 be f2 c7 96 be 20 bc de bd ee b7 1f bd
       -0.20896566 -0.2944942 -0.10875726 -0.03899377
000160 63 92 b2 3e e8 a4 49 be cd 3b 9c 3e 36 04 8f be
       0.3487731 -0.19691813 0.30514374 -0.279329
000170 7a 8a 8b 3e e3 82 a2 be fe 73 b3 bd 49 a6 a4 be
       0.27254087 -0.31740484 -0.08762358 -0.32158116
000180 dd a6 70 be d4 ee f7 be e9 1c 97 3e e0 b2 c3 be
       -0.23501153 -0.484244 0.29514244 -0.38222408
000190 42 6f ae be b3 77 f2 3e ad df 02 bf 03 4c 15 bf
       -0.34069258 0.47356948 -0.5112255 -0.5831911
0001a0 eb 95 5b be 5e a0 39 be 17 e8 4b 3f 64 c2 0b 3f
       -0.21443908 -0.18127581 0.79651016 0.5459349
0001b0 e4 05 39 3f 38 20 08 bf 74 67 f6 3e 13 60 49 bd
       0.72274613 -0.5317416 0.48125803 -0.04916389
0001c0 f7 30 51 bb 39 ea 72 3e 92 3a cf be a7 81 15 bc
       -0.0031920054 0.23722161 -0.40474373 -0.00912515
0001d0 c6 67 a3 be 9f f5 d7 be ce d0 64 3e fd ed e7 be
       -0.3191511 -0.42179582 0.22345278 -0.45298758
0001e0 d7 53 11 bf b3 c5 57 be 9e 70 40 3e 0f f4 3c be
       -0.56768554 -0.2107151 0.1879296 -0.18452476
0001f0 67 7e 12 3f 16 89 3e bf 19 2b 35 bf 5d 56 67 3e
       0.57224125 -0.74427927 -0.70768887 0.22591539
000200 da 69 57 3f c4 06 c5 3c 4e 51 57 3f ab a6 56 bf
       0.8414589 0.024051078 0.84108436 -0.83848065
000210 22 d1 7d be ce d2 67 3e e2 22 c1 be c7 34 40 3e
       -0.24786809 0.2263901 -0.37721926 0.18770133
000220 ec e7 86 3e d9 73 4a bf a6 93 f8 be 75 9a a2 bc
       0.26348817 -0.7908302 -0.48550147 -0.019849041
000230 9e f8 9a 3e 03 f0 80 bf 5f 3a ad be 29 6c e0 be
       0.30267805 -1.0073246 -0.33833596 -0.4383252
000240 98 f2 22 bc b6 7b 7c bf 03 71 11 bf fb 9d 08 bf
       -0.009945534 -0.9862627 -0.5681307 -0.5336606
000250 ab 2b 16 bf 3d a8 f1 3e 4d 53 d5 3e 93 a9 ea 3e
       -0.5866038 0.47198668 0.41665116 0.458325
000260 f7 1c b4 3e 54 55 a0 3d fc e6 df be 82 d7 9e be
       0.35178348 0.07828775 -0.43730915 -0.31023794
000270 44 45 4c bf 70 45 94 bf b0 7e 43 bf 17 a6 c4 bc
       -0.7979319 -1.1583691 -0.76365185 -0.024004979
000280 19 c8 1d bf a4 1d 43 3e 68 76 13 be 24 e7 2c bf
       -0.6163345 0.19054276 -0.14400637 -0.6754019
000290 40 bb a6 3c 21 fe d4 bd b0 75 93 bd 33 3b d2 bd
       0.02035296 -0.10400034 -0.072001815 -0.102651976
0002a0 6a 38 c6 be 9a f1 e7 be 74 79 f6 3d e1 28 5f bf
       -0.38714916 -0.45301515 0.12034884 -0.8717175
0002b0 5b 3f b5 be bf 68 0e bf 70 e0 ac 3d 3d ad 90 3d
       -0.353999 -0.5562858 0.084412456 0.070642926
0002c0 9f 38 cf be 2e 2c dd be 61 d0 b8 be 7d 56 ac bd
       -0.40472886 -0.4319777 -0.3609648 -0.08414934
0002d0 0d b4 9a bd 54 a7 39 bf 32 c8 da be 94 19 54 bf
       -0.07553873 -0.7252095 -0.42730862 -0.8285153
0002e0 21 6c 8f 3d cb 6a cd bd d4 87 60 be 93 e0 97 bd
       0.07003046 -0.10030135 -0.21926814 -0.07415881
0002f0 e3 c2 56 bf e5 e3 7f be 50 92 bb be 26 51 2d bf
       -0.83891124 -0.24989279 -0.36635065 -0.6770195
000300 67 6a 8a bd 83 da f7 3e a0 73 ed 3f 9d a0 cd be
       -0.06758576 0.484089 1.8550911 -0.401616
000310 b9 a9 f9 be ca 60 fc 3e 48 1f b8 bc 98 b3 5e bd
       -0.487623 0.49292594 -0.022475854 -0.054370493
000320 fe d6 11 3e 5d c9 26 bf 95 8a d8 be 4a 06 e1 be
       0.1424217 -0.65151006 -0.4229323 -0.4395011
000330 1c e1 d5 be 48 d3 a2 be c8 c8 bf 3e e9 1b 17 bf
       -0.41773307 -0.3180182 0.3745787 -0.5902696
000340 21 4c 5c bf 20 6a 3b bf 95 90 e5 be d9 6a 15 3e
       -0.86053663 -0.7320881 -0.4483687 0.1459154
000350 e1 ba 54 3b 47 15 fe 3c 04 f1 87 be 42 8c 07 bf
       0.0032460021 0.031016005 -0.26551068 -0.5294839
000360 7d b2 92 3e 87 13 4b bf be 49 ba 3d 1c 52 5b 3e
       0.286518 -0.7932667 0.090960965 0.21418041
000370 45 87 15 bf ea 5f a1 3e 51 93 25 3f 79 06 67 bf
       -0.5840953 0.3151849 0.6467791 -0.9024425
000380 41 37 ce be 4e 4f 84 be 33 b3 f1 be 74 d3 82 be
       -0.4027653 -0.25841755 -0.4720703 -0.2555195
000390 71 0d 97 be 03 f8 4b bf be 72 31 bf 4d 2f 7b bf
       -0.29502442 -0.7967531 -0.6931571 -0.9811905
0003a0 aa a6 15 bf 9b 8d 84 bd 93 5d cd be 6d 8c 03 3f
       -0.58457434 -0.064723216 -0.40110454 0.5138615
0003b0 2a 64 81 3f d2 f5 34 ba c9 dc c4 be 6b 80 b0 3e
       1.0108693 -0.0006903085 -0.38449696 0.34472975
0003c0 0b 1f 40 3f b9 88 2d bf d1 43 26 bf ed b6 bb be
       0.7504737 -0.6778675 -0.6494723 -0.36663
0003d0 2d 53 3d 3e 43 27 cc be bb ca f9 bd 92 85 a1 be
       0.1848876 -0.39873704 -0.12196871 -0.3154722
0003e0 f7 95 d2 be 91 2c 04 be d8 79 0b be 27 03 f6 be
       -0.4113004 -0.12907626 -0.13620698 -0.4804928
0003f0 61 58 a2 3e b3 e8 ec be e7 15 f0 bd ba f2 6a bc
       0.31708053 -0.46271285 -0.117229275 -0.014340097

network.2.weight f4 [256, 256]
000000 34 29 1a 3e e3 ae 51 3d c7 2d 53 bd ae d0 f4 3d
       0.1505478 0.051192176 -0.05155733 0.11953865
000010 41 31 71 be 4e 9f 99 bd 3d 0b f3 bc 3d 70 21 3f
       -0.23553945 -0.07501088 -0.029668445 0.6306189
000020 01 2d 1b 3e 22 0f 51 3e 67 d6 82 bd 9e 2c 97 3d
       0.15153886 0.20415929 -0.0638855 0.07381557
000030 19 ce fb 3d 26 6b b5 be 2f 7a 54 bc 89 41 e1 3d
       0.122951694 -0.3543331 -0.012968584 0.10998828
000040 57 b5 02 3e 22 77 21 bc b6 b7 66 be 15 26 06 3f
       0.12764488 -0.009855064 -0.22531018 0.5240186
000050 d4 32 69 3e d4 69 4f 3e a8 18 a9 bd 79 fb 20 bd
       0.22773296 0.20255214 -0.08256656 -0.039302323
000060 b9 66 5f be e8 19 0e bd 4f 79 74 be 6c 99 07 3d
       -0.2181653 -0.034692675 -0.238744 0.0331053
000070 c0 82 c5 bd cf 87 c8 bd 5e 0f 7d be 3c 5c dd be
       -0.09644079 -0.097915284 -0.24712893 -0.43234432
000080 ae 9b 91 bd 7c bd 0b 3e bf 44 77 bd 03 63 22 be
       -0.07109772 0.13646501 -0.060368296 -0.15858082
000090 84 20 99 bc 6b c5 0f be 3b ca a2 be 5d 89 95 bd
       -0.018692262 -0.14040153 -0.31794915 -0.073015906
0000a0 30 73 02 3d 58 73 22 3d b6 40 c6 be dd 39 6f 3d
       0.031848133 0.03966078 -0.38721246 0.058404792
0000b0 c0 a0 b1 3d 14 10 35 3e dc 59 87 be 24 83 21 3e
       0.08673239 0.17681915 -0.26435745 0.15772682
0000c0 a5 93 21 be 36 6c a9 be 59 e4 38 bc 80 f1 d8 3c
       -0.15778978 -0.3309037 -0.011284911 0.026482344
0000d0 e4 f2 b4 bd 2d 80 86 bd 8e ab af be 94 fd 7a be
       -0.0883539 -0.06567416 -0.34310573 -0.24510795
0000e0 f7 5a 12 be 84 45 62 bd fc da 88 be db b6 01 bd
       -0.14292513 -0.055242077 -0.26729572 -0.031668525
0000f0 b1 19 0e bd a2 71 a5 be eb 9d a6 3e 94 08 19 3e
       -0.03469247 -0.32313257 0.32542357 0.14944679
000100 49 01 d9 bd 6a b8 2f 3d a9 7f 6a 3b 33 fb 64 3d
       -0.10595948 0.04290048 0.0035781658 0.055903625
000110 6a 2e ee be c9 0a 5c 3e cf f1 89 3d 82 f1 9a be
       -0.46519786 0.21488489 0.067355745 -0.3026238
000120 dc 3d 70 be 81 72 7c 3d 12 72 1f 3f 8e 5e 62 3e
       -0.23461097 0.061632637 0.6228343 0.22106382
000130 c1 76 48 3e 92 d6 cb 3e 6d 5d 65 be 63 2c 90 3b
       0.19576551 0.39812142 -0.2239892 0.0043998226
000140 b9 14 d4 3d bd c7 05 bf 75 4a c0 be 7f 27 c8 3d
       0.10355515 -0.522579 -0.37556806 0.09773158
000150 01 f0 10 be d7 f2 01 3e 0b 78 06 3b 75 ff 27 bc
       -0.14154054 0.12690292 0.0020518329 -0.010253777
000160 03 bd d8 bc 04 55 28 be 7d 74 6b be cc fe aa 3d
       -0.026457315 -0.16438681 -0.22993656 0.0834938
000170 62 ba dc 3d 04 0b 77 be b1 d8 ee be 70 12 11 3e
       0.10777737 -0.24125296 -0.46649697 0.1416719
000180 8f 8d 8d be dd 36 51 3d df da 8e 3d 0c 69 1e 3b
       -0.27647063 0.051077712 0.0697534 0.00241715
000190 c0 44 1d bb fe ef b7 bd 82 50 42 be a0 90 19 39
       -0.0023997277 -0.08981322 -0.18976024 0.00014645094
0001a0 4a 67 4c 3e 67 31 37 be 54 b1 2f bd b6 fb 7e be
       0.19961277 -0.17889939 -0.042893723 -0.24900708
0001b0 5b 8f 98 be 5a b3 fa 3b 08 20 e8 be a7 78 4b bd
       -0.29796872 0.007650775 -0.45336938 -0.04967561
0001c0 ea 69 50 be b1 3b 1c bd 12 4c 0f 3e 97 c2 90 be
       -0.20352903 -0.038142864 0.13993862 -0.2827346
0001d0 1d 1b 4d bd 00 b4 84 bd 7f 41 8e be 3a 05 eb bd
       -0.050074685 -0.06479645 -0.27784345 -0.11475606
0001e0 b3 6d cd be 68 eb 6c bd db bc 04 bc 07 80 32 bd
       -0.40122756 -0.05784169 -0.008101667 -0.043579128
0001f0 39 7a 4c 3e c3 50 85 3d 81 a2 e8 bd 62 6c 32 be
       0.19968499 0.06509545 -0.1135912 -0.17424157
000200 16 85 83 be 9e b6 e3 3d 85 2a 35 bf 5c 64 13 3e
       -0.25687474 0.11118816 -0.70768005 0.14393753
000210 6c 00 98 3d a5 ff 6c 3e ac 73 8c bd 00 15 1c be
       0.074219555 0.23144396 -0.06858 -0.15242386
000220 d2 b7 7b bd 0f 82 1f bd 6f bd 36 3e 48 9a 28 3e
       -0.0614546 -0.038942393 0.178457 0.16465104
000230 7c c5 e4 bd d0 21 d8 3e 5f f6 4f be bc 23 0a bf
       -0.1117048 0.42213297 -0.20308827 -0.53960776
000240 5d 24 24 bf 52 5a bb bd d2 df a0 3d 63 52 13 be
       -0.64117986 -0.091480866 0.0785519 -0.14386897
000250 e5 5f 9c bd 72 c7 c3 be fb be 6d be 0e 51 fd bc
       -0.07635478 -0.38238102 -0.23217385 -0.030922439
000260 70 9d b7 be 42 84 57 3e d8 06 95 bd b2 ea ed bc
       -0.35862303 0.21046546 -0.07276696 -0.029042576
000270 5a fe 1c be f4 8f 1c bc 29 4c 19 bd 8e 24 07 bf
       -0.15331402 -0.0095558055 -0.037426148 -0.52790153
000280 ef 84 4f be c2 34 81 bf e3 55 86 3e 79 39 f5 bd
       -0.20265554 -1.0094225 0.262374 -0.11973853
000290 2c f2 cd 3c 37 a1 3d be 9d 07 1c bd ef fa cf be
       0.02513989 -0.1851853 -0.038093198 -0.40621135
0002a0 38 91 41 3d b1 60 8e 3e cc b5 cc be 45 45 22 be
       0.047257632 0.27808145 -0.3998245 -0.15846737
0002b0 77 ce 9c be 2c 86 88 be cb b6 34 be 85 92 39 be
       -0.3062627 -0.26664865 -0.17647855 -0.18122299
0002c0 2a 64 25 be 3e 35 17 be d5 e8 27 be 8e a6 54 3c
       -0.16151491 -0.14766404 -0.16397412 0.012979163
0002d0 18 3c 57 3d 91 96 89 be 09 6e 77 bd 7a b7 98 be
       0.052547544 -0.26872686 -0.060407672 -0.29827482
0002e0 14 b8 85 be ea c3 93 bd 91 8a 65 be 60 fa 30 3e
       -0.26117003 -0.07215102 -0.2241614 0.1728301
0002f0 6d 0a dd 3c ed 06 77 3e 76 d9 c3 3c b4 1a 6f bc
       0.02698251 0.24123736 0.023907404 -0.014593769
000300 0f f4 10 bf 26 fa 20 bf b0 7c a2 bd e2 e7 76 3e
       -0.56622404 -0.62881696 -0.079339385 0.24111894
000310 20 ba 3e 3d c0 bc 06 3e 9e 2a 0e be f5 fa 3e be
       0.04656422 0.1315794 -0.13883445 -0.1865042
000320 68 f6 a3 be 8e f1 29 3e 5b 41 91 bd 07 59 55 be
       -0.3202393 0.16596052 -0.07092544 -0.20834742
000330 2c e9 f2 3d 9f c5 ac be 88 32 97 be 78 b7 bc bd
       0.1186088 -0.33744523 -0.2953074 -0.092146814
000340 9e 94 82 3c 78 b8 70 3d 69 f3 24 bf e9 ee 43 bb
       0.015940007 0.058769673 -0.64433914 -0.002989704
000350 0c 86 f4 bd 30 ef 7e 3d 2a c6 c2 be af 2a 95 be
       -0.1193963 0.062239826 -0.38041812 -0.29134127
000360 c2 08 9a be 63 f1 40 3e a8 2e d3 be c1 cb 87 be
       -0.30084807 0.18842082 -0.41246533 -0.2652264
000370 66 9a e1 3d e1 a6 02 bc 20 05 2f bf 8b 49 48 bd
       0.11015777 -0.007974357 -0.68367195 -0.04889826
000380 47 72 01 bd ad 10 eb bc ee 8f 46 3d 0d ff 46 3e
       -0.031603124 -0.028694475 0.048477106 0.19433232
000390 e4 b6 ab be 93 c7 04 3e bd f3 a9 be d6 20 a1 3e
       -0.33537972 0.12966757 -0.3319377 0.31470364
0003a0 5f 55 1c 3e be 72 0f 3e 7e 11 b8 bc 94 8f c1 be
       0.15266941 0.14008614 -0.022469278 -0.37804854
0003b0 8f b9 54 bd 8b fe 2a be 63 03 d0 bd e0 f7 df 3e
       -0.051934775 -0.16698663 -0.10156896 0.437438
0003c0 1f e3 a5 bc a7 77 a5 3e 41 c8 01 bf e2 b5 eb 3b
       -0.020249901 0.3231785 -0.5069619 0.007193313
0003d0 e2 ce f8 be 95 17 86 be 8e a7 a3 be 52 5f a9 be
       -0.4859534 -0.26189867 -0.31963772 -0.33080536
0003e0 37 3e dc bd 65 d4 07 bf 0c f2 f5 be 7b 98 0d bd
       -0.10754054 -0.53058463 -0.4803623 -0.034569245
0003f0 72 fb be be 24 90 db 3d 15 c6 50 be 4b 47 72 be
       -0.37301213 0.10720852 -0.20388062 -0.23660009

network.2.bias f4 [256]
000000 d7 1e 89 3e 3a 08 c3 be 77 0e 1f be ea 47 43 bd
       0.2678134 -0.38092214 -0.15532862 -0.047676004
000010 f2 15 46 3e 4c ff 76 be ad 10 b8 bc f4 63 5e 3e
       0.19344309 -0.24120826 -0.02246889 0.21717817
000020 35 d8 de bc ec d3 95 3f 01 52 5a 3e 1a bf 99 bd
       -0.027202705 1.1705298 0.21320345 -0.07507153
000030 f8 f4 47 3d 15 85 04 3e 70 ac 40 3e b8 fb 2d 3f
       0.048817605 0.12941392 0.1881578 0.6796222
000040 82 f5 d2 3d 6c 6d b2 3d a1 bf 6c bc 06 c2 6b bd
       0.10300733 0.08712277 -0.014449985 -0.057558082
000050 e7 57 8b 3f 4b c6 7b 3c d1 63 32 be d2 2e 1f bd
       1.0886201 0.015367101 -0.1742089 -0.03886301
000060 c0 bd 0a 3c 12 9d 96 bd 2e cf 78 bd 45 66 92 3d
       0.0084680915 -0.073541775 -0.060744457 0.071484126
000070 e1 74 bb 3c 69 1f d1 3c 5c f4 e3 3e aa 6e 16 bd
       0.02288288 0.025527673 0.4452237 -0.03672663
000080 18 5c 9b 3e 1c 21 b9 3e 81 89 b3 bc 99 78 d4 bd
       0.303437 0.36158073 -0.021916153 -0.10374565
000090 6a ed bd 3d d5 e4 b8 3d 44 8e ad bd 38 a2 c4 3d
       0.09273799 0.09028021 -0.08474401 0.09601253
0000a0 06 27 09 be 16 cd a8 bd 60 47 87 be c3 12 6d be
       -0.13393793 -0.08242242 -0.26421642 -0.23151688
0000b0 ec 4a 1d 3c 10 0d ad 3e 8a 2a 66 bd 5a 44 11 bd
       0.009600382 0.33799028 -0.056192912 -0.035465576
0000c0 fb 46 dc 3e 21 59 4a 3f 20 3c 91 3f 44 92 be be
       0.43022904 0.7904225 1.1346474 -0.37220967
0000d0 69 84 d3 bd 8e 90 25 bd f3 57 a9 bd 91 69 93 be
       -0.103279896 -0.04042106 -0.08268728 -0.28791478
0000e0 71 80 13 3e 25 e5 95 3f 8d b5 f4 3e 3a 52 cf bc
       0.14404465 1.1710554 0.47794762 -0.025307763
0000f0 e9 85 5c bd 7e 29 a2 bd 62 60 7d 3c e3 98 d1 3e
       -0.053838644 -0.0791807 0.015464874 0.40936956
000100 05 ac 8c bc f4 e6 75 bd 60 1a b8 bd bc 52 8e 3c
       -0.017171869 -0.060034707 -0.08989406 0.017373435
000110 0b 54 12 bb f4 9b f2 bb a7 d9 a6 3d a7 89 1a bd
       -0.0022327926 -0.007403845 0.08146983 -0.03772893
000120 23 0f 8a bd c4 ca 68 3e 76 5e 0a bf 84 7c 3d bd
       -0.06741168 0.22733599 -0.54050386 -0.046261325
000130 1a 9d b2 3d c1 42 9d bd 00 2f 3d bc a9 a1 89 3f
       0.08721371 -0.07678748 -0.01154685 1.075246
000140 0b 4c dc 3d 97 02 a4 bd 6f aa b7 be d5 52 aa bd
       0.107566915 -0.080083065 -0.35872218 -0.0831658
000150 b6 47 80 bd 69 a4 6d 3d a9 d0 b4 bb f5 64 73 bc
       -0.06263678 0.058018122 -0.0055180383 -0.014855613
000160 84 5b a2 bd 5c fd c6 bc b9 35 78 3d 13 a6 53 3e
       -0.079276115 -0.024290733 0.06059811 0.20668821
000170 96 cb bc 3c 2d f2 8f bd 03 c9 a2 bd 4a 7d 6e bd
       0.023046296 -0.07028613 -0.07948496 -0.058224954
000180 9e e8 42 bd 82 74 cf bc 02 61 da 3f 22 1d d0 3c
       -0.047585122 -0.02532411 1.7060854 0.025404517
000190 60 ed c1 3e 24 3e dd bd 61 2b 7e 3c 3d 74 a1 bd
       0.37876415 -0.10802868 0.015513272 -0.07883499
0001a0 2e 26 ca bd fe 9c c6 bd 2c 12 52 3f 09 96 d0 3d
       -0.098705634 -0.09697913 0.8205898 0.10184867
0001b0 93 e2 8b bd 94 8b 79 3e c0 ae 32 bd f1 9e 56 bd
       -0.06830325 0.24369651 -0.043623686 -0.052397672
0001c0 2c 53 32 3d 92 a3 ca bd 05 cd 1a 3f c9 36 6b bc
       0.04353635 -0.0989448 0.60469085 -0.0143563235
0001d0 e6 07 da bd 5d 6e b7 bc 17 09 d1 3d 7f fb e5 3e
       -0.10646038 -0.022391493 0.10206812 0.4491844
0001e0 e1 8a ee 3f a0 15 66 3e 5c 0b d6 bd cd 25 ab bd
       1.8636132 0.22469187 -0.104513854 -0.08356819
0001f0 2f d8 24 be 16 30 1b be 42 d8 c9 bd f0 13 38 3f
       -0.16098092 -0.15155062 -0.09855701 0.7190542
000200 f6 65 a0 bc b8 b4 ca 3d 8d c6 9e bd c5 06 08 bc
       -0.019579869 0.098977506 -0.07752714 -0.008302395
000210 03 5b a7 bd 36 19 8a be 2f 50 ac 3e 7e d4 40 bd
       -0.08171656 -0.2697236 0.33654925 -0.04707765
000220 a9 6a 7c be eb 26 1c 3e 88 bf 1f 3f bc 95 a6 bd
       -0.24650063 0.15249221 0.6240163 -0.08134028
000230 c7 c3 71 3c 21 dd 5e bd 5e 42 c0 bd ab 9d 20 bd
       0.01475615 -0.054410104 -0.093876585 -0.039212864
000240 7a 59 9a 3c 90 cd 16 3e 2b 59 07 3f 3c 17 32 bc
       0.018841494 0.14726853 0.52870435 -0.010869797
000250 bd f9 39 bd 88 78 8a bd 9d 6f fc be f4 6d 9c bd
       -0.045404185 -0.06761271 -0.49303904 -0.076381594
000260 75 34 ae 3e a5 2b c2 bd 55 6f 09 3e 3e ff eb bd
       0.34024397 -0.09480981 0.13421376 -0.11523293
000270 64 cd aa bd 9a b2 f4 bd c1 2d c2 3e 1d 2f 67 bd
       -0.083399564 -0.11948128 0.37925532 -0.056441415
000280 91 16 a6 be 1c cf 8e bd 8d 2d d4 3d 57 f7 45 be
       -0.32439092 -0.06973097 0.103602506 -0.19332634
000290 eb b3 aa bd e2 ea 1b bd 8d ce ec bc d7 5a d2 bc
       -0.08335098 -0.0380658 -0.028907085 -0.025678081
0002a0 56 48 01 bd 51 7f 64 3e 81 01 77 bd 47 8a 0e be
       -0.031563126 0.22314192 -0.06030417 -0.13919936
0002b0 0c 4e a7 bd fb d2 f7 bc 01 0d 26 bd d0 78 7b 3c
       -0.08169183 -0.03025197 -0.040539745 0.015348628
0002c0 80 2e ea bc 09 62 8f 3e cf 8e d2 3e f7 7e be bd
       -0.028586626 0.28004482 0.4112458 -0.0930156
0002d0 5f 96 da be 75 2a 7c bc 8e 7c 30 3c 0c 8d de bd
       -0.4269285 -0.015390982 0.010771884 -0.10866746
0002e0 5b e1 ba bd 27 5a 97 3d c7 09 3f bc a4 71 0a bb
       -0.091250144 0.07390242 -0.011660046 -0.0021124864
0002f0 99 65 9c bc 4d 6f a1 3d 9a 6d 86 be e7 32 95 3c
       -0.019091414 0.07882557 -0.26255494 0.018212749
000300 69 bb ad be 80 b2 8d 3c 37 f9 13 3e 71 26 50 bd
       -0.33932045 0.01729703 0.14450537 -0.05081791
000310 81 dd a2 3d 8c 99 cc 3d 15 62 ca bd 1a cc ce bd
       0.07952405 0.09990224 -0.09881989 -0.10097523
000320 56 b2 92 3d fe 36 d6 3e f2 51 09 be d2 1b e5 bc
       0.07162921 0.4183883 -0.13410166 -0.027967367
000330 0f 7d 6f bd 54 fb 01 bd 88 ff 83 39 2f 20 9a bd
       -0.058468875 -0.031733826 0.00025176653 -0.0752567
000340 51 b2 a9 bc 43 d3 b3 bd 09 da 0c bc 48 1d 99 3e
       -0.02071491 -0.08780529 -0.0085969055 0.29905152
000350 95 b8 b5 bd ab d5 57 bd ad 5b 1c 3e b8 fb 84 be
       -0.08873097 -0.052694004 0.15269347 -0.25973296
000360 b4 42 25 be af 2a ea bc 1c ae 39 3d 17 4b 2d 3f
       -0.16138726 -0.028584806 0.04533206 0.67692703
000370 ad a3 89 bd 7b 06 ef 3e 03 9e 35 bc c2 73 01 3e
       -0.06720672 0.46684632 -0.011085036 0.12641814
000380 15 00 d3 bd a8 46 83 3d 12 3b 09 bd 7d 65 65 3d
       -0.1030275 0.06409961 -0.0335036 0.05600499
000390 ca 11 61 bd eb 3d 8e 3f af 1e 09 bd 2d f1 41 be
       -0.054948606 1.1112646 -0.033476528 -0.18939658
0003a0 9e 61 c1 bd 38 7a 45 bc db cd 09 bd 7e 84 87 bd
       -0.09442447 -0.012053065 -0.033643585 -0.06617068
0003b0 ee e8 ec 3e 72 62 36 be e2 94 e3 3c 6f ab 37 3d
       0.4627146 -0.17810991 0.027780954 0.044841226
0003c0 93 3e 7c bb 7c 5d c2 bd 1a 09 2d 3d 5d ae e5 3d
       -0.0038489446 -0.09490487 0.042245008 0.11214898
0003d0 fb 6c 2e 3e 98 b5 c4 3d 71 81 87 bd 79 98 8b bd
       0.1703376 0.09604949 -0.06616486 -0.06816191
0003e0 e6 a0 8b 3e 4f 6a 71 be fd 12 11 bd 4b 6c 5d bd
       0.27271193 -0.2357571 -0.0354185 -0.054058354
0003f0 71 8a 96 bd 6a 86 97 bd 23 63 2e 3d 18 1e b4 3e
       -0.07350624 -0.07398684 0.042575013 0.3517921

network.4.weight f4 [1, 256]
000000 0f 76 d7 3a cc 17 71 bd fe fe e0 bb e0 ba 9c ba
       0.0016438382 -0.058860585 -0.006866335 -0.0011957549
000010 e1 01 62 3e 1c 02 72 3d 19 76 c3 3c e4 a5 4c 3d
       0.22071029 0.059084043 0.023860024 0.049962893
000020 6b 9a d0 3b 75 b4 59 bf 1e 75 0c bc b7 40 13 bc
       0.0063660643 -0.8504098 -0.008572845 -0.008987597
000030 97 b5 04 3d dd cc 3a ba 0d 4d c7 3d 12 98 5e bd
       0.03239974 -0.0007125864 0.09731493 -0.054344244
000040 c3 a5 1f 3d 23 fa 29 3b f5 82 cd bc 52 90 00 bc
       0.038976442 0.0025936447 -0.02508686 -0.007846909
000050 74 8f 2c bd c8 4c cc 3b b9 63 c3 be 4b 13 c7 3c
       -0.042128995 0.006234739 -0.3816202 0.024301192
000060 0e e9 64 3c 50 cd 8c 3c 31 02 0c 3c cf 90 c1 bc
       0.01397158 0.017187744 0.008545444 -0.02362862
000070 a5 e1 ae bb f6 66 6e 3e c4 2f 23 3d 5a 88 05 bb
       -0.0053369575 0.23281464 0.039840475 -0.0020375461
000080 71 62 7e 3f 93 2c b7 3e af 32 2a 3d 8d 33 03 3d
       0.9936896 0.35776195 0.041552242 0.032031585
000090 d8 b5 69 3d be 1b 09 bc a3 93 43 bc b0 f0 f8 bc
       0.057058185 -0.008368431 -0.011937055 -0.030388206
0000a0 c9 d8 ff bd 87 8b c2 bc 2f 1e c6 bb 72 53 c9 3d
       -0.1249252 -0.023748172 -0.0060460786 0.09830369
0000b0 b2 26 34 bb 5a f2 d7 be 25 99 67 3c 72 4c e5 3c
       -0.0027488885 -0.42177087 0.014135634 0.027990554
0000c0 6f 60 9b be 54 2f f2 3d ce ac 0c bf 87 3d d6 bc
       -0.3034701 0.118254334 -0.5495118 -0.026152385
0000d0 da d6 f0 bc 46 48 1d bb 51 eb a9 3c 18 a5 38 bd
       -0.029399324 -0.0023999377 0.02074209 -0.04507932
0000e0 cd ae 99 bb 14 47 c2 3e 75 6a eb 3e c0 6d c9 3a
       -0.0046900273 0.37944853 0.45979658 0.0015367791
0000f0 d8 ba e3 3c eb a9 a9 ba bd 0d 87 bc 50 14 3e bf
       0.027799055 -0.0012944316 -0.016486043 -0.74249744
000100 b3 40 8c bc 8a f0 84 bc 08 e0 bb 3a 79 7e 22 3c
       -0.017120695 -0.01622798 0.0014333734 0.009917849
000110 35 2d 7b bc fa 05 0a 3d f3 9d c4 3c bc 5c d3 3c
       -0.015330602 0.033697106 0.024001097 0.025801055
000120 01 62 c3 be bb 05 26 be af 42 bb bd 09 8d 93 3c
       -0.3816071 -0.16213124 -0.09143578 0.018011587
000130 f5 8e 2b 3e 8b 58 b7 3c d0 dd bc bc 66 93 f0 3e
       0.16753753 0.022381088 -0.023054987 0.46987456
000140 20 a3 b1 bb 49 a9 6e 3b b7 2c 27 bf e3 0b 84 3c
       -0.0054210573 0.003641682 -0.65302604 0.01611895
000150 19 9d 41 bc e4 6b fe bc b4 18 83 bc 70 11 2e bc
       -0.01181724 -0.031057306 -0.01600299 -0.010624275
000160 e6 47 d3 bd b6 4a 8c bc a0 85 fb 37 6d 21 94 bd
       -0.10316448 -0.017125469 2.9983756e-05 -0.07232938
000170 63 e3 14 ba 4d 06 64 3f 2c 07 20 bc b1 9d 5b bc
       -0.0005679635 0.89072114 -0.009767335 -0.013404296
000180 12 12 3c 3b 0b e2 f0 bc 02 24 24 3e f2 20 36 3d
       0.0028697294 -0.02940466 0.16029361 0.044465013
000190 9b e2 ea 3c 47 15 8b bb 53 50 fe bc c5 c2 a6 3c
       0.028672507 -0.00424448 -0.031044161 0.020356545
0001a0 01 8b fc bd a4 17 80 3c 70 0f 91 3e 31 80 04 bd
       -0.123312004 0.015636273 0.2833209 -0.032348815
0001b0 69 04 0c bb af 00 15 ba 8d b7 fd bb c6 1a 9c bd
       -0.0021364933 -0.0005684001 -0.007742828 -0.07622294
0001c0 08 e3 d5 bc c2 86 f4 bc 23 e7 b5 be 17 a9 45 bc
       -0.026109233 -0.029849414 -0.35527906 -0.01206424
0001d0 50 08 c0 3c 21 71 45 3c da 39 f7 bd 84 43 17 bf
       0.023441464 0.012050898 -0.12071581 -0.59087396
0001e0 24 54 ab 3f ea f9 02 3c fa 4a 31 3b 5f f4 9f 3c
       1.3385053 0.0079941545 0.0027052746 0.019525705
0001f0 96 53 b0 bb 24 4b 68 3c 94 40 f6 3c 48 a6 52 bf
       -0.005381058 0.014178071 0.03006009 -0.82284975
000200 f2 ad e3 3a 69 16 be 3b b4 8b 42 3b 57 62 ef bc
       0.0017370565 0.0058010113 0.002968532 -0.029221697
000210 21 7d ae 39 3f 55 28 be ff 9f 6e be 8b 82 af 3c
       0.00033281095 -0.16438769 -0.23303221 0.021424552
000220 96 d1 e9 bc 5c 0b dd bc d1 5a db be 15 b8 b1 bb
       -0.028542321 -0.026982956 -0.42842725 -0.0054235556
000230 4a 2c a4 bc aa b0 80 bc da 15 ac 3c 12 e6 1e 3d
       -0.02004065 -0.01570924 0.021006513 0.03879363
000240 30 dc 90 bb 1f d6 4c 3b 83 16 cd be 93 23 38 bc
       -0.0044207796 0.0031255556 -0.40056238 -0.01123895
000250 50 14 bb 3d a4 a7 c3 3c 33 01 f1 3b 63 1e 8a bc
       0.09134734 0.023883648 0.0073548793 -0.016860193
000260 16 e3 4f be ef 53 71 3b 91 ee 15 3e a3 0c 7a bb
       -0.2030147 0.003682371 0.14641787 -0.0038154505
000270 30 a6 9f 3c fd 7e f2 3d ff 9a 8b be d9 1e 84 bb
       0.019488424 0.11840627 -0.2726669 -0.0040319976
000280 bd ca a8 bc bb 22 ba 3c 3f 51 aa bb 5d ec 5d bd
       -0.020604486 0.022721639 -0.0051976736 -0.05418049
000290 9c 3a 43 bc e0 16 03 3c 3b 3f f1 3c 62 09 15 bd
       -0.011915829 0.008001059 0.029449096 -0.0363859
0002a0 55 85 b9 bb 2e 67 25 3f 54 d0 e1 3b bc 41 d9 3c
       -0.0056616464 0.64610565 0.0068912897 0.026520602
0002b0 f2 20 4c 3c 79 a0 0e bd cf 9d 3d bc ac a6 df bc
       0.012459027 -0.034821007 -0.011573269 -0.027301155
0002c0 d6 7f 26 bc 79 05 b0 3d f1 07 9a be 15 51 dd bc
       -0.010162314 0.08594794 -0.30084184 -0.027016202
0002d0 2a 6d 81 3c 4c 84 28 3d 2b 18 fe bc 13 41 bf bc
       0.015799124 0.041141793 -0.031017384 -0.02334646
0002e0 30 10 7b bc f7 9b ac bc e7 4c e3 bc 0b db ae bd
       -0.015323684 -0.021070464 -0.02774663 -0.08537873
0002f0 f4 5a d0 bc 41 7a e3 bc 8b e7 de bd 64 fc 21 be
       -0.025433995 -0.027768256 -0.10884007 -0.15818936
000300 10 53 91 3d ec 29 e2 bc 0c 4d 00 be 7b d2 f9 b8
       0.07095921 -0.02760788 -0.12529391 -0.0001191245
000310 07 fa 89 3b ff 65 39 3d 88 7d 25 be b1 36 38 3d
       0.004210714 0.045263287 -0.16161168 0.044974033
000320 0d ed 34 bc 45 f6 29 bf c8 5a 36 3d 5e d0 83 3d
       -0.011042845 -0.663914 0.04452017 0.06436227
000330 c0 44 ad bc 8f 7a c6 bc 5b 49 9e bc e1 1f 39 3c
       -0.021150947 -0.024228362 -0.019322088 0.011299104
000340 28 dd ad bc 17 0f d2 bc da 74 28 3d bb 96 43 3d
       -0.02122362 -0.025641961 0.041127063 0.04775117
000350 28 b9 65 bc 3c 32 3e 3c bf b7 35 bc f4 d1 d8 3c
       -0.0140211955 0.0116086565 -0.011091172 0.026467301
000360 f9 b7 12 bc 86 69 03 3d 1c 32 01 bd 5b 34 da be
       -0.008954995 0.032083057 -0.03154193 -0.4261807
000370 54 38 24 bd ee 48 83 3d 9a 8d 13 bd 49 98 a0 be
       -0.04009278 0.064103946 -0.036023714 -0.31366184
000380 fd 09 5f 3c 8e 49 8e bd 1e fe 37 3c 4f 7f 59 bd
       0.013613221 -0.06947623 0.01123002 -0.053099927
000390 98 68 69 bc 29 61 cf 3d e4 8e 57 3d 8b 59 a8 be
       -0.0142461285 0.10125954 0.052626505 -0.32880816
0003a0 de 6f 1e bd 54 88 2a 3b dd e6 d8 3c 16 13 a8 3c
       -0.038680904 0.00260212 0.026477272 0.020516913
0003b0 84 e2 9d 3e 9d 8a a1 3c b0 9a 1f bc 75 88 28 bc
       0.3083688 0.019719416 -0.00974147 -0.01028644
0003c0 ce 55 eb bb 46 79 f4 3a 14 4f d2 bb fd 9b a7 3d
       -0.0071818596 0.0018651865 -0.0064181183 0.08184049
0003d0 40 9d 75 3d 1e 17 d4 bd 73 69 01 3d ab 61 92 bc
       0.05996442 -0.10355972 0.031594705 -0.017868837
0003e0 9c b0 c8 bc 85 01 06 3b b9 a7 07 bb ce 2f fb bd
       -0.024498276 0.0020447683 -0.0020699336 -0.122649774
0003f0 5b 7c 7b 3b 39 4c d7 3c 53 f2 e7 bc e2 dc 37 3e
       0.0038373682 0.026281463 -0.028313791 0.17955354
