RL-implementaions/lunarlander_a2c/actor_model.pth (torch, 75504 bytes, 6 tensors)

network.0.weight f4 [128, 8]
-0.055969372 -0.028527267 0.2688477 -0.09018624 -0.28263435 -0.035324406 0.22792946 -0.06996915
-0.27318633 0.13871841 0.032924194 0.22281277 -0.26365724 -0.02639176 -0.09238058 -0.06784833
0.285132 -0.29234624 -0.36524633 -0.42800838 0.35843158 -0.30117399 0.29477188 0.33321747
0.057980094 -0.007863898 0.25897473 0.06355969 -0.47400606 -0.32283065 0.20317855 0.16049784
-0.32448906 -0.0773558 0.07252114 -0.1726192 0.32713428 -0.03738456 -0.013878526 -0.31620833
-0.05285825 -0.3017467 0.27970135 -0.42193252 -0.19575608 -0.018246932 0.06194924 -0.23385106
0.20021477 -0.18282916 -0.13523377 -0.4477188 0.17972222 0.4701142 0.22125874 -0.28688976
-0.051001653 -0.1869321 -0.01043485 -0.364679 0.08488044 0.09013923 0.071629226 -0.03331478
0.35061195 -0.053337257 0.26331076 0.23443258 -0.37359494 0.002678871 0.41355264 0.36240625
-0.29402557 -0.19114453 0.3499461 0.11546335 -0.09019594 -0.2726759 -0.27711305 0.18297146
0.14309573 0.3361904 -0.02388483 0.1277931 0.36639285 0.337413 0.12962313 0.14566551
0.25129575 0.122033 -0.2816013 -0.056275435 0.18703936 0.2221867 -0.20725462 -0.09602077
0.0958755 0.27774304 0.2583973 -0.26152793 -0.54195875 -0.058084168 -0.04365228 0.02677732
0.3052649 0.106313504 -0.060051546 0.20176657 0.25827572 -0.30060333 0.287828 -0.20103341
-0.2557783 0.34327003 0.22189258 0.29589918 -0.4522048 -0.21916679 -0.29838833 0.13796158
0.18520133 0.14276871 0.15628819 0.29039353 0.4017972 0.106911965 -0.032120842 0.3605409
0.038462967 -0.21376833 0.13114971 -0.1421018 -0.24557747 0.16695447 -0.10364819 -0.11285268
0.29915625 0.3133837 0.010958007 -0.3718894 -0.23357949 0.059641786 0.0072763073 0.049895175
-0.2685675 -0.2588523 -0.007044535 -0.15432903 -0.13858306 0.0047589145 0.13682024 -0.07107332
0.31108758 0.09119856 -0.32025006 -0.5212546 -0.14675817 -0.04869626 -0.057208344 -0.08700475
-0.255716 0.4020729 0.1617772 -0.1360617 -0.42407262 -0.13733098 0.09385848 0.14905667
0.16802178 0.108608656 -0.26186195 -0.12740573 0.28649 0.07739078 0.16314022 0.012180324
-0.33717418 0.16860075 0.045434117 -0.3066129 0.4100069 0.3579251 -0.046047255 -0.13204607
-0.3259067 -0.11925335 -0.1888284 0.14210486 0.4365322 0.14043424 -0.063555315 -0.096793614
0.1753279 0.04101181 0.3709235 -0.04899288 -0.39018127 -0.11516523 -0.13958347 -0.0920687
-0.021322388 0.22653991 0.24986301 0.11171168 0.54282355 0.39776474 -0.00492205 0.28491372
-0.20176625 -0.0714154 -0.007771197 0.28506023 0.43946823 -0.101367734 0.20641012 -0.17570345
-0.12151029 0.065938875 -0.2918927 0.2755689 0.08484885 -0.12011294 -0.24906905 -0.29916638
0.23971851 -0.19063506 0.021774977 -0.33618647 0.006785358 0.32941464 0.23319115 -0.13774997
0.16563068 -0.11842116 0.23202462 0.011920372 0.27706885 0.2037269 -0.25257298 0.029650526
-0.24994378 0.08359071 -0.24619393 -0.48344713 0.07059603 0.46352518 -0.0019091661 -0.036350325
0.26439136 -0.2648951 0.19834022 -0.32455108 0.07813123 -0.06340285 0.03371726 0.10592817
00000000: 2440 65bd 04b2 e9bc 68a6 893e 90b3 b8bd
00000010: 73b5 90be 53b0 10bd 5766 693e fc4b 8fbd
00000020: 14df 8bbe 330c 0e3e 85db 063d 0829 643e
00000030: 15fe 86be 8833 d8bc 0832 bdbd 11f4 8abd
00000040: d2fc 913e 68ae 95be 9101 bbbe ea23 dbbe
00000050: 5884 b73e 7a33 9abe 57ec 963e 7b9b aa3e
00000060: 897c 6d3d 94d7 00bc 5698 843e 952b 823d
00000070: ecb0 f2be 0f4a a5be 0a0e 503e 8c59 243e
00000080: 6e23 a6be b86c 9ebd f785 943d 16c3 30be
00000090: 257e a73e 8d20 19bd c262 63bc 0fe6 a1be
000000a0: e481 58bd 8b7e 9abe 0435 8f3e 8a07 d8be
000000b0: 4874 48be 977a 95bc 7cbe 7d3d a776 6fbe
000000c0: 1a05 4d3e 9137 3bbe b97a 0abe 663b e5be
000000d0: 1a09 383e cfb2 f03e a791 623e 37e3 92be
000000e0: 1ce7 50bd 216b 3fbe eff6 2abc 35b7 babe
000000f0: ccd5 ad3d eb9a b83d 58b2 923d 1475 08bd
00000100: 6983 b33e 2b78 5abd abd0 863e 180f 703e
00000110: d647 bfbe ff8f 2f3b 2cbd d33e 508d b93e
00000120: 858a 96be 64bb 43be 232c b33e 0d78 ec3d
00000130: a6b8 b8bd 2d9c 8bbe c3e1 8dbe df5c 3b3e
00000140: b087 123e 2621 ac3e 1eaa c3bc 32dc 023e
00000150: d897 bb3e 66c1 ac3e edbb 043e 5729 153e
00000160: d6a9 803e 70ec f93d 0c2e 90be 1281 66bd
00000170: 3f87 3f3e e984 633e 8e3a 54be 8aa6 c4bd
00000180: 605a c43d 5634 8e3e a74c 843e fde6 85be
00000190: cfbd 0abf aae9 6dbd bccc 32bd 1c5c db3c
000001a0: ae4b 9c3e e5ba d93d 9cf8 75bd e59b 4e3e
000001b0: b73c 843e aee8 99be 315e 933e b4db 4dbe
000001c0: 60f5 82be 17c1 af3e cf37 633e 1980 973e
000001d0: 6387 e7be 426d 60be 5bc6 98be cd45 0d3e
000001e0: 6ba5 3d3e f631 123e 030a 203e 76ae 943e
000001f0: 5db8 cd3e a9f4 da3d 2591 03bd d198 b83e
00000200: 588b 1d3d 16e6 5abe 1c4c 063e 2283 11be
00000210: a978 7bbe 1df6 2a3e 8145 d4bd 4e1f e7bd
00000220: 022b 993e d473 a03e 3689 333c 4a68 bebe
00000230: 762f 6fbe f24a 743d 176e ee3b e25e 4c3d
00000240: ae81 89be 4a88 84be d8d5 e6bb 6e08 1ebe
00000250: b8e8 0dbe abf0 9b3b 9b1a 0c3e e48e 91bd
00000260: df46 9f3e 50c6 ba3d d1f7 a3be f170 05bf
00000270: c647 16be bb75 47bd 4c53 6abd 8c2f b2bd
00000280: 35ed 82be 80dc cd3e eca8 253e c253 0bbe
00000290: 0c20 d9be 7ea0 0cbe e038 c03d 50a2 183e
000002a0: e70d 2c3e 376e de3d c512 86be a676 02be
000002b0: d1ae 923e 0f7f 9e3d 3b0e 273e fb8f 473c
000002c0: 18a2 acbe ada5 2c3e 2019 3a3d 5efc 9cbe
000002d0: 6dec d13e f541 b73e 0c9c 3cbd 1637 07be
000002e0: 3edd a6be 1a3b f4bd 3b5c 41be f083 113e
000002f0: 2681 df3e fecd 0f3e 4a29 82bd bb3b c6bd
00000300: 2889 333e 00fc 273d afe9 bd3e c2ac 48bd
00000310: d7c5 c7be c0db ebbd f8ee 0ebe 848e bcbd
00000320: 4aac aebc 14fa 673e 17dc 7f3e 18c9 e43d
00000330: 7cf6 0a3f d2a7 cb3e 2649 a1bb 36e0 913e
00000340: d09b 4ebe 3d42 92bd 86a5 febb 6af3 913e
00000350: fb01 e13e e399 cfbd 2d5d 533e 9beb 33be
00000360: 63da f8bd f60a 873d f672 95be 5e17 8d3e
00000370: 3cc5 ad3d c6fd f5bd f50b 7fbe 562c 99be
00000380: c578 753e d635 43be 7061 b23c a220 acbe
00000390: b557 de3b 09a9 a83e a9c9 6e3e 540e 0dbe
000003a0: 179b 293e cb86 f2bd dd97 6d3e aa4d 433c
000003b0: f8db 8d3e c99d 503e 3f51 81be a9e5 f23c
000003c0: 43f1 7fbe 9b31 ab3d 431a 7cbe 6286 f7be
000003d0: a794 903d 2c53 ed3e fc3c faba 14e4 14bd
000003e0: 4e5e 873e 55a0 87be b319 4b3e 8f2b a6be
000003f0: 4403 a03d 5ad9 81bd 1c1b 0a3d def0 d83d

network.0.bias f4 [128]
0.10377759 -0.35212502 0.26598215 0.1937269 -0.29299992 0.25339252 0.036154345 0.0388351
-0.2040061 -0.19342299 -0.065379165 -0.039461438 0.17154478 -0.3368911 0.06726221 0.25232053
-0.299054 -0.1457912 -0.16693564 -0.07201246 -0.23426929 -0.07732122 0.15720274 0.28986686
0.30773935 -0.04087581 0.26424518 0.16303262 -0.2626196 0.2078421 0.17160118 0.24996577
-0.012060777 0.037173044 0.20163134 -0.23021743 0.33279073 0.19969581 0.17462215 0.0059800223
-0.22622232 -0.05916141 -0.013588596 0.15597482 -0.3136668 0.24969502 0.28431156 -0.1770435
0.04733293 0.36081886 0.06525924 0.063468896 0.25638604 0.26312092 0.049183697 0.03630223
-0.23602729 0.29852894 0.06749595 -0.068973795 -0.27019635 0.05314649 0.03603785 0.09263637
-0.22773764 0.046604514 0.18197067 0.23849471 -0.015078878 -0.09217813 0.037179116 -0.2690943
0.22534 0.17904185 -0.2853222 0.014053183 0.17306826 0.3010952 -0.28524557 0.03140358
0.03669841 0.00072746765 -0.22883312 -0.24584043 -0.257149 0.20239076 0.15047131 -0.025804572
0.15533102 0.25252658 0.17977387 -0.07405052 -0.23504506 -0.06300511 -0.11249921 -0.20808809
-0.323373 -0.08019264 0.28253403 0.0066932705 -0.33029023 0.10381269 0.101033986 -0.08533841
0.09344074 -0.19941752 -0.07183236 0.32219777 0.024310036 0.24910462 0.062425524 -0.18256237
0.2431663 0.25774795 -0.06466885 -0.31382424 -0.048071697 0.036234155 -0.37601587 0.18782942
-0.24229535 0.21770273 -0.030921483 0.09194043 0.20385565 0.15976518 -0.28191185 0.1467859
00000000: 5889 d43d bb49 b4be d02e 883e 5860 463e
00000010: 1604 96be aabc 813e 9416 143d 8e11 1f3d
00000020: fae6 50be ad10 46be 83e5 85bd 51a2 21bd
00000030: 6fa9 2f3e fe7c acbe c5c0 893d 2830 813e
00000040: 9b1d 99be 4a4a 15be 2df1 2abe 457b 93bd
00000050: 4ae4 6fbe 965a 9ebd c1f9 203e 6e69 943e
00000060: 0390 9d3e 656d 27bd 254b 873e 06f2 263e
00000070: 1476 86be 8fd4 543e 38b8 2f3e 07f7 7f3e
00000080: 919a 45bc c342 183d 7278 4e3e 1ebe 6bbe
00000090: 8c63 aa3e 0f7d 4c3e 26d0 323e 10f4 c33b
000000a0: d3a6 67be 3c53 72bd b4a2 5ebc ddb7 1f3e
000000b0: ef98 a0be 0db0 7f3e 4991 913e e44a 35be
000000c0: 2de0 413d 40bd b83e a3a6 853d fbfb 813d
000000d0: 0845 833e c9b7 863e d874 493d a6b1 143d
000000e0: 23b1 71be c9d8 983e 513b 8a3d 2242 8dbd
000000f0: 2d57 8abe 22b0 593d 6d9c 133d 23b8 bd3d
00000100: 0e34 69be 60e4 3e3d 8556 3a3e f537 743e
00000110: 660d 77bc e3c7 bcbd 2149 183d bac6 89be
00000120: 87bf 663e bf56 373e c015 92be 523f 663c
00000130: ce38 313e 2629 9a3e b50b 92be 0aa1 003d
00000140: 1251 163d 87b3 3e3a 3b53 6abe 98bd 7bbe
00000150: 09a9 83be 863f 4f3e 2715 1a3e 1c64 d3bc
00000160: 180f 1f3e 2a4b 813e a416 383e cda7 97bd
00000170: a7af 70be d308 81bd fc65 e6bd 0b15 55be
00000180: 2591 a5be 0a3c a4bd 4da8 903e 3953 db3b
00000190: cd1b a9be bf9b d43d e8ea ce3d e8c5 aebd
000001a0: dc5d bf3d 1b34 4cbe d81c 93bd 1bf7 a43e
000001b0: d725 c73c 4815 7f3e e8b1 7f3d a1f1 3abe
000001c0: 9600 793e 8af7 833e 1a71 84bd 92ad a0be
000001d0: d4e6 44bd 446a 143d 2785 c0be 5b56 403e
000001e0: 461c 78be 77ed 5e3e 0d4f fdbc 444b bc3d
000001f0: 89bf 503e 7c99 233e c056 90be 0b4f 163e

network.2.weight f4 [128, 128]
-0.08499746 0.0025555266 0.08843697 -0.0030422583 0.083046116 -0.10700128 -0.08222822 -0.0043447525
0.07157867 -0.02238591 0.22281726 0.07287878 -0.08599012 -0.08468512 -0.044504948 0.13146555
-0.016448777 0.0131346015 -0.09758842 -0.11853176 0.015708787 0.09441149 0.094639294 0.01713436
-0.016845228 0.12834986 0.14043325 0.07970342 -0.07755593 0.08067063 -0.015006951 0.005260687
0.15360911 0.10754996 -0.028761951 -0.007834246 -0.017536955 0.18623607 0.0046120076 0.003415169
-0.030100955 0.13066919 0.0031080989 -0.035674702 -0.03482813 0.12452039 0.0798489 -0.069757454
0.03302368 0.055725057 0.08972147 0.109162614 -0.12324912 0.14177907 0.08478533 0.09450053
-0.049493745 -0.060860705 0.13008407 0.03361268 -0.030756911 0.027375208 -0.034592994 -0.10069075
-0.046628438 -0.02701418 -0.06051351 0.07297573 0.16657637 -0.035510905 0.06856545 0.0047020614
0.115929745 -0.09949359 0.11028294 -0.101352036 -0.09592118 -0.091450304 -0.009042974 0.04887832
0.1084755 0.08879676 -0.005449883 -0.050690442 -0.09563224 0.06667249 0.09671132 0.0137925735
-0.022141844 -0.06930378 0.013834694 0.2205757 0.015688973 0.0860743 0.041715004 -0.055525586
-0.06605257 0.122388706 0.013628686 -0.056035437 -0.06485852 0.09425195 0.024225792 -0.07544659
0.06002724 -0.1812577 -0.04425723 -0.006742452 0.016303439 -0.07163757 -0.11518307 0.029475007
0.03908264 0.048218258 0.08810209 0.028560888 -0.0298193 -0.1912199 -0.0154908495 -0.0882541
0.053007834 0.103249885 -0.041731887 0.14848514 -0.08133175 0.12312609 0.05510848 -0.06320262
0.026111512 -0.009032685 0.05844835 0.06922619 -0.09201032 0.033640623 -0.027707659 -0.17074898
0.11758148 -0.07466656 -0.05021329 -0.007966194 0.03410697 -0.07095478 0.05123966 0.013130483
0.036222972 -0.06485328 0.027579311 -0.14664489 0.09798538 0.022573654 -0.10639956 -0.06687404
0.042728253 0.010270371 0.058178127 0.07201933 -0.12545621 -0.050381526 -0.03617252 -0.033503555
0.065002166 0.0346509 -0.21655643 0.0048975702 -0.12374463 -0.11976411 0.028295662 -0.11936613
-0.06872313 0.11265335 -0.06586241 -0.06529897 0.07783592 -0.03992172 0.046844922 -0.07232571
0.06663767 -0.016026419 -0.07744041 0.057688195 0.03224407 0.015894735 -0.019565018 0.033717003
-0.026891094 0.06899963 0.081580125 0.057841834 -0.09954498 0.08262952 -0.15294877 0.011936122
0.0066053336 -0.044752132 0.1224847 -0.009938005 0.04554398 -0.049139384 0.06012779 -0.033667363
0.001789375 0.03005454 0.16142148 -0.07181003 0.0037249937 0.06315846 0.021506917 0.005548951
0.15060058 0.13026604 -0.035544664 0.0851193 -0.009410264 -0.0032088459 -0.0393638 0.10574689
-0.014623676 0.08145787 -0.12636712 -0.046636317 -0.11434276 0.13312584 0.084792174 0.02838388
0.011233733 -0.04037769 0.015092456 -0.12832254 -0.06679614 -0.07956822 -0.03231515 0.019482916
-0.12922059 -0.052323822 0.028922953 -0.041301627 0.0028753197 -0.17910098 0.011592331 0.1050842
0.026652176 0.014469503 0.004824128 0.030942848 -0.1353689 0.03263739 0.044636842 -0.044225875
0.040970497 -0.02697739 0.050020684 0.028357837 -0.026528709 0.15698455 0.008045944 0.047562327
00000000: 2613 aebd 9f7a 273b 711e b53d a060 47bb
00000010: 1514 aa3d 7d23 dbbd 4567 a8bd 6d5e 8ebb
00000020: d697 923d a862 b7bc 352a 643e 7841 953d
00000030: 971b b0bd 646f adbd d24a 36bd e89e 063e
00000040: 96bf 86bc 8332 573c 70dc c7bd c8c0 f2bd
00000050: b7af 803c d05a c13d 3fd2 c13d 5b5d 8c3c
00000060: 01ff 89bc 256e 033e bccd 0f3e 8c3b a33d
00000070: a5d5 9ebd a536 a53d b7df 75bc d761 ac3b
00000080: b54b 1d3e 2743 dc3d 2f9e ebbc 365b 00bc
00000090: a9a9 8fbc abb4 3e3e 5320 973b 07d1 5f3b
000000a0: 4796 f6bc 25ce 053e 3fb1 4b3b a31f 12bd
000000b0: f1a7 0ebd 8c04 ff3d d287 a33d ffdc 8ebd
000000c0: d743 073d f53f 643d e4bf b73d a690 df3d
000000d0: 096a fcbd 882e 113e eea3 ad3d 7e89 c13d
000000e0: f4b9 4abd 1349 79bd c234 053e 73ad 093d
000000f0: ebf5 fbbc f941 e03c 62b1 0dbd f436 cebd
00000100: 76fd 3ebd d74c ddbc 04dd 77bd 4d74 953d
00000110: ff92 2a3e e273 11bd 0b6c 8c3d c013 9a3b
00000120: 936c ed3d 4cc3 cbbd 06dc e13d a891 cfbd
00000130: 5372 c4bd 4c4a bbbd fb28 14bc a234 483d
00000140: 6728 de3d 13db b53d ef94 b2bb c8a0 4fbd
00000150: d6da c3bd 968b 883d 9610 c63d 3ffa 613c
00000160: d062 b5bc 24ef 8dbd eaaa 623c 99de 613e
00000170: 2986 803c b947 b03d 5add 2a3d cc6e 63bd
00000180: 9246 87bd eea6 fa3d da4a 5f3c 6a85 65bd
00000190: 8bd4 84bd 2b07 c13d 2b75 c63c be83 9abd
000001a0: 20df 753d 9e9b 39be 1247 35bd c9ef dcbb
000001b0: ca8e 853c b8b6 92bd 1ae5 ebbd 9275 f13c
000001c0: 1e15 203d 8280 453d de6e b43d 86f8 e93c
000001d0: 9b47 f4bc 26cf 43be 55cd 7dbc 91be b4bd
000001e0: be1e 593d ad74 d33d 0eef 2abd 7d0c 183e
000001f0: 4391 a6bd 8829 fc3d 6eb9 613d 6070 81bd
00000200: cfe7 d53c d4fd 13bc 8967 6f3d 76c6 8d3d
00000210: e86f bcbd c0ca 093d 2cfb e2bc d2d8 2ebe
00000220: 8fce f03d c8ea 98bd 73ac 4dbd a484 02bc
00000230: c0b3 0b3d bd50 91bd ade0 513d 3d21 573c
00000240: 8a5e 143d ccd1 84bd 02ee e13c 142a 16be
00000250: 8fac c83d 62ec b83c 03e8 d9bd 42f5 88bd
00000260: d203 2f3d 0f45 283c 304c 6e3d df7e 933d
00000270: 9877 00be dc5c 4ebd a329 14bd 063b 09bd
00000280: db1f 853d 1aee 0d3d f8c0 5dbe cc7b a03b
00000290: d36d fdbd e346 f5bd 4ecc e73c 3b76 f4bd
000002a0: b6be 8cbd cdb6 e63d dfe2 86bd 77bb 85bd
000002b0: 7068 9f3d f584 23bd 76e0 3f3d 801f 94bd
000002c0: 5579 883d d649 83bc 1499 9ebd 754a 6c3d
000002d0: 5c12 043d ad35 823c d146 a0bc d71a 0a3d
000002e0: b64a dcbc ae4f 8d3d 7b13 a73d 8feb 6c3d
000002f0: 3dde cbbd aa39 a93d 9a9e 1cbe b98f 433c
00000300: 8e71 d83b 034e 37bd 42d9 fa3d 04d3 22bc
00000310: 538c 3a3d 6146 49bd 8f48 763d cae6 09bd
00000320: 7689 ea3a f034 f63c ac4b 253e 2311 93bd
00000330: 061f 743b 3959 813d 462f b03c fad3 b53b
00000340: 0a37 1a3e 7664 053e 4897 11bd 0753 ae3d
00000350: 822d 1abc 804b 52bb f03b 21bd d391 d83d
00000360: 2598 6fbc 62d3 a63d 6266 01be b905 3fbd
00000370: 892c eabd 2452 083e 85a7 ad3d 5085 e83c
00000380: b10d 383c 1463 25bd 5946 773c fc66 03be
00000390: 6acc 88bd aaf4 a2bd e45c 04bd a39a 9f3c
000003a0: 6752 04be 8151 56bd d4ef ec3c e52b 29bd
000003b0: dc6f 3c3b 3f66 37be c3ed 3d3c 6336 d73d
000003c0: aa55 da3c 7f11 6d3c b813 9e3b db7b fd3c
000003d0: 259e 0abe c9ae 053d 1fd5 363d 3126 35bd
000003e0: aed0 273d b0ff dcbc 7de2 4c3d b24e e83c
000003f0: bc52 d9bc 8fc0 203e 23d3 033c b7d0 423d

network.2.bias f4 [128]
0.028496297 0.055911805 0.06357708 -0.090056285 0.052492622 -0.07800091 -0.07560637 -0.07724556
-0.10249052 -0.035054494 0.030978112 0.004864237 0.018304644 0.046407096 -0.0072211986 0.07593448
-0.01088509 -0.027539892 -0.056439247 0.1007917 0.06403788 -0.029718783 0.005429984 0.0738529
0.05969565 0.0038977163 0.028247679 0.027520282 0.09245625 0.12045805 -0.10839214 0.025041047
-0.0013369392 0.0029650624 -0.01537703 -0.06655167 -0.06305655 -0.046496395 0.0065616653 0.09743629
0.04905724 0.08664702 0.08188372 -0.04620251 0.058938183 0.041548792 0.05682817 -0.104540706
0.07892581 0.031688362 0.08531153 0.027981503 0.061330464 0.021336792 -0.06783424 0.069371805
0.07682768 0.017717866 -0.07341361 -0.030127682 -0.00943232 -0.016234117 0.11428553 0.02043567
0.06827289 0.045458697 -0.052001458 0.03218703 -0.039803024 -0.09824831 0.06613493 -0.0077260723
-0.069652155 -0.014807288 0.04118023 -0.0957531 0.105041124 -0.056471292 0.085305355 0.10576317
0.07584584 0.06409821 -0.029963383 0.032711253 0.04473511 -0.08830654 0.101126425 0.034797832
0.053505268 0.085714735 0.04678259 0.070675366 0.0053051314 0.036842152 0.04425664 -0.07022303
-0.09841334 0.052022807 -0.01815383 0.08151855 0.10682276 0.06433845 0.02458886 -0.0010547617
-0.0010059068 0.09543719 -0.014518648 0.041212924 0.014025861 -0.025732914 0.10925181 -0.042132217
0.027862899 -0.009775908 -0.019511145 0.05054392 0.014280941 0.031028684 -0.030403089 0.027624384
-0.06885126 0.08048851 0.061253253 0.08922275 0.04604854 0.030628104 0.04297299 0.053405933
00000000: 1171 e93c c703 653d b334 823d 6e6f b8bd
00000010: 8102 573d f1be 9fbd 83d7 9abd ec32 9ebd
00000020: 8de6 d1bd 4d95 0fbd cfc5 fd3c 2d64 9f3b
00000030: 9ff3 953c 5e15 3e3d ce9f ecbb 8983 9b3d
00000040: 6057 32bc 579b e1bc d72c 67bd e16b ce3d
00000050: 4b26 833d ce74 f3bc 02ee b13b 3040 973d
00000060: 6d83 743d d470 7f3b ad67 e73c 3772 e13c
00000070: b459 bd3d b6b2 f63d b3fc ddbd e222 cd3c
00000080: 3c3c afba 7e51 423b f0ef 7bbc 3e4c 88bd
00000090: cb23 81bd 0173 3ebd 3d03 d73b ad8c c73d
000000a0: 3ff0 483d fe73 b13d a7b2 a73d d83e 3dbd
000000b0: 2a69 713d 112f 2a3d a8c4 683d 7019 d6bd
000000c0: dba3 a13d a8cb 013d d0b7 ae3d 7739 e53c
000000d0: a735 7b3d 7fca ae3c aeec 8abd ce12 8e3d
000000e0: d557 9d3d 0f25 913c e059 96bd 54ce f6bc
000000f0: 048a 1abc 69fd 84bc 880e ea3d b568 a73c
00000100: a8d2 8b3d e632 3a3d 7bff 54bd 8cd6 033d
00000110: 7f08 23bd 6936 c9bd c071 873d fe2a fdbb
00000120: caa5 8ebd 449a 72bc 9aac 283d 341a c4bd
00000130: cd1f d73d 714e 67bd 93b4 ae3d 5c9a d83d
00000140: 1055 9b3d ec45 833d c575 f5bc 3cfc 053d
00000150: 2a3c 373d 0fda b4bd 5f1b cf3d 2c88 0e3d
00000160: 5728 5b3d 358b af3d 1a9f 3f3d 3fbe 903d
00000170: abd6 ad3b cce7 163d 7346 353d 18d1 8fbd
00000180: ef8c c9bd de15 553d 57b7 94bc 33f3 a63d
00000190: e4c5 da3d e1c3 833d 946e c93c ee3f 8aba
000001a0: a2d8 83ba 9374 c33d a0df 6dbc e2ce 283d
000001b0: bacc 653c d5cd d2bc 6abf df3d d592 2cbd
000001c0: bc40 e43c 212b 20bc d6d5 9fbc 2407 4f3d
000001d0: 9cfa 693c de2f fe3c e60f f9bc 884c e23c
000001e0: e401 8dbd 29d7 a43d b1e4 7a3d 6bba b63d
000001f0: 659d 3c3d cae7 fa3c 7204 303d 2ec0 5a3d

network.4.weight f4 [4, 128]
0.05160211 0.08360665 -0.10820769 -0.03830344 -0.0943962 -0.013657952 0.04017076 -0.048295736
0.02471412 0.02327896 -0.044813436 0.11135652 -0.037797228 -0.056375317 0.06267539 0.15229239
0.015680859 -0.07878135 -0.13866659 -0.06826166 -0.041326918 0.17313418 0.12793829 -0.11524139
-0.12669617 0.10482907 -0.11365279 0.011563541 0.15361343 -0.124559894 0.011916435 -0.06540368
-0.05422181 0.13808742 0.025167052 0.07030652 0.008674921 -0.07685048 0.03740297 -0.17286415
-0.025670363 -0.06675995 0.04074115 0.06673791 0.1223792 0.069115736 0.045111306 0.0022520877
0.2177601 0.18274213 -0.15972847 -0.014597736 -0.07813198 0.09067386 0.02686398 0.11339011
0.04909739 -0.11243551 -0.066812776 -0.16752619 0.09302129 -0.15607846 -0.14748532 -0.07785727
-0.030499311 0.02380228 0.049988605 0.084087566 -0.045117013 -0.039461017 0.049043387 -0.13457239
0.032825224 0.14999408 0.13901834 -0.08718787 0.14727777 0.045868993 -0.091886826 -0.06591539
0.05838937 0.11604126 -0.0055216886 -0.10059328 -0.09493519 0.07834248 0.14043076 -0.10544251
-0.090042695 -0.06049797 0.064875305 0.026355514 0.062317617 -0.048633896 0.1381744 -0.0295751
0.070518315 0.0065936637 -0.14146858 -0.024338596 0.14508921 -0.124301225 -0.016344931 0.016696755
-0.06941999 -0.1155682 -0.0362144 0.12277243 0.037874974 -0.035047524 -0.013761761 0.04624359
0.08690857 0.08810421 -0.020031117 -0.034525037 -0.15476562 0.06397975 0.0069557293 -0.093369715
-0.058546387 0.17626111 -0.08597216 0.037473906 -0.0954014 0.009457143 0.051246986 -0.08297298
-0.1540332 -0.027645659 -0.18734732 -0.03901419 -0.06958957 0.08369558 0.024772147 -0.019169364
0.009886094 -0.016803224 0.022391314 -0.1658829 0.05420562 -0.010803339 -0.055659365 0.093904145
0.16422114 -0.1692197 -0.096313134 0.15938187 0.042324517 0.018774355 0.15010178 0.07577137
0.060943045 -0.021282488 -0.07234965 -0.17881157 -0.13714413 0.078380905 0.016644722 0.05695754
-0.12342102 0.023723416 -0.082033865 -0.060784955 0.035058755 -0.22843754 -0.052702274 0.011846154
-0.041861314 0.14086035 0.083955504 0.15025878 0.12074228 0.09198977 0.043295197 0.0016112964
0.056692142 -0.0033535985 0.11166973 0.07780499 0.035499983 -0.113446504 -0.027294273 0.10819739
0.1366368 -0.15389696 -0.0153914755 -0.11355227 0.15563855 -0.045034293 0.15345415 -0.07736958
0.072514035 -0.05399523 0.078731626 -0.10033901 0.0647906 0.072374485 0.07070946 0.12670827
0.051441398 -0.065748595 -0.10680402 0.08488752 0.024088854 -0.09765442 0.15810998 -0.18492094
0.0020524098 0.027364772 -0.038604815 -0.07054903 0.007873216 -0.06827107 -0.048836406 -0.18708579
-0.11566105 0.12085153 0.06846772 0.059104506 0.106093824 -0.06973587 -0.07036005 -0.24483292
-0.07515347 -0.03515745 -0.046537474 0.13489977 -0.0068882285 -0.18875106 -0.043822523 0.052939925
0.08264286 -0.088013284 0.038876526 -0.089549296 -0.030626008 0.123028986 -0.1869101 -0.006274571
-0.003915863 -0.093842074 0.00875515 -0.08988769 -0.093914315 0.033037007 0.058168318 -0.013323326
-0.016065096 0.067274414 -0.0033302233 0.07613202 0.03769855 -0.08104162 0.071890496 -0.149511
00000000: bc5c 533d f739 ab3d fe9b ddbd 11e4 1cbd
00000010: cb52 c1bd 9ac5 5fbc 188a 243d c0d1 45bd
00000020: 4475 ca3c 84b3 be3c 4b8e 37bd e30e e43d
00000030: 44d1 1abd cee9 66bd f45b 803d 89f2 1b3e
00000040: 2575 803c 1e58 a1bd 9dfe 0dbe c5cc 8bbd
00000050: 6a46 29bd 164a 313e 4102 033e ae03 ecbd
00000060: a4bc 01be a0b0 d63d cbc2 e8bd 0275 3d3c
00000070: d74c 1d3e 4219 ffbd 273d 433c 5df2 85bd
00000080: b017 5ebd ca66 0d3e 222b ce3c ddfc 8f3d
00000090: 4121 0e3c c963 9dbd db33 193d 4d03 31be
000000a0: a74a d2bc 71b9 88bd 31e0 263d e3ad 883d
000000b0: f2a1 fa3d 8d8c 8d3d a2c6 383d c397 133b
000000c0: 81fc 5e3e c120 3b3e dc8f 23be 582b 6fbc
000000d0: a903 a0bd 37b3 b93d d911 dc3c 1339 e83d
000000e0: 581a 493d 9744 e6bd 23d5 88bd fc8b 2bbe
000000f0: f281 be3d 08d3 1fbe 6406 17be a273 9fbd
00000100: b1d9 f9bc 00fd c23c dac0 4c3d 1a36 ac3d
00000110: 9ecc 38bd e0a1 21bd b8e1 483d 58cd 09be
00000120: be73 063d 0c98 193e d35a 0e3e 8e8f b2bd
00000130: fccf 163e 20e1 3b3d 292f bcbd a6fe 86bd
00000140: b129 6f3d 0aa7 ed3d 48ef b4bb d903 cebd
00000150: 626d c2bd 0672 a03d 15cd 0f3e 3ef2 d7bd
00000160: 4e68 b8bd b8cc 77bd 58dd 843d 85e7 d73c
00000170: c240 7f3d 5634 47bd 977d 0d3e 7b47 f2bc
00000180: e86b 903d a90f d83b 24dd 10be bc61 c7bc
00000190: 4492 143e a491 febd cee5 85bc a2c7 883c
000001a0: 112c 8ebd 05af ecbd 8d55 14bd 1d70 fb3d
000001b0: ca22 1b3d fe8d 0fbd 0279 61bc eb69 3d3d
000001c0: 1ffd b13d fb6f b43d 4c18 a4bc 206a 0dbd
000001d0: e17a 1ebe d107 833d e3ec e33b 9f38 bfbd
000001e0: 56ce 6fbd cb7d 343e 2c12 b0bd 3d7e 193d
000001f0: cf61 c3bd 22f2 1a3c 5ce8 513d bded a9bd
00000200: e1ba 1dbe 2679 e2bc fad7 3fbe 58cd 1fbd
00000210: fa84 8ebd 9768 ab3d f5ee ca3c 1209 9dbc
00000220: 49f9 213c eaa6 89bc fd6d b73c 35dd 29be
00000230: b606 5e3d 7d00 31bc 13fb 63bd d150 c03d
00000240: 9629 283e ee47 2dbe d23f c5bd 0035 233e
00000250: 795c 2d3d adcc 993c 48b4 193e 052e 9b3d
00000260: 6a9f 793d 9d58 aebc 0e2c 94bd 611a 37be
00000270: 836f 0cbe 2b86 a03d 835a 883c 4f4c 693d
00000280: 29c4 fcbd 9c57 c23c 5f01 a8bd a5f9 78bd
00000290: c599 0f3d 88eb 69be 57de 57bd 5f16 423c
000002a0: c576 2bbd b23d 103e ddf0 ab3d 70dd 193e
000002b0: ba47 f73d 2265 bc3d 4e56 313d 2332 d33a
000002c0: 0536 683d 0cc8 5bbb 19b3 e43d 3958 9f3d
000002d0: 6e68 113d a456 e8bd 3d98 dfbc 9896 dd3d
000002e0: 84ea 0b3e 2a97 1dbe 872c 7cbc 188e e8bd
000002f0: b65f 1f3e e175 38bd 1623 1d3e f173 9ebd
00000300: 3d82 943d 1a2a 5dbd 0c3e a13d 8a7e cdbd
00000310: efb0 843d 1339 943d 1fd0 903d d0bf 013e
00000320: 37b4 523d 33a7 86bd 11bc dabd 82d9 ad3d
00000330: fd55 c53c 0aff c7bd 95e7 213e ea5b 3dbe
00000340: b981 063b 162c e03c 1520 1ebd 037c 90bd
00000350: a9fe 003c b4d1 8bbd af08 48bd 6b93 3fbe
00000360: b3df ecbd 0281 f73d ce38 8c3d 9117 723d
00000370: b847 d93d aed1 8ebd ee18 90bd 7bb5 7abe
00000380: 10ea 99bd 4201 10bd 149e 3ebd 2a23 0a3e
00000390: a6b6 e1bb f547 41be 3f7f 33bd 89d7 583d
000003a0: a940 a93d 4f40 b4bd fe3c 1f3d 9f65 b7bd
000003b0: 65e3 fabc 9ff6 fb3d 5c65 3fbe eb9a cdbb
000003c0: a450 80bb 4630 c0bd c371 0f3c 0a17 b8bd
000003d0: 2656 c0bd d051 073d e741 6e3d 144a 5abc
000003e0: f39a 83bc 2bc7 893d e03f 5abb 1beb 9b3d
000003f0: cb69 1a3d 26f9 a5bd 533b 933d 6919 19be

network.4.bias f4 [4]
0.06972664 0.07256502 0.05813274 0.034165423
00000000: d7cc 8e3d f89c 943d 991c 6e3d 0bf1 0b3d
